node {
  name: "global_step/Initializer/zeros"
  op: "Const"
  attr {
    key: "_class"
    value {
      list {
        s: "loc:@global_step"
      }
    }
  }
  attr {
    key: "_output_shapes"
    value {
      list {
        shape {
        }
      }
    }
  }
  attr {
    key: "dtype"
    value {
      type: DT_INT64
    }
  }
  attr {
    key: "value"
    value {
      tensor {
        dtype: DT_INT64
        tensor_shape {
        }
        int64_val: 0
      }
    }
  }
}
node {
  name: "global_step"
  op: "VariableV2"
  attr {
    key: "_class"
    value {
      list {
        s: "loc:@global_step"
      }
    }
  }
  attr {
    key: "_output_shapes"
    value {
      list {
        shape {
        }
      }
    }
  }
  attr {
    key: "container"
    value {
      s: ""
    }
  }
  attr {
    key: "dtype"
    value {
      type: DT_INT64
    }
  }
  attr {
    key: "shape"
    value {
      shape {
      }
    }
  }
  attr {
    key: "shared_name"
    value {
      s: ""
    }
  }
}
node {
  name: "global_step/Assign"
  op: "Assign"
  input: "global_step"
  input: "global_step/Initializer/zeros"
  attr {
    key: "T"
    value {
      type: DT_INT64
    }
  }
  attr {
    key: "_class"
    value {
      list {
        s: "loc:@global_step"
      }
    }
  }
  attr {
    key: "_output_shapes"
    value {
      list {
        shape {
        }
      }
    }
  }
  attr {
    key: "use_locking"
    value {
      b: true
    }
  }
  attr {
    key: "validate_shape"
    value {
      b: true
    }
  }
}
node {
  name: "global_step/read"
  op: "Identity"
  input: "global_step"
  attr {
    key: "T"
    value {
      type: DT_INT64
    }
  }
  attr {
    key: "_class"
    value {
      list {
        s: "loc:@global_step"
      }
    }
  }
  attr {
    key: "_output_shapes"
    value {
      list {
        shape {
        }
      }
    }
  }
}
node {
  name: "train_input_fn/parallel_read/filenames/Const"
  op: "Const"
  attr {
    key: "_output_shapes"
    value {
      list {
        shape {
          dim {
            size: 1
          }
        }
      }
    }
  }
  attr {
    key: "dtype"
    value {
      type: DT_STRING
    }
  }
  attr {
    key: "value"
    value {
      tensor {
        dtype: DT_STRING
        tensor_shape {
          dim {
            size: 1
          }
        }
        string_val: "../pa-smp-c-50-00/train/lhs.txt"
      }
    }
  }
}
node {
  name: "train_input_fn/parallel_read/filenames/Size"
  op: "Const"
  attr {
    key: "_output_shapes"
    value {
      list {
        shape {
        }
      }
    }
  }
  attr {
    key: "dtype"
    value {
      type: DT_INT32
    }
  }
  attr {
    key: "value"
    value {
      tensor {
        dtype: DT_INT32
        tensor_shape {
        }
        int_val: 1
      }
    }
  }
}
node {
  name: "train_input_fn/parallel_read/filenames/Greater/y"
  op: "Const"
  attr {
    key: "_output_shapes"
    value {
      list {
        shape {
        }
      }
    }
  }
  attr {
    key: "dtype"
    value {
      type: DT_INT32
    }
  }
  attr {
    key: "value"
    value {
      tensor {
        dtype: DT_INT32
        tensor_shape {
        }
        int_val: 0
      }
    }
  }
}
node {
  name: "train_input_fn/parallel_read/filenames/Greater"
  op: "Greater"
  input: "train_input_fn/parallel_read/filenames/Size"
  input: "train_input_fn/parallel_read/filenames/Greater/y"
  attr {
    key: "T"
    value {
      type: DT_INT32
    }
  }
  attr {
    key: "_output_shapes"
    value {
      list {
        shape {
        }
      }
    }
  }
}
node {
  name: "train_input_fn/parallel_read/filenames/Assert/Const"
  op: "Const"
  attr {
    key: "_output_shapes"
    value {
      list {
        shape {
        }
      }
    }
  }
  attr {
    key: "dtype"
    value {
      type: DT_STRING
    }
  }
  attr {
    key: "value"
    value {
      tensor {
        dtype: DT_STRING
        tensor_shape {
        }
        string_val: "string_input_producer requires a non-null input tensor"
      }
    }
  }
}
node {
  name: "train_input_fn/parallel_read/filenames/Assert/Assert/data_0"
  op: "Const"
  attr {
    key: "_output_shapes"
    value {
      list {
        shape {
        }
      }
    }
  }
  attr {
    key: "dtype"
    value {
      type: DT_STRING
    }
  }
  attr {
    key: "value"
    value {
      tensor {
        dtype: DT_STRING
        tensor_shape {
        }
        string_val: "string_input_producer requires a non-null input tensor"
      }
    }
  }
}
node {
  name: "train_input_fn/parallel_read/filenames/Assert/Assert"
  op: "Assert"
  input: "train_input_fn/parallel_read/filenames/Greater"
  input: "train_input_fn/parallel_read/filenames/Assert/Assert/data_0"
  attr {
    key: "T"
    value {
      list {
        type: DT_STRING
      }
    }
  }
  attr {
    key: "summarize"
    value {
      i: 3
    }
  }
}
node {
  name: "train_input_fn/parallel_read/filenames/Identity"
  op: "Identity"
  input: "train_input_fn/parallel_read/filenames/Const"
  input: "^train_input_fn/parallel_read/filenames/Assert/Assert"
  attr {
    key: "T"
    value {
      type: DT_STRING
    }
  }
  attr {
    key: "_output_shapes"
    value {
      list {
        shape {
          dim {
            size: 1
          }
        }
      }
    }
  }
}
node {
  name: "train_input_fn/parallel_read/filenames"
  op: "FIFOQueueV2"
  attr {
    key: "_output_shapes"
    value {
      list {
        shape {
        }
      }
    }
  }
  attr {
    key: "capacity"
    value {
      i: 32
    }
  }
  attr {
    key: "component_types"
    value {
      list {
        type: DT_STRING
      }
    }
  }
  attr {
    key: "container"
    value {
      s: ""
    }
  }
  attr {
    key: "shapes"
    value {
      list {
        shape {
        }
      }
    }
  }
  attr {
    key: "shared_name"
    value {
      s: ""
    }
  }
}
node {
  name: "train_input_fn/parallel_read/filenames/filenames_EnqueueMany"
  op: "QueueEnqueueManyV2"
  input: "train_input_fn/parallel_read/filenames"
  input: "train_input_fn/parallel_read/filenames/Identity"
  attr {
    key: "Tcomponents"
    value {
      list {
        type: DT_STRING
      }
    }
  }
  attr {
    key: "timeout_ms"
    value {
      i: -1
    }
  }
}
node {
  name: "train_input_fn/parallel_read/filenames/filenames_Close"
  op: "QueueCloseV2"
  input: "train_input_fn/parallel_read/filenames"
  attr {
    key: "cancel_pending_enqueues"
    value {
      b: false
    }
  }
}
node {
  name: "train_input_fn/parallel_read/filenames/filenames_Close_1"
  op: "QueueCloseV2"
  input: "train_input_fn/parallel_read/filenames"
  attr {
    key: "cancel_pending_enqueues"
    value {
      b: true
    }
  }
}
node {
  name: "train_input_fn/parallel_read/filenames/filenames_Size"
  op: "QueueSizeV2"
  input: "train_input_fn/parallel_read/filenames"
  attr {
    key: "_output_shapes"
    value {
      list {
        shape {
        }
      }
    }
  }
}
node {
  name: "train_input_fn/parallel_read/filenames/ToFloat"
  op: "Cast"
  input: "train_input_fn/parallel_read/filenames/filenames_Size"
  attr {
    key: "DstT"
    value {
      type: DT_FLOAT
    }
  }
  attr {
    key: "SrcT"
    value {
      type: DT_INT32
    }
  }
  attr {
    key: "_output_shapes"
    value {
      list {
        shape {
        }
      }
    }
  }
}
node {
  name: "train_input_fn/parallel_read/filenames/mul/y"
  op: "Const"
  attr {
    key: "_output_shapes"
    value {
      list {
        shape {
        }
      }
    }
  }
  attr {
    key: "dtype"
    value {
      type: DT_FLOAT
    }
  }
  attr {
    key: "value"
    value {
      tensor {
        dtype: DT_FLOAT
        tensor_shape {
        }
        float_val: 0.03125
      }
    }
  }
}
node {
  name: "train_input_fn/parallel_read/filenames/mul"
  op: "Mul"
  input: "train_input_fn/parallel_read/filenames/ToFloat"
  input: "train_input_fn/parallel_read/filenames/mul/y"
  attr {
    key: "T"
    value {
      type: DT_FLOAT
    }
  }
  attr {
    key: "_output_shapes"
    value {
      list {
        shape {
        }
      }
    }
  }
}
node {
  name: "train_input_fn/parallel_read/filenames/fraction_of_32_full/tags"
  op: "Const"
  attr {
    key: "_output_shapes"
    value {
      list {
        shape {
        }
      }
    }
  }
  attr {
    key: "dtype"
    value {
      type: DT_STRING
    }
  }
  attr {
    key: "value"
    value {
      tensor {
        dtype: DT_STRING
        tensor_shape {
        }
        string_val: "train_input_fn/parallel_read/filenames/fraction_of_32_full"
      }
    }
  }
}
node {
  name: "train_input_fn/parallel_read/filenames/fraction_of_32_full"
  op: "ScalarSummary"
  input: "train_input_fn/parallel_read/filenames/fraction_of_32_full/tags"
  input: "train_input_fn/parallel_read/filenames/mul"
  attr {
    key: "T"
    value {
      type: DT_FLOAT
    }
  }
  attr {
    key: "_output_shapes"
    value {
      list {
        shape {
        }
      }
    }
  }
}
node {
  name: "train_input_fn/parallel_read/common_queue"
  op: "FIFOQueueV2"
  attr {
    key: "_output_shapes"
    value {
      list {
        shape {
        }
      }
    }
  }
  attr {
    key: "capacity"
    value {
      i: 4096
    }
  }
  attr {
    key: "component_types"
    value {
      list {
        type: DT_STRING
        type: DT_STRING
      }
    }
  }
  attr {
    key: "container"
    value {
      s: ""
    }
  }
  attr {
    key: "shapes"
    value {
      list {
      }
    }
  }
  attr {
    key: "shared_name"
    value {
      s: ""
    }
  }
}
node {
  name: "train_input_fn/parallel_read/common_queue_Size"
  op: "QueueSizeV2"
  input: "train_input_fn/parallel_read/common_queue"
  attr {
    key: "_output_shapes"
    value {
      list {
        shape {
        }
      }
    }
  }
}
node {
  name: "train_input_fn/parallel_read/ToFloat"
  op: "Cast"
  input: "train_input_fn/parallel_read/common_queue_Size"
  attr {
    key: "DstT"
    value {
      type: DT_FLOAT
    }
  }
  attr {
    key: "SrcT"
    value {
      type: DT_INT32
    }
  }
  attr {
    key: "_output_shapes"
    value {
      list {
        shape {
        }
      }
    }
  }
}
node {
  name: "train_input_fn/parallel_read/mul/y"
  op: "Const"
  attr {
    key: "_output_shapes"
    value {
      list {
        shape {
        }
      }
    }
  }
  attr {
    key: "dtype"
    value {
      type: DT_FLOAT
    }
  }
  attr {
    key: "value"
    value {
      tensor {
        dtype: DT_FLOAT
        tensor_shape {
        }
        float_val: 0.000244140625
      }
    }
  }
}
node {
  name: "train_input_fn/parallel_read/mul"
  op: "Mul"
  input: "train_input_fn/parallel_read/ToFloat"
  input: "train_input_fn/parallel_read/mul/y"
  attr {
    key: "T"
    value {
      type: DT_FLOAT
    }
  }
  attr {
    key: "_output_shapes"
    value {
      list {
        shape {
        }
      }
    }
  }
}
node {
  name: "train_input_fn/parallel_read/fraction_of_4096_full/tags"
  op: "Const"
  attr {
    key: "_output_shapes"
    value {
      list {
        shape {
        }
      }
    }
  }
  attr {
    key: "dtype"
    value {
      type: DT_STRING
    }
  }
  attr {
    key: "value"
    value {
      tensor {
        dtype: DT_STRING
        tensor_shape {
        }
        string_val: "train_input_fn/parallel_read/fraction_of_4096_full"
      }
    }
  }
}
node {
  name: "train_input_fn/parallel_read/fraction_of_4096_full"
  op: "ScalarSummary"
  input: "train_input_fn/parallel_read/fraction_of_4096_full/tags"
  input: "train_input_fn/parallel_read/mul"
  attr {
    key: "T"
    value {
      type: DT_FLOAT
    }
  }
  attr {
    key: "_output_shapes"
    value {
      list {
        shape {
        }
      }
    }
  }
}
node {
  name: "train_input_fn/parallel_read/TextLineReaderV2"
  op: "TextLineReaderV2"
  attr {
    key: "_output_shapes"
    value {
      list {
        shape {
        }
      }
    }
  }
  attr {
    key: "container"
    value {
      s: ""
    }
  }
  attr {
    key: "shared_name"
    value {
      s: ""
    }
  }
  attr {
    key: "skip_header_lines"
    value {
      i: 0
    }
  }
}
node {
  name: "train_input_fn/parallel_read/ReaderReadV2"
  op: "ReaderReadV2"
  input: "train_input_fn/parallel_read/TextLineReaderV2"
  input: "train_input_fn/parallel_read/filenames"
  attr {
    key: "_output_shapes"
    value {
      list {
        shape {
        }
        shape {
        }
      }
    }
  }
}
node {
  name: "train_input_fn/parallel_read/common_queue_enqueue"
  op: "QueueEnqueueV2"
  input: "train_input_fn/parallel_read/common_queue"
  input: "train_input_fn/parallel_read/ReaderReadV2"
  input: "train_input_fn/parallel_read/ReaderReadV2:1"
  attr {
    key: "Tcomponents"
    value {
      list {
        type: DT_STRING
        type: DT_STRING
      }
    }
  }
  attr {
    key: "timeout_ms"
    value {
      i: -1
    }
  }
}
node {
  name: "train_input_fn/parallel_read/common_queue_Close"
  op: "QueueCloseV2"
  input: "train_input_fn/parallel_read/common_queue"
  attr {
    key: "cancel_pending_enqueues"
    value {
      b: false
    }
  }
}
node {
  name: "train_input_fn/parallel_read/common_queue_Close_1"
  op: "QueueCloseV2"
  input: "train_input_fn/parallel_read/common_queue"
  attr {
    key: "cancel_pending_enqueues"
    value {
      b: true
    }
  }
}
node {
  name: "train_input_fn/parallel_read/common_queue_Dequeue"
  op: "QueueDequeueV2"
  input: "train_input_fn/parallel_read/common_queue"
  attr {
    key: "_output_shapes"
    value {
      list {
        shape {
          unknown_rank: true
        }
        shape {
          unknown_rank: true
        }
      }
    }
  }
  attr {
    key: "component_types"
    value {
      list {
        type: DT_STRING
        type: DT_STRING
      }
    }
  }
  attr {
    key: "timeout_ms"
    value {
      i: -1
    }
  }
}
node {
  name: "train_input_fn/parallel_read_1/filenames/Const"
  op: "Const"
  attr {
    key: "_output_shapes"
    value {
      list {
        shape {
          dim {
            size: 1
          }
        }
      }
    }
  }
  attr {
    key: "dtype"
    value {
      type: DT_STRING
    }
  }
  attr {
    key: "value"
    value {
      tensor {
        dtype: DT_STRING
        tensor_shape {
          dim {
            size: 1
          }
        }
        string_val: "../pa-smp-c-50-00/train/rhs.txt"
      }
    }
  }
}
node {
  name: "train_input_fn/parallel_read_1/filenames/Size"
  op: "Const"
  attr {
    key: "_output_shapes"
    value {
      list {
        shape {
        }
      }
    }
  }
  attr {
    key: "dtype"
    value {
      type: DT_INT32
    }
  }
  attr {
    key: "value"
    value {
      tensor {
        dtype: DT_INT32
        tensor_shape {
        }
        int_val: 1
      }
    }
  }
}
node {
  name: "train_input_fn/parallel_read_1/filenames/Greater/y"
  op: "Const"
  attr {
    key: "_output_shapes"
    value {
      list {
        shape {
        }
      }
    }
  }
  attr {
    key: "dtype"
    value {
      type: DT_INT32
    }
  }
  attr {
    key: "value"
    value {
      tensor {
        dtype: DT_INT32
        tensor_shape {
        }
        int_val: 0
      }
    }
  }
}
node {
  name: "train_input_fn/parallel_read_1/filenames/Greater"
  op: "Greater"
  input: "train_input_fn/parallel_read_1/filenames/Size"
  input: "train_input_fn/parallel_read_1/filenames/Greater/y"
  attr {
    key: "T"
    value {
      type: DT_INT32
    }
  }
  attr {
    key: "_output_shapes"
    value {
      list {
        shape {
        }
      }
    }
  }
}
node {
  name: "train_input_fn/parallel_read_1/filenames/Assert/Const"
  op: "Const"
  attr {
    key: "_output_shapes"
    value {
      list {
        shape {
        }
      }
    }
  }
  attr {
    key: "dtype"
    value {
      type: DT_STRING
    }
  }
  attr {
    key: "value"
    value {
      tensor {
        dtype: DT_STRING
        tensor_shape {
        }
        string_val: "string_input_producer requires a non-null input tensor"
      }
    }
  }
}
node {
  name: "train_input_fn/parallel_read_1/filenames/Assert/Assert/data_0"
  op: "Const"
  attr {
    key: "_output_shapes"
    value {
      list {
        shape {
        }
      }
    }
  }
  attr {
    key: "dtype"
    value {
      type: DT_STRING
    }
  }
  attr {
    key: "value"
    value {
      tensor {
        dtype: DT_STRING
        tensor_shape {
        }
        string_val: "string_input_producer requires a non-null input tensor"
      }
    }
  }
}
node {
  name: "train_input_fn/parallel_read_1/filenames/Assert/Assert"
  op: "Assert"
  input: "train_input_fn/parallel_read_1/filenames/Greater"
  input: "train_input_fn/parallel_read_1/filenames/Assert/Assert/data_0"
  attr {
    key: "T"
    value {
      list {
        type: DT_STRING
      }
    }
  }
  attr {
    key: "summarize"
    value {
      i: 3
    }
  }
}
node {
  name: "train_input_fn/parallel_read_1/filenames/Identity"
  op: "Identity"
  input: "train_input_fn/parallel_read_1/filenames/Const"
  input: "^train_input_fn/parallel_read_1/filenames/Assert/Assert"
  attr {
    key: "T"
    value {
      type: DT_STRING
    }
  }
  attr {
    key: "_output_shapes"
    value {
      list {
        shape {
          dim {
            size: 1
          }
        }
      }
    }
  }
}
node {
  name: "train_input_fn/parallel_read_1/filenames"
  op: "FIFOQueueV2"
  attr {
    key: "_output_shapes"
    value {
      list {
        shape {
        }
      }
    }
  }
  attr {
    key: "capacity"
    value {
      i: 32
    }
  }
  attr {
    key: "component_types"
    value {
      list {
        type: DT_STRING
      }
    }
  }
  attr {
    key: "container"
    value {
      s: ""
    }
  }
  attr {
    key: "shapes"
    value {
      list {
        shape {
        }
      }
    }
  }
  attr {
    key: "shared_name"
    value {
      s: ""
    }
  }
}
node {
  name: "train_input_fn/parallel_read_1/filenames/filenames_EnqueueMany"
  op: "QueueEnqueueManyV2"
  input: "train_input_fn/parallel_read_1/filenames"
  input: "train_input_fn/parallel_read_1/filenames/Identity"
  attr {
    key: "Tcomponents"
    value {
      list {
        type: DT_STRING
      }
    }
  }
  attr {
    key: "timeout_ms"
    value {
      i: -1
    }
  }
}
node {
  name: "train_input_fn/parallel_read_1/filenames/filenames_Close"
  op: "QueueCloseV2"
  input: "train_input_fn/parallel_read_1/filenames"
  attr {
    key: "cancel_pending_enqueues"
    value {
      b: false
    }
  }
}
node {
  name: "train_input_fn/parallel_read_1/filenames/filenames_Close_1"
  op: "QueueCloseV2"
  input: "train_input_fn/parallel_read_1/filenames"
  attr {
    key: "cancel_pending_enqueues"
    value {
      b: true
    }
  }
}
node {
  name: "train_input_fn/parallel_read_1/filenames/filenames_Size"
  op: "QueueSizeV2"
  input: "train_input_fn/parallel_read_1/filenames"
  attr {
    key: "_output_shapes"
    value {
      list {
        shape {
        }
      }
    }
  }
}
node {
  name: "train_input_fn/parallel_read_1/filenames/ToFloat"
  op: "Cast"
  input: "train_input_fn/parallel_read_1/filenames/filenames_Size"
  attr {
    key: "DstT"
    value {
      type: DT_FLOAT
    }
  }
  attr {
    key: "SrcT"
    value {
      type: DT_INT32
    }
  }
  attr {
    key: "_output_shapes"
    value {
      list {
        shape {
        }
      }
    }
  }
}
node {
  name: "train_input_fn/parallel_read_1/filenames/mul/y"
  op: "Const"
  attr {
    key: "_output_shapes"
    value {
      list {
        shape {
        }
      }
    }
  }
  attr {
    key: "dtype"
    value {
      type: DT_FLOAT
    }
  }
  attr {
    key: "value"
    value {
      tensor {
        dtype: DT_FLOAT
        tensor_shape {
        }
        float_val: 0.03125
      }
    }
  }
}
node {
  name: "train_input_fn/parallel_read_1/filenames/mul"
  op: "Mul"
  input: "train_input_fn/parallel_read_1/filenames/ToFloat"
  input: "train_input_fn/parallel_read_1/filenames/mul/y"
  attr {
    key: "T"
    value {
      type: DT_FLOAT
    }
  }
  attr {
    key: "_output_shapes"
    value {
      list {
        shape {
        }
      }
    }
  }
}
node {
  name: "train_input_fn/parallel_read_1/filenames/fraction_of_32_full/tags"
  op: "Const"
  attr {
    key: "_output_shapes"
    value {
      list {
        shape {
        }
      }
    }
  }
  attr {
    key: "dtype"
    value {
      type: DT_STRING
    }
  }
  attr {
    key: "value"
    value {
      tensor {
        dtype: DT_STRING
        tensor_shape {
        }
        string_val: "train_input_fn/parallel_read_1/filenames/fraction_of_32_full"
      }
    }
  }
}
node {
  name: "train_input_fn/parallel_read_1/filenames/fraction_of_32_full"
  op: "ScalarSummary"
  input: "train_input_fn/parallel_read_1/filenames/fraction_of_32_full/tags"
  input: "train_input_fn/parallel_read_1/filenames/mul"
  attr {
    key: "T"
    value {
      type: DT_FLOAT
    }
  }
  attr {
    key: "_output_shapes"
    value {
      list {
        shape {
        }
      }
    }
  }
}
node {
  name: "train_input_fn/parallel_read_1/common_queue"
  op: "FIFOQueueV2"
  attr {
    key: "_output_shapes"
    value {
      list {
        shape {
        }
      }
    }
  }
  attr {
    key: "capacity"
    value {
      i: 4096
    }
  }
  attr {
    key: "component_types"
    value {
      list {
        type: DT_STRING
        type: DT_STRING
      }
    }
  }
  attr {
    key: "container"
    value {
      s: ""
    }
  }
  attr {
    key: "shapes"
    value {
      list {
      }
    }
  }
  attr {
    key: "shared_name"
    value {
      s: ""
    }
  }
}
node {
  name: "train_input_fn/parallel_read_1/common_queue_Size"
  op: "QueueSizeV2"
  input: "train_input_fn/parallel_read_1/common_queue"
  attr {
    key: "_output_shapes"
    value {
      list {
        shape {
        }
      }
    }
  }
}
node {
  name: "train_input_fn/parallel_read_1/ToFloat"
  op: "Cast"
  input: "train_input_fn/parallel_read_1/common_queue_Size"
  attr {
    key: "DstT"
    value {
      type: DT_FLOAT
    }
  }
  attr {
    key: "SrcT"
    value {
      type: DT_INT32
    }
  }
  attr {
    key: "_output_shapes"
    value {
      list {
        shape {
        }
      }
    }
  }
}
node {
  name: "train_input_fn/parallel_read_1/mul/y"
  op: "Const"
  attr {
    key: "_output_shapes"
    value {
      list {
        shape {
        }
      }
    }
  }
  attr {
    key: "dtype"
    value {
      type: DT_FLOAT
    }
  }
  attr {
    key: "value"
    value {
      tensor {
        dtype: DT_FLOAT
        tensor_shape {
        }
        float_val: 0.000244140625
      }
    }
  }
}
node {
  name: "train_input_fn/parallel_read_1/mul"
  op: "Mul"
  input: "train_input_fn/parallel_read_1/ToFloat"
  input: "train_input_fn/parallel_read_1/mul/y"
  attr {
    key: "T"
    value {
      type: DT_FLOAT
    }
  }
  attr {
    key: "_output_shapes"
    value {
      list {
        shape {
        }
      }
    }
  }
}
node {
  name: "train_input_fn/parallel_read_1/fraction_of_4096_full/tags"
  op: "Const"
  attr {
    key: "_output_shapes"
    value {
      list {
        shape {
        }
      }
    }
  }
  attr {
    key: "dtype"
    value {
      type: DT_STRING
    }
  }
  attr {
    key: "value"
    value {
      tensor {
        dtype: DT_STRING
        tensor_shape {
        }
        string_val: "train_input_fn/parallel_read_1/fraction_of_4096_full"
      }
    }
  }
}
node {
  name: "train_input_fn/parallel_read_1/fraction_of_4096_full"
  op: "ScalarSummary"
  input: "train_input_fn/parallel_read_1/fraction_of_4096_full/tags"
  input: "train_input_fn/parallel_read_1/mul"
  attr {
    key: "T"
    value {
      type: DT_FLOAT
    }
  }
  attr {
    key: "_output_shapes"
    value {
      list {
        shape {
        }
      }
    }
  }
}
node {
  name: "train_input_fn/parallel_read_1/TextLineReaderV2"
  op: "TextLineReaderV2"
  attr {
    key: "_output_shapes"
    value {
      list {
        shape {
        }
      }
    }
  }
  attr {
    key: "container"
    value {
      s: ""
    }
  }
  attr {
    key: "shared_name"
    value {
      s: ""
    }
  }
  attr {
    key: "skip_header_lines"
    value {
      i: 0
    }
  }
}
node {
  name: "train_input_fn/parallel_read_1/ReaderReadV2"
  op: "ReaderReadV2"
  input: "train_input_fn/parallel_read_1/TextLineReaderV2"
  input: "train_input_fn/parallel_read_1/filenames"
  attr {
    key: "_output_shapes"
    value {
      list {
        shape {
        }
        shape {
        }
      }
    }
  }
}
node {
  name: "train_input_fn/parallel_read_1/common_queue_enqueue"
  op: "QueueEnqueueV2"
  input: "train_input_fn/parallel_read_1/common_queue"
  input: "train_input_fn/parallel_read_1/ReaderReadV2"
  input: "train_input_fn/parallel_read_1/ReaderReadV2:1"
  attr {
    key: "Tcomponents"
    value {
      list {
        type: DT_STRING
        type: DT_STRING
      }
    }
  }
  attr {
    key: "timeout_ms"
    value {
      i: -1
    }
  }
}
node {
  name: "train_input_fn/parallel_read_1/common_queue_Close"
  op: "QueueCloseV2"
  input: "train_input_fn/parallel_read_1/common_queue"
  attr {
    key: "cancel_pending_enqueues"
    value {
      b: false
    }
  }
}
node {
  name: "train_input_fn/parallel_read_1/common_queue_Close_1"
  op: "QueueCloseV2"
  input: "train_input_fn/parallel_read_1/common_queue"
  attr {
    key: "cancel_pending_enqueues"
    value {
      b: true
    }
  }
}
node {
  name: "train_input_fn/parallel_read_1/common_queue_Dequeue"
  op: "QueueDequeueV2"
  input: "train_input_fn/parallel_read_1/common_queue"
  attr {
    key: "_output_shapes"
    value {
      list {
        shape {
          unknown_rank: true
        }
        shape {
          unknown_rank: true
        }
      }
    }
  }
  attr {
    key: "component_types"
    value {
      list {
        type: DT_STRING
        type: DT_STRING
      }
    }
  }
  attr {
    key: "timeout_ms"
    value {
      i: -1
    }
  }
}
node {
  name: "train_input_fn/random_shuffle_queue"
  op: "RandomShuffleQueueV2"
  attr {
    key: "_output_shapes"
    value {
      list {
        shape {
        }
      }
    }
  }
  attr {
    key: "capacity"
    value {
      i: 4096
    }
  }
  attr {
    key: "component_types"
    value {
      list {
        type: DT_STRING
        type: DT_STRING
      }
    }
  }
  attr {
    key: "container"
    value {
      s: ""
    }
  }
  attr {
    key: "min_after_dequeue"
    value {
      i: 1024
    }
  }
  attr {
    key: "seed"
    value {
      i: 87654321
    }
  }
  attr {
    key: "seed2"
    value {
      i: 659595505
    }
  }
  attr {
    key: "shapes"
    value {
      list {
      }
    }
  }
  attr {
    key: "shared_name"
    value {
      s: ""
    }
  }
}
node {
  name: "train_input_fn/random_shuffle_queue_enqueue"
  op: "QueueEnqueueV2"
  input: "train_input_fn/random_shuffle_queue"
  input: "train_input_fn/parallel_read/common_queue_Dequeue:1"
  input: "train_input_fn/parallel_read_1/common_queue_Dequeue:1"
  attr {
    key: "Tcomponents"
    value {
      list {
        type: DT_STRING
        type: DT_STRING
      }
    }
  }
  attr {
    key: "timeout_ms"
    value {
      i: -1
    }
  }
}
node {
  name: "train_input_fn/random_shuffle_queue_Close"
  op: "QueueCloseV2"
  input: "train_input_fn/random_shuffle_queue"
  attr {
    key: "cancel_pending_enqueues"
    value {
      b: false
    }
  }
}
node {
  name: "train_input_fn/random_shuffle_queue_Close_1"
  op: "QueueCloseV2"
  input: "train_input_fn/random_shuffle_queue"
  attr {
    key: "cancel_pending_enqueues"
    value {
      b: true
    }
  }
}
node {
  name: "train_input_fn/random_shuffle_queue_Dequeue"
  op: "QueueDequeueV2"
  input: "train_input_fn/random_shuffle_queue"
  attr {
    key: "_output_shapes"
    value {
      list {
        shape {
          unknown_rank: true
        }
        shape {
          unknown_rank: true
        }
      }
    }
  }
  attr {
    key: "component_types"
    value {
      list {
        type: DT_STRING
        type: DT_STRING
      }
    }
  }
  attr {
    key: "timeout_ms"
    value {
      i: -1
    }
  }
}
node {
  name: "train_input_fn/Const"
  op: "Const"
  attr {
    key: "_output_shapes"
    value {
      list {
        shape {
        }
      }
    }
  }
  attr {
    key: "dtype"
    value {
      type: DT_STRING
    }
  }
  attr {
    key: "value"
    value {
      tensor {
        dtype: DT_STRING
        tensor_shape {
        }
        string_val: " "
      }
    }
  }
}
node {
  name: "train_input_fn/packed"
  op: "Pack"
  input: "train_input_fn/random_shuffle_queue_Dequeue"
  attr {
    key: "N"
    value {
      i: 1
    }
  }
  attr {
    key: "T"
    value {
      type: DT_STRING
    }
  }
  attr {
    key: "_output_shapes"
    value {
      list {
        shape {
          unknown_rank: true
        }
      }
    }
  }
  attr {
    key: "axis"
    value {
      i: 0
    }
  }
}
node {
  name: "train_input_fn/StringSplit"
  op: "StringSplit"
  input: "train_input_fn/packed"
  input: "train_input_fn/Const"
  attr {
    key: "_output_shapes"
    value {
      list {
        shape {
          dim {
            size: -1
          }
          dim {
            size: 2
          }
        }
        shape {
          dim {
            size: -1
          }
        }
        shape {
          dim {
            size: 2
          }
        }
      }
    }
  }
  attr {
    key: "skip_empty"
    value {
      b: true
    }
  }
}
node {
  name: "train_input_fn/concat/values_1"
  op: "Const"
  attr {
    key: "_output_shapes"
    value {
      list {
        shape {
          dim {
            size: 1
          }
        }
      }
    }
  }
  attr {
    key: "dtype"
    value {
      type: DT_STRING
    }
  }
  attr {
    key: "value"
    value {
      tensor {
        dtype: DT_STRING
        tensor_shape {
          dim {
            size: 1
          }
        }
        string_val: "SEQUENCE_END"
      }
    }
  }
}
node {
  name: "train_input_fn/concat/axis"
  op: "Const"
  attr {
    key: "_output_shapes"
    value {
      list {
        shape {
        }
      }
    }
  }
  attr {
    key: "dtype"
    value {
      type: DT_INT32
    }
  }
  attr {
    key: "value"
    value {
      tensor {
        dtype: DT_INT32
        tensor_shape {
        }
        int_val: 0
      }
    }
  }
}
node {
  name: "train_input_fn/concat"
  op: "ConcatV2"
  input: "train_input_fn/StringSplit:1"
  input: "train_input_fn/concat/values_1"
  input: "train_input_fn/concat/axis"
  attr {
    key: "N"
    value {
      i: 2
    }
  }
  attr {
    key: "T"
    value {
      type: DT_STRING
    }
  }
  attr {
    key: "Tidx"
    value {
      type: DT_INT32
    }
  }
  attr {
    key: "_output_shapes"
    value {
      list {
        shape {
          dim {
            size: -1
          }
        }
      }
    }
  }
}
node {
  name: "train_input_fn/Size"
  op: "Size"
  input: "train_input_fn/concat"
  attr {
    key: "T"
    value {
      type: DT_STRING
    }
  }
  attr {
    key: "_output_shapes"
    value {
      list {
        shape {
        }
      }
    }
  }
  attr {
    key: "out_type"
    value {
      type: DT_INT32
    }
  }
}
node {
  name: "train_input_fn/Const_1"
  op: "Const"
  attr {
    key: "_output_shapes"
    value {
      list {
        shape {
        }
      }
    }
  }
  attr {
    key: "dtype"
    value {
      type: DT_STRING
    }
  }
  attr {
    key: "value"
    value {
      tensor {
        dtype: DT_STRING
        tensor_shape {
        }
        string_val: " "
      }
    }
  }
}
node {
  name: "train_input_fn/packed_1"
  op: "Pack"
  input: "train_input_fn/random_shuffle_queue_Dequeue:1"
  attr {
    key: "N"
    value {
      i: 1
    }
  }
  attr {
    key: "T"
    value {
      type: DT_STRING
    }
  }
  attr {
    key: "_output_shapes"
    value {
      list {
        shape {
          unknown_rank: true
        }
      }
    }
  }
  attr {
    key: "axis"
    value {
      i: 0
    }
  }
}
node {
  name: "train_input_fn/StringSplit_1"
  op: "StringSplit"
  input: "train_input_fn/packed_1"
  input: "train_input_fn/Const_1"
  attr {
    key: "_output_shapes"
    value {
      list {
        shape {
          dim {
            size: -1
          }
          dim {
            size: 2
          }
        }
        shape {
          dim {
            size: -1
          }
        }
        shape {
          dim {
            size: 2
          }
        }
      }
    }
  }
  attr {
    key: "skip_empty"
    value {
      b: true
    }
  }
}
node {
  name: "train_input_fn/concat_1/values_0"
  op: "Const"
  attr {
    key: "_output_shapes"
    value {
      list {
        shape {
          dim {
            size: 1
          }
        }
      }
    }
  }
  attr {
    key: "dtype"
    value {
      type: DT_STRING
    }
  }
  attr {
    key: "value"
    value {
      tensor {
        dtype: DT_STRING
        tensor_shape {
          dim {
            size: 1
          }
        }
        string_val: "SEQUENCE_START"
      }
    }
  }
}
node {
  name: "train_input_fn/concat_1/axis"
  op: "Const"
  attr {
    key: "_output_shapes"
    value {
      list {
        shape {
        }
      }
    }
  }
  attr {
    key: "dtype"
    value {
      type: DT_INT32
    }
  }
  attr {
    key: "value"
    value {
      tensor {
        dtype: DT_INT32
        tensor_shape {
        }
        int_val: 0
      }
    }
  }
}
node {
  name: "train_input_fn/concat_1"
  op: "ConcatV2"
  input: "train_input_fn/concat_1/values_0"
  input: "train_input_fn/StringSplit_1:1"
  input: "train_input_fn/concat_1/axis"
  attr {
    key: "N"
    value {
      i: 2
    }
  }
  attr {
    key: "T"
    value {
      type: DT_STRING
    }
  }
  attr {
    key: "Tidx"
    value {
      type: DT_INT32
    }
  }
  attr {
    key: "_output_shapes"
    value {
      list {
        shape {
          dim {
            size: -1
          }
        }
      }
    }
  }
}
node {
  name: "train_input_fn/concat_2/values_1"
  op: "Const"
  attr {
    key: "_output_shapes"
    value {
      list {
        shape {
          dim {
            size: 1
          }
        }
      }
    }
  }
  attr {
    key: "dtype"
    value {
      type: DT_STRING
    }
  }
  attr {
    key: "value"
    value {
      tensor {
        dtype: DT_STRING
        tensor_shape {
          dim {
            size: 1
          }
        }
        string_val: "SEQUENCE_END"
      }
    }
  }
}
node {
  name: "train_input_fn/concat_2/axis"
  op: "Const"
  attr {
    key: "_output_shapes"
    value {
      list {
        shape {
        }
      }
    }
  }
  attr {
    key: "dtype"
    value {
      type: DT_INT32
    }
  }
  attr {
    key: "value"
    value {
      tensor {
        dtype: DT_INT32
        tensor_shape {
        }
        int_val: 0
      }
    }
  }
}
node {
  name: "train_input_fn/concat_2"
  op: "ConcatV2"
  input: "train_input_fn/concat_1"
  input: "train_input_fn/concat_2/values_1"
  input: "train_input_fn/concat_2/axis"
  attr {
    key: "N"
    value {
      i: 2
    }
  }
  attr {
    key: "T"
    value {
      type: DT_STRING
    }
  }
  attr {
    key: "Tidx"
    value {
      type: DT_INT32
    }
  }
  attr {
    key: "_output_shapes"
    value {
      list {
        shape {
          dim {
            size: -1
          }
        }
      }
    }
  }
}
node {
  name: "train_input_fn/Size_1"
  op: "Size"
  input: "train_input_fn/concat_2"
  attr {
    key: "T"
    value {
      type: DT_STRING
    }
  }
  attr {
    key: "_output_shapes"
    value {
      list {
        shape {
        }
      }
    }
  }
  attr {
    key: "out_type"
    value {
      type: DT_INT32
    }
  }
}
node {
  name: "train_input_fn/GreaterEqual/y"
  op: "Const"
  attr {
    key: "_output_shapes"
    value {
      list {
        shape {
        }
      }
    }
  }
  attr {
    key: "dtype"
    value {
      type: DT_INT32
    }
  }
  attr {
    key: "value"
    value {
      tensor {
        dtype: DT_INT32
        tensor_shape {
        }
        int_val: 1
      }
    }
  }
}
node {
  name: "train_input_fn/GreaterEqual"
  op: "GreaterEqual"
  input: "train_input_fn/Size"
  input: "train_input_fn/GreaterEqual/y"
  attr {
    key: "T"
    value {
      type: DT_INT32
    }
  }
  attr {
    key: "_output_shapes"
    value {
      list {
        shape {
        }
      }
    }
  }
}
node {
  name: "train_input_fn/bucket_queue/LessEqual/x"
  op: "Const"
  attr {
    key: "_output_shapes"
    value {
      list {
        shape {
          dim {
            size: 5
          }
        }
      }
    }
  }
  attr {
    key: "dtype"
    value {
      type: DT_INT32
    }
  }
  attr {
    key: "value"
    value {
      tensor {
        dtype: DT_INT32
        tensor_shape {
          dim {
            size: 5
          }
        }
        tensor_content: "\000\000\000\200\n\000\000\000\024\000\000\000\036\000\000\000(\000\000\000"
      }
    }
  }
}
node {
  name: "train_input_fn/bucket_queue/LessEqual"
  op: "LessEqual"
  input: "train_input_fn/bucket_queue/LessEqual/x"
  input: "train_input_fn/Size"
  attr {
    key: "T"
    value {
      type: DT_INT32
    }
  }
  attr {
    key: "_output_shapes"
    value {
      list {
        shape {
          dim {
            size: 5
          }
        }
      }
    }
  }
}
node {
  name: "train_input_fn/bucket_queue/Less/y"
  op: "Const"
  attr {
    key: "_output_shapes"
    value {
      list {
        shape {
          dim {
            size: 5
          }
        }
      }
    }
  }
  attr {
    key: "dtype"
    value {
      type: DT_INT32
    }
  }
  attr {
    key: "value"
    value {
      tensor {
        dtype: DT_INT32
        tensor_shape {
          dim {
            size: 5
          }
        }
        tensor_content: "\n\000\000\000\024\000\000\000\036\000\000\000(\000\000\000\377\377\377\177"
      }
    }
  }
}
node {
  name: "train_input_fn/bucket_queue/Less"
  op: "Less"
  input: "train_input_fn/Size"
  input: "train_input_fn/bucket_queue/Less/y"
  attr {
    key: "T"
    value {
      type: DT_INT32
    }
  }
  attr {
    key: "_output_shapes"
    value {
      list {
        shape {
          dim {
            size: 5
          }
        }
      }
    }
  }
}
node {
  name: "train_input_fn/bucket_queue/LogicalAnd"
  op: "LogicalAnd"
  input: "train_input_fn/bucket_queue/LessEqual"
  input: "train_input_fn/bucket_queue/Less"
  attr {
    key: "_output_shapes"
    value {
      list {
        shape {
          dim {
            size: 5
          }
        }
      }
    }
  }
}
node {
  name: "train_input_fn/bucket_queue/Where"
  op: "Where"
  input: "train_input_fn/bucket_queue/LogicalAnd"
  attr {
    key: "T"
    value {
      type: DT_BOOL
    }
  }
  attr {
    key: "_output_shapes"
    value {
      list {
        shape {
          dim {
            size: -1
          }
          dim {
            size: 1
          }
        }
      }
    }
  }
}
node {
  name: "train_input_fn/bucket_queue/Const"
  op: "Const"
  attr {
    key: "_output_shapes"
    value {
      list {
        shape {
          dim {
            size: 2
          }
        }
      }
    }
  }
  attr {
    key: "dtype"
    value {
      type: DT_INT32
    }
  }
  attr {
    key: "value"
    value {
      tensor {
        dtype: DT_INT32
        tensor_shape {
          dim {
            size: 2
          }
        }
        tensor_content: "\000\000\000\000\001\000\000\000"
      }
    }
  }
}
node {
  name: "train_input_fn/bucket_queue/Min"
  op: "Min"
  input: "train_input_fn/bucket_queue/Where"
  input: "train_input_fn/bucket_queue/Const"
  attr {
    key: "T"
    value {
      type: DT_INT64
    }
  }
  attr {
    key: "Tidx"
    value {
      type: DT_INT32
    }
  }
  attr {
    key: "_output_shapes"
    value {
      list {
        shape {
        }
      }
    }
  }
  attr {
    key: "keep_dims"
    value {
      b: false
    }
  }
}
node {
  name: "train_input_fn/bucket_queue/ToInt32"
  op: "Cast"
  input: "train_input_fn/bucket_queue/Min"
  attr {
    key: "DstT"
    value {
      type: DT_INT32
    }
  }
  attr {
    key: "SrcT"
    value {
      type: DT_INT64
    }
  }
  attr {
    key: "_output_shapes"
    value {
      list {
        shape {
        }
      }
    }
  }
}
node {
  name: "train_input_fn/bucket_queue/bucket/batch_size"
  op: "Const"
  attr {
    key: "_output_shapes"
    value {
      list {
        shape {
        }
      }
    }
  }
  attr {
    key: "dtype"
    value {
      type: DT_INT32
    }
  }
  attr {
    key: "value"
    value {
      tensor {
        dtype: DT_INT32
        tensor_shape {
        }
        int_val: 1
      }
    }
  }
}
node {
  name: "train_input_fn/bucket_queue/bucket/batch_size_1"
  op: "Const"
  attr {
    key: "_output_shapes"
    value {
      list {
        shape {
        }
      }
    }
  }
  attr {
    key: "dtype"
    value {
      type: DT_INT32
    }
  }
  attr {
    key: "value"
    value {
      tensor {
        dtype: DT_INT32
        tensor_shape {
        }
        int_val: 1
      }
    }
  }
}
node {
  name: "train_input_fn/bucket_queue/bucket/batch_size_2"
  op: "Const"
  attr {
    key: "_output_shapes"
    value {
      list {
        shape {
        }
      }
    }
  }
  attr {
    key: "dtype"
    value {
      type: DT_INT32
    }
  }
  attr {
    key: "value"
    value {
      tensor {
        dtype: DT_INT32
        tensor_shape {
        }
        int_val: 1
      }
    }
  }
}
node {
  name: "train_input_fn/bucket_queue/bucket/batch_size_3"
  op: "Const"
  attr {
    key: "_output_shapes"
    value {
      list {
        shape {
        }
      }
    }
  }
  attr {
    key: "dtype"
    value {
      type: DT_INT32
    }
  }
  attr {
    key: "value"
    value {
      tensor {
        dtype: DT_INT32
        tensor_shape {
        }
        int_val: 1
      }
    }
  }
}
node {
  name: "train_input_fn/bucket_queue/bucket/batch_size_4"
  op: "Const"
  attr {
    key: "_output_shapes"
    value {
      list {
        shape {
        }
      }
    }
  }
  attr {
    key: "dtype"
    value {
      type: DT_INT32
    }
  }
  attr {
    key: "value"
    value {
      tensor {
        dtype: DT_INT32
        tensor_shape {
        }
        int_val: 1
      }
    }
  }
}
node {
  name: "train_input_fn/bucket_queue/bucket/bucket_queue_0"
  op: "PaddingFIFOQueueV2"
  attr {
    key: "_output_shapes"
    value {
      list {
        shape {
        }
      }
    }
  }
  attr {
    key: "capacity"
    value {
      i: 5016
    }
  }
  attr {
    key: "component_types"
    value {
      list {
        type: DT_INT32
        type: DT_INT32
        type: DT_STRING
        type: DT_INT32
        type: DT_STRING
      }
    }
  }
  attr {
    key: "container"
    value {
      s: ""
    }
  }
  attr {
    key: "shapes"
    value {
      list {
        shape {
        }
        shape {
        }
        shape {
          dim {
            size: -1
          }
        }
        shape {
        }
        shape {
          dim {
            size: -1
          }
        }
      }
    }
  }
  attr {
    key: "shared_name"
    value {
      s: ""
    }
  }
}
node {
  name: "train_input_fn/bucket_queue/bucket/bucket_queue_1"
  op: "PaddingFIFOQueueV2"
  attr {
    key: "_output_shapes"
    value {
      list {
        shape {
        }
      }
    }
  }
  attr {
    key: "capacity"
    value {
      i: 5016
    }
  }
  attr {
    key: "component_types"
    value {
      list {
        type: DT_INT32
        type: DT_INT32
        type: DT_STRING
        type: DT_INT32
        type: DT_STRING
      }
    }
  }
  attr {
    key: "container"
    value {
      s: ""
    }
  }
  attr {
    key: "shapes"
    value {
      list {
        shape {
        }
        shape {
        }
        shape {
          dim {
            size: -1
          }
        }
        shape {
        }
        shape {
          dim {
            size: -1
          }
        }
      }
    }
  }
  attr {
    key: "shared_name"
    value {
      s: ""
    }
  }
}
node {
  name: "train_input_fn/bucket_queue/bucket/bucket_queue_2"
  op: "PaddingFIFOQueueV2"
  attr {
    key: "_output_shapes"
    value {
      list {
        shape {
        }
      }
    }
  }
  attr {
    key: "capacity"
    value {
      i: 5016
    }
  }
  attr {
    key: "component_types"
    value {
      list {
        type: DT_INT32
        type: DT_INT32
        type: DT_STRING
        type: DT_INT32
        type: DT_STRING
      }
    }
  }
  attr {
    key: "container"
    value {
      s: ""
    }
  }
  attr {
    key: "shapes"
    value {
      list {
        shape {
        }
        shape {
        }
        shape {
          dim {
            size: -1
          }
        }
        shape {
        }
        shape {
          dim {
            size: -1
          }
        }
      }
    }
  }
  attr {
    key: "shared_name"
    value {
      s: ""
    }
  }
}
node {
  name: "train_input_fn/bucket_queue/bucket/bucket_queue_3"
  op: "PaddingFIFOQueueV2"
  attr {
    key: "_output_shapes"
    value {
      list {
        shape {
        }
      }
    }
  }
  attr {
    key: "capacity"
    value {
      i: 5016
    }
  }
  attr {
    key: "component_types"
    value {
      list {
        type: DT_INT32
        type: DT_INT32
        type: DT_STRING
        type: DT_INT32
        type: DT_STRING
      }
    }
  }
  attr {
    key: "container"
    value {
      s: ""
    }
  }
  attr {
    key: "shapes"
    value {
      list {
        shape {
        }
        shape {
        }
        shape {
          dim {
            size: -1
          }
        }
        shape {
        }
        shape {
          dim {
            size: -1
          }
        }
      }
    }
  }
  attr {
    key: "shared_name"
    value {
      s: ""
    }
  }
}
node {
  name: "train_input_fn/bucket_queue/bucket/bucket_queue_4"
  op: "PaddingFIFOQueueV2"
  attr {
    key: "_output_shapes"
    value {
      list {
        shape {
        }
      }
    }
  }
  attr {
    key: "capacity"
    value {
      i: 5016
    }
  }
  attr {
    key: "component_types"
    value {
      list {
        type: DT_INT32
        type: DT_INT32
        type: DT_STRING
        type: DT_INT32
        type: DT_STRING
      }
    }
  }
  attr {
    key: "container"
    value {
      s: ""
    }
  }
  attr {
    key: "shapes"
    value {
      list {
        shape {
        }
        shape {
        }
        shape {
          dim {
            size: -1
          }
        }
        shape {
        }
        shape {
          dim {
            size: -1
          }
        }
      }
    }
  }
  attr {
    key: "shared_name"
    value {
      s: ""
    }
  }
}
node {
  name: "train_input_fn/bucket_queue/bucket/top_queue"
  op: "PaddingFIFOQueueV2"
  attr {
    key: "_output_shapes"
    value {
      list {
        shape {
        }
      }
    }
  }
  attr {
    key: "capacity"
    value {
      i: 5016
    }
  }
  attr {
    key: "component_types"
    value {
      list {
        type: DT_INT32
        type: DT_INT32
        type: DT_INT32
        type: DT_STRING
        type: DT_INT32
        type: DT_STRING
      }
    }
  }
  attr {
    key: "container"
    value {
      s: ""
    }
  }
  attr {
    key: "shapes"
    value {
      list {
        shape {
        }
        shape {
          dim {
            size: 1
          }
        }
        shape {
          dim {
            size: 1
          }
        }
        shape {
          dim {
            size: 1
          }
          dim {
            size: -1
          }
        }
        shape {
          dim {
            size: 1
          }
        }
        shape {
          dim {
            size: 1
          }
          dim {
            size: -1
          }
        }
      }
    }
  }
  attr {
    key: "shared_name"
    value {
      s: ""
    }
  }
}
node {
  name: "train_input_fn/bucket_queue/bucket/cond/Switch"
  op: "Switch"
  input: "train_input_fn/GreaterEqual"
  input: "train_input_fn/GreaterEqual"
  attr {
    key: "T"
    value {
      type: DT_BOOL
    }
  }
  attr {
    key: "_output_shapes"
    value {
      list {
        shape {
        }
        shape {
        }
      }
    }
  }
}
node {
  name: "train_input_fn/bucket_queue/bucket/cond/switch_t"
  op: "Identity"
  input: "train_input_fn/bucket_queue/bucket/cond/Switch:1"
  attr {
    key: "T"
    value {
      type: DT_BOOL
    }
  }
  attr {
    key: "_output_shapes"
    value {
      list {
        shape {
        }
      }
    }
  }
}
node {
  name: "train_input_fn/bucket_queue/bucket/cond/switch_f"
  op: "Identity"
  input: "train_input_fn/bucket_queue/bucket/cond/Switch"
  attr {
    key: "T"
    value {
      type: DT_BOOL
    }
  }
  attr {
    key: "_output_shapes"
    value {
      list {
        shape {
        }
      }
    }
  }
}
node {
  name: "train_input_fn/bucket_queue/bucket/cond/pred_id"
  op: "Identity"
  input: "train_input_fn/GreaterEqual"
  attr {
    key: "T"
    value {
      type: DT_BOOL
    }
  }
  attr {
    key: "_output_shapes"
    value {
      list {
        shape {
        }
      }
    }
  }
}
node {
  name: "train_input_fn/bucket_queue/bucket/cond/Equal/y"
  op: "Const"
  input: "^train_input_fn/bucket_queue/bucket/cond/switch_t"
  attr {
    key: "_output_shapes"
    value {
      list {
        shape {
        }
      }
    }
  }
  attr {
    key: "dtype"
    value {
      type: DT_INT32
    }
  }
  attr {
    key: "value"
    value {
      tensor {
        dtype: DT_INT32
        tensor_shape {
        }
        int_val: 0
      }
    }
  }
}
node {
  name: "train_input_fn/bucket_queue/bucket/cond/Equal"
  op: "Equal"
  input: "train_input_fn/bucket_queue/bucket/cond/Equal/Switch:1"
  input: "train_input_fn/bucket_queue/bucket/cond/Equal/y"
  attr {
    key: "T"
    value {
      type: DT_INT32
    }
  }
  attr {
    key: "_output_shapes"
    value {
      list {
        shape {
        }
      }
    }
  }
}
node {
  name: "train_input_fn/bucket_queue/bucket/cond/Equal/Switch"
  op: "Switch"
  input: "train_input_fn/bucket_queue/ToInt32"
  input: "train_input_fn/bucket_queue/bucket/cond/pred_id"
  attr {
    key: "T"
    value {
      type: DT_INT32
    }
  }
  attr {
    key: "_class"
    value {
      list {
        s: "loc:@train_input_fn/bucket_queue/ToInt32"
      }
    }
  }
  attr {
    key: "_output_shapes"
    value {
      list {
        shape {
        }
        shape {
        }
      }
    }
  }
}
node {
  name: "train_input_fn/bucket_queue/bucket/cond/cond/Switch"
  op: "Switch"
  input: "train_input_fn/bucket_queue/bucket/cond/Equal"
  input: "train_input_fn/bucket_queue/bucket/cond/Equal"
  attr {
    key: "T"
    value {
      type: DT_BOOL
    }
  }
  attr {
    key: "_output_shapes"
    value {
      list {
        shape {
        }
        shape {
        }
      }
    }
  }
}
node {
  name: "train_input_fn/bucket_queue/bucket/cond/cond/switch_t"
  op: "Identity"
  input: "train_input_fn/bucket_queue/bucket/cond/cond/Switch:1"
  attr {
    key: "T"
    value {
      type: DT_BOOL
    }
  }
  attr {
    key: "_output_shapes"
    value {
      list {
        shape {
        }
      }
    }
  }
}
node {
  name: "train_input_fn/bucket_queue/bucket/cond/cond/switch_f"
  op: "Identity"
  input: "train_input_fn/bucket_queue/bucket/cond/cond/Switch"
  attr {
    key: "T"
    value {
      type: DT_BOOL
    }
  }
  attr {
    key: "_output_shapes"
    value {
      list {
        shape {
        }
      }
    }
  }
}
node {
  name: "train_input_fn/bucket_queue/bucket/cond/cond/pred_id"
  op: "Identity"
  input: "train_input_fn/bucket_queue/bucket/cond/Equal"
  attr {
    key: "T"
    value {
      type: DT_BOOL
    }
  }
  attr {
    key: "_output_shapes"
    value {
      list {
        shape {
        }
      }
    }
  }
}
node {
  name: "train_input_fn/bucket_queue/bucket/cond/cond/bucket_queue_0_enqueue"
  op: "QueueEnqueueV2"
  input: "train_input_fn/bucket_queue/bucket/cond/cond/bucket_queue_0_enqueue/Switch_1:1"
  input: "train_input_fn/bucket_queue/bucket/cond/cond/bucket_queue_0_enqueue/Switch_3:1"
  input: "train_input_fn/bucket_queue/bucket/cond/cond/bucket_queue_0_enqueue/Switch_3:1"
  input: "train_input_fn/bucket_queue/bucket/cond/cond/bucket_queue_0_enqueue/Switch_5:1"
  input: "train_input_fn/bucket_queue/bucket/cond/cond/bucket_queue_0_enqueue/Switch_7:1"
  input: "train_input_fn/bucket_queue/bucket/cond/cond/bucket_queue_0_enqueue/Switch_9:1"
  attr {
    key: "Tcomponents"
    value {
      list {
        type: DT_INT32
        type: DT_INT32
        type: DT_STRING
        type: DT_INT32
        type: DT_STRING
      }
    }
  }
  attr {
    key: "timeout_ms"
    value {
      i: -1
    }
  }
}
node {
  name: "train_input_fn/bucket_queue/bucket/cond/cond/bucket_queue_0_enqueue/Switch"
  op: "Switch"
  input: "train_input_fn/bucket_queue/bucket/bucket_queue_0"
  input: "train_input_fn/bucket_queue/bucket/cond/pred_id"
  attr {
    key: "T"
    value {
      type: DT_RESOURCE
    }
  }
  attr {
    key: "_class"
    value {
      list {
        s: "loc:@train_input_fn/bucket_queue/bucket/bucket_queue_0"
      }
    }
  }
  attr {
    key: "_output_shapes"
    value {
      list {
        shape {
        }
        shape {
        }
      }
    }
  }
}
node {
  name: "train_input_fn/bucket_queue/bucket/cond/cond/bucket_queue_0_enqueue/Switch_1"
  op: "Switch"
  input: "train_input_fn/bucket_queue/bucket/cond/cond/bucket_queue_0_enqueue/Switch:1"
  input: "train_input_fn/bucket_queue/bucket/cond/cond/pred_id"
  attr {
    key: "T"
    value {
      type: DT_RESOURCE
    }
  }
  attr {
    key: "_class"
    value {
      list {
        s: "loc:@train_input_fn/bucket_queue/bucket/bucket_queue_0"
      }
    }
  }
  attr {
    key: "_output_shapes"
    value {
      list {
        shape {
        }
        shape {
        }
      }
    }
  }
}
node {
  name: "train_input_fn/bucket_queue/bucket/cond/cond/bucket_queue_0_enqueue/Switch_2"
  op: "Switch"
  input: "train_input_fn/Size"
  input: "train_input_fn/bucket_queue/bucket/cond/pred_id"
  attr {
    key: "T"
    value {
      type: DT_INT32
    }
  }
  attr {
    key: "_class"
    value {
      list {
        s: "loc:@train_input_fn/Size"
      }
    }
  }
  attr {
    key: "_output_shapes"
    value {
      list {
        shape {
        }
        shape {
        }
      }
    }
  }
}
node {
  name: "train_input_fn/bucket_queue/bucket/cond/cond/bucket_queue_0_enqueue/Switch_3"
  op: "Switch"
  input: "train_input_fn/bucket_queue/bucket/cond/cond/bucket_queue_0_enqueue/Switch_2:1"
  input: "train_input_fn/bucket_queue/bucket/cond/cond/pred_id"
  attr {
    key: "T"
    value {
      type: DT_INT32
    }
  }
  attr {
    key: "_class"
    value {
      list {
        s: "loc:@train_input_fn/Size"
      }
    }
  }
  attr {
    key: "_output_shapes"
    value {
      list {
        shape {
        }
        shape {
        }
      }
    }
  }
}
node {
  name: "train_input_fn/bucket_queue/bucket/cond/cond/bucket_queue_0_enqueue/Switch_4"
  op: "Switch"
  input: "train_input_fn/concat"
  input: "train_input_fn/bucket_queue/bucket/cond/pred_id"
  attr {
    key: "T"
    value {
      type: DT_STRING
    }
  }
  attr {
    key: "_class"
    value {
      list {
        s: "loc:@train_input_fn/concat"
      }
    }
  }
  attr {
    key: "_output_shapes"
    value {
      list {
        shape {
          dim {
            size: -1
          }
        }
        shape {
          dim {
            size: -1
          }
        }
      }
    }
  }
}
node {
  name: "train_input_fn/bucket_queue/bucket/cond/cond/bucket_queue_0_enqueue/Switch_5"
  op: "Switch"
  input: "train_input_fn/bucket_queue/bucket/cond/cond/bucket_queue_0_enqueue/Switch_4:1"
  input: "train_input_fn/bucket_queue/bucket/cond/cond/pred_id"
  attr {
    key: "T"
    value {
      type: DT_STRING
    }
  }
  attr {
    key: "_class"
    value {
      list {
        s: "loc:@train_input_fn/concat"
      }
    }
  }
  attr {
    key: "_output_shapes"
    value {
      list {
        shape {
          dim {
            size: -1
          }
        }
        shape {
          dim {
            size: -1
          }
        }
      }
    }
  }
}
node {
  name: "train_input_fn/bucket_queue/bucket/cond/cond/bucket_queue_0_enqueue/Switch_6"
  op: "Switch"
  input: "train_input_fn/Size_1"
  input: "train_input_fn/bucket_queue/bucket/cond/pred_id"
  attr {
    key: "T"
    value {
      type: DT_INT32
    }
  }
  attr {
    key: "_class"
    value {
      list {
        s: "loc:@train_input_fn/Size_1"
      }
    }
  }
  attr {
    key: "_output_shapes"
    value {
      list {
        shape {
        }
        shape {
        }
      }
    }
  }
}
node {
  name: "train_input_fn/bucket_queue/bucket/cond/cond/bucket_queue_0_enqueue/Switch_7"
  op: "Switch"
  input: "train_input_fn/bucket_queue/bucket/cond/cond/bucket_queue_0_enqueue/Switch_6:1"
  input: "train_input_fn/bucket_queue/bucket/cond/cond/pred_id"
  attr {
    key: "T"
    value {
      type: DT_INT32
    }
  }
  attr {
    key: "_class"
    value {
      list {
        s: "loc:@train_input_fn/Size_1"
      }
    }
  }
  attr {
    key: "_output_shapes"
    value {
      list {
        shape {
        }
        shape {
        }
      }
    }
  }
}
node {
  name: "train_input_fn/bucket_queue/bucket/cond/cond/bucket_queue_0_enqueue/Switch_8"
  op: "Switch"
  input: "train_input_fn/concat_2"
  input: "train_input_fn/bucket_queue/bucket/cond/pred_id"
  attr {
    key: "T"
    value {
      type: DT_STRING
    }
  }
  attr {
    key: "_class"
    value {
      list {
        s: "loc:@train_input_fn/concat_2"
      }
    }
  }
  attr {
    key: "_output_shapes"
    value {
      list {
        shape {
          dim {
            size: -1
          }
        }
        shape {
          dim {
            size: -1
          }
        }
      }
    }
  }
}
node {
  name: "train_input_fn/bucket_queue/bucket/cond/cond/bucket_queue_0_enqueue/Switch_9"
  op: "Switch"
  input: "train_input_fn/bucket_queue/bucket/cond/cond/bucket_queue_0_enqueue/Switch_8:1"
  input: "train_input_fn/bucket_queue/bucket/cond/cond/pred_id"
  attr {
    key: "T"
    value {
      type: DT_STRING
    }
  }
  attr {
    key: "_class"
    value {
      list {
        s: "loc:@train_input_fn/concat_2"
      }
    }
  }
  attr {
    key: "_output_shapes"
    value {
      list {
        shape {
          dim {
            size: -1
          }
        }
        shape {
          dim {
            size: -1
          }
        }
      }
    }
  }
}
node {
  name: "train_input_fn/bucket_queue/bucket/cond/cond/control_dependency"
  op: "Identity"
  input: "train_input_fn/bucket_queue/bucket/cond/cond/switch_t"
  input: "^train_input_fn/bucket_queue/bucket/cond/cond/bucket_queue_0_enqueue"
  attr {
    key: "T"
    value {
      type: DT_BOOL
    }
  }
  attr {
    key: "_class"
    value {
      list {
        s: "loc:@train_input_fn/bucket_queue/bucket/cond/cond/switch_t"
      }
    }
  }
  attr {
    key: "_output_shapes"
    value {
      list {
        shape {
        }
      }
    }
  }
}
node {
  name: "train_input_fn/bucket_queue/bucket/cond/cond/NoOp"
  op: "NoOp"
  input: "^train_input_fn/bucket_queue/bucket/cond/cond/switch_f"
}
node {
  name: "train_input_fn/bucket_queue/bucket/cond/cond/control_dependency_1"
  op: "Identity"
  input: "train_input_fn/bucket_queue/bucket/cond/cond/switch_f"
  input: "^train_input_fn/bucket_queue/bucket/cond/cond/NoOp"
  attr {
    key: "T"
    value {
      type: DT_BOOL
    }
  }
  attr {
    key: "_class"
    value {
      list {
        s: "loc:@train_input_fn/bucket_queue/bucket/cond/cond/switch_f"
      }
    }
  }
  attr {
    key: "_output_shapes"
    value {
      list {
        shape {
        }
      }
    }
  }
}
node {
  name: "train_input_fn/bucket_queue/bucket/cond/cond/Merge"
  op: "Merge"
  input: "train_input_fn/bucket_queue/bucket/cond/cond/control_dependency_1"
  input: "train_input_fn/bucket_queue/bucket/cond/cond/control_dependency"
  attr {
    key: "N"
    value {
      i: 2
    }
  }
  attr {
    key: "T"
    value {
      type: DT_BOOL
    }
  }
  attr {
    key: "_output_shapes"
    value {
      list {
        shape {
        }
        shape {
        }
      }
    }
  }
}
node {
  name: "train_input_fn/bucket_queue/bucket/cond/Equal_1/y"
  op: "Const"
  input: "^train_input_fn/bucket_queue/bucket/cond/switch_t"
  attr {
    key: "_output_shapes"
    value {
      list {
        shape {
        }
      }
    }
  }
  attr {
    key: "dtype"
    value {
      type: DT_INT32
    }
  }
  attr {
    key: "value"
    value {
      tensor {
        dtype: DT_INT32
        tensor_shape {
        }
        int_val: 1
      }
    }
  }
}
node {
  name: "train_input_fn/bucket_queue/bucket/cond/Equal_1"
  op: "Equal"
  input: "train_input_fn/bucket_queue/bucket/cond/Equal/Switch:1"
  input: "train_input_fn/bucket_queue/bucket/cond/Equal_1/y"
  attr {
    key: "T"
    value {
      type: DT_INT32
    }
  }
  attr {
    key: "_output_shapes"
    value {
      list {
        shape {
        }
      }
    }
  }
}
node {
  name: "train_input_fn/bucket_queue/bucket/cond/cond_1/Switch"
  op: "Switch"
  input: "train_input_fn/bucket_queue/bucket/cond/Equal_1"
  input: "train_input_fn/bucket_queue/bucket/cond/Equal_1"
  attr {
    key: "T"
    value {
      type: DT_BOOL
    }
  }
  attr {
    key: "_output_shapes"
    value {
      list {
        shape {
        }
        shape {
        }
      }
    }
  }
}
node {
  name: "train_input_fn/bucket_queue/bucket/cond/cond_1/switch_t"
  op: "Identity"
  input: "train_input_fn/bucket_queue/bucket/cond/cond_1/Switch:1"
  attr {
    key: "T"
    value {
      type: DT_BOOL
    }
  }
  attr {
    key: "_output_shapes"
    value {
      list {
        shape {
        }
      }
    }
  }
}
node {
  name: "train_input_fn/bucket_queue/bucket/cond/cond_1/switch_f"
  op: "Identity"
  input: "train_input_fn/bucket_queue/bucket/cond/cond_1/Switch"
  attr {
    key: "T"
    value {
      type: DT_BOOL
    }
  }
  attr {
    key: "_output_shapes"
    value {
      list {
        shape {
        }
      }
    }
  }
}
node {
  name: "train_input_fn/bucket_queue/bucket/cond/cond_1/pred_id"
  op: "Identity"
  input: "train_input_fn/bucket_queue/bucket/cond/Equal_1"
  attr {
    key: "T"
    value {
      type: DT_BOOL
    }
  }
  attr {
    key: "_output_shapes"
    value {
      list {
        shape {
        }
      }
    }
  }
}
node {
  name: "train_input_fn/bucket_queue/bucket/cond/cond_1/bucket_queue_1_enqueue"
  op: "QueueEnqueueV2"
  input: "train_input_fn/bucket_queue/bucket/cond/cond_1/bucket_queue_1_enqueue/Switch_1:1"
  input: "train_input_fn/bucket_queue/bucket/cond/cond_1/bucket_queue_1_enqueue/Switch_2:1"
  input: "train_input_fn/bucket_queue/bucket/cond/cond_1/bucket_queue_1_enqueue/Switch_2:1"
  input: "train_input_fn/bucket_queue/bucket/cond/cond_1/bucket_queue_1_enqueue/Switch_3:1"
  input: "train_input_fn/bucket_queue/bucket/cond/cond_1/bucket_queue_1_enqueue/Switch_4:1"
  input: "train_input_fn/bucket_queue/bucket/cond/cond_1/bucket_queue_1_enqueue/Switch_5:1"
  attr {
    key: "Tcomponents"
    value {
      list {
        type: DT_INT32
        type: DT_INT32
        type: DT_STRING
        type: DT_INT32
        type: DT_STRING
      }
    }
  }
  attr {
    key: "timeout_ms"
    value {
      i: -1
    }
  }
}
node {
  name: "train_input_fn/bucket_queue/bucket/cond/cond_1/bucket_queue_1_enqueue/Switch"
  op: "Switch"
  input: "train_input_fn/bucket_queue/bucket/bucket_queue_1"
  input: "train_input_fn/bucket_queue/bucket/cond/pred_id"
  attr {
    key: "T"
    value {
      type: DT_RESOURCE
    }
  }
  attr {
    key: "_class"
    value {
      list {
        s: "loc:@train_input_fn/bucket_queue/bucket/bucket_queue_1"
      }
    }
  }
  attr {
    key: "_output_shapes"
    value {
      list {
        shape {
        }
        shape {
        }
      }
    }
  }
}
node {
  name: "train_input_fn/bucket_queue/bucket/cond/cond_1/bucket_queue_1_enqueue/Switch_1"
  op: "Switch"
  input: "train_input_fn/bucket_queue/bucket/cond/cond_1/bucket_queue_1_enqueue/Switch:1"
  input: "train_input_fn/bucket_queue/bucket/cond/cond_1/pred_id"
  attr {
    key: "T"
    value {
      type: DT_RESOURCE
    }
  }
  attr {
    key: "_class"
    value {
      list {
        s: "loc:@train_input_fn/bucket_queue/bucket/bucket_queue_1"
      }
    }
  }
  attr {
    key: "_output_shapes"
    value {
      list {
        shape {
        }
        shape {
        }
      }
    }
  }
}
node {
  name: "train_input_fn/bucket_queue/bucket/cond/cond_1/bucket_queue_1_enqueue/Switch_2"
  op: "Switch"
  input: "train_input_fn/bucket_queue/bucket/cond/cond/bucket_queue_0_enqueue/Switch_2:1"
  input: "train_input_fn/bucket_queue/bucket/cond/cond_1/pred_id"
  attr {
    key: "T"
    value {
      type: DT_INT32
    }
  }
  attr {
    key: "_class"
    value {
      list {
        s: "loc:@train_input_fn/Size"
      }
    }
  }
  attr {
    key: "_output_shapes"
    value {
      list {
        shape {
        }
        shape {
        }
      }
    }
  }
}
node {
  name: "train_input_fn/bucket_queue/bucket/cond/cond_1/bucket_queue_1_enqueue/Switch_3"
  op: "Switch"
  input: "train_input_fn/bucket_queue/bucket/cond/cond/bucket_queue_0_enqueue/Switch_4:1"
  input: "train_input_fn/bucket_queue/bucket/cond/cond_1/pred_id"
  attr {
    key: "T"
    value {
      type: DT_STRING
    }
  }
  attr {
    key: "_class"
    value {
      list {
        s: "loc:@train_input_fn/concat"
      }
    }
  }
  attr {
    key: "_output_shapes"
    value {
      list {
        shape {
          dim {
            size: -1
          }
        }
        shape {
          dim {
            size: -1
          }
        }
      }
    }
  }
}
node {
  name: "train_input_fn/bucket_queue/bucket/cond/cond_1/bucket_queue_1_enqueue/Switch_4"
  op: "Switch"
  input: "train_input_fn/bucket_queue/bucket/cond/cond/bucket_queue_0_enqueue/Switch_6:1"
  input: "train_input_fn/bucket_queue/bucket/cond/cond_1/pred_id"
  attr {
    key: "T"
    value {
      type: DT_INT32
    }
  }
  attr {
    key: "_class"
    value {
      list {
        s: "loc:@train_input_fn/Size_1"
      }
    }
  }
  attr {
    key: "_output_shapes"
    value {
      list {
        shape {
        }
        shape {
        }
      }
    }
  }
}
node {
  name: "train_input_fn/bucket_queue/bucket/cond/cond_1/bucket_queue_1_enqueue/Switch_5"
  op: "Switch"
  input: "train_input_fn/bucket_queue/bucket/cond/cond/bucket_queue_0_enqueue/Switch_8:1"
  input: "train_input_fn/bucket_queue/bucket/cond/cond_1/pred_id"
  attr {
    key: "T"
    value {
      type: DT_STRING
    }
  }
  attr {
    key: "_class"
    value {
      list {
        s: "loc:@train_input_fn/concat_2"
      }
    }
  }
  attr {
    key: "_output_shapes"
    value {
      list {
        shape {
          dim {
            size: -1
          }
        }
        shape {
          dim {
            size: -1
          }
        }
      }
    }
  }
}
node {
  name: "train_input_fn/bucket_queue/bucket/cond/cond_1/control_dependency"
  op: "Identity"
  input: "train_input_fn/bucket_queue/bucket/cond/cond_1/switch_t"
  input: "^train_input_fn/bucket_queue/bucket/cond/cond_1/bucket_queue_1_enqueue"
  attr {
    key: "T"
    value {
      type: DT_BOOL
    }
  }
  attr {
    key: "_class"
    value {
      list {
        s: "loc:@train_input_fn/bucket_queue/bucket/cond/cond_1/switch_t"
      }
    }
  }
  attr {
    key: "_output_shapes"
    value {
      list {
        shape {
        }
      }
    }
  }
}
node {
  name: "train_input_fn/bucket_queue/bucket/cond/cond_1/NoOp"
  op: "NoOp"
  input: "^train_input_fn/bucket_queue/bucket/cond/cond_1/switch_f"
}
node {
  name: "train_input_fn/bucket_queue/bucket/cond/cond_1/control_dependency_1"
  op: "Identity"
  input: "train_input_fn/bucket_queue/bucket/cond/cond_1/switch_f"
  input: "^train_input_fn/bucket_queue/bucket/cond/cond_1/NoOp"
  attr {
    key: "T"
    value {
      type: DT_BOOL
    }
  }
  attr {
    key: "_class"
    value {
      list {
        s: "loc:@train_input_fn/bucket_queue/bucket/cond/cond_1/switch_f"
      }
    }
  }
  attr {
    key: "_output_shapes"
    value {
      list {
        shape {
        }
      }
    }
  }
}
node {
  name: "train_input_fn/bucket_queue/bucket/cond/cond_1/Merge"
  op: "Merge"
  input: "train_input_fn/bucket_queue/bucket/cond/cond_1/control_dependency_1"
  input: "train_input_fn/bucket_queue/bucket/cond/cond_1/control_dependency"
  attr {
    key: "N"
    value {
      i: 2
    }
  }
  attr {
    key: "T"
    value {
      type: DT_BOOL
    }
  }
  attr {
    key: "_output_shapes"
    value {
      list {
        shape {
        }
        shape {
        }
      }
    }
  }
}
node {
  name: "train_input_fn/bucket_queue/bucket/cond/Equal_2/y"
  op: "Const"
  input: "^train_input_fn/bucket_queue/bucket/cond/switch_t"
  attr {
    key: "_output_shapes"
    value {
      list {
        shape {
        }
      }
    }
  }
  attr {
    key: "dtype"
    value {
      type: DT_INT32
    }
  }
  attr {
    key: "value"
    value {
      tensor {
        dtype: DT_INT32
        tensor_shape {
        }
        int_val: 2
      }
    }
  }
}
node {
  name: "train_input_fn/bucket_queue/bucket/cond/Equal_2"
  op: "Equal"
  input: "train_input_fn/bucket_queue/bucket/cond/Equal/Switch:1"
  input: "train_input_fn/bucket_queue/bucket/cond/Equal_2/y"
  attr {
    key: "T"
    value {
      type: DT_INT32
    }
  }
  attr {
    key: "_output_shapes"
    value {
      list {
        shape {
        }
      }
    }
  }
}
node {
  name: "train_input_fn/bucket_queue/bucket/cond/cond_2/Switch"
  op: "Switch"
  input: "train_input_fn/bucket_queue/bucket/cond/Equal_2"
  input: "train_input_fn/bucket_queue/bucket/cond/Equal_2"
  attr {
    key: "T"
    value {
      type: DT_BOOL
    }
  }
  attr {
    key: "_output_shapes"
    value {
      list {
        shape {
        }
        shape {
        }
      }
    }
  }
}
node {
  name: "train_input_fn/bucket_queue/bucket/cond/cond_2/switch_t"
  op: "Identity"
  input: "train_input_fn/bucket_queue/bucket/cond/cond_2/Switch:1"
  attr {
    key: "T"
    value {
      type: DT_BOOL
    }
  }
  attr {
    key: "_output_shapes"
    value {
      list {
        shape {
        }
      }
    }
  }
}
node {
  name: "train_input_fn/bucket_queue/bucket/cond/cond_2/switch_f"
  op: "Identity"
  input: "train_input_fn/bucket_queue/bucket/cond/cond_2/Switch"
  attr {
    key: "T"
    value {
      type: DT_BOOL
    }
  }
  attr {
    key: "_output_shapes"
    value {
      list {
        shape {
        }
      }
    }
  }
}
node {
  name: "train_input_fn/bucket_queue/bucket/cond/cond_2/pred_id"
  op: "Identity"
  input: "train_input_fn/bucket_queue/bucket/cond/Equal_2"
  attr {
    key: "T"
    value {
      type: DT_BOOL
    }
  }
  attr {
    key: "_output_shapes"
    value {
      list {
        shape {
        }
      }
    }
  }
}
node {
  name: "train_input_fn/bucket_queue/bucket/cond/cond_2/bucket_queue_2_enqueue"
  op: "QueueEnqueueV2"
  input: "train_input_fn/bucket_queue/bucket/cond/cond_2/bucket_queue_2_enqueue/Switch_1:1"
  input: "train_input_fn/bucket_queue/bucket/cond/cond_2/bucket_queue_2_enqueue/Switch_2:1"
  input: "train_input_fn/bucket_queue/bucket/cond/cond_2/bucket_queue_2_enqueue/Switch_2:1"
  input: "train_input_fn/bucket_queue/bucket/cond/cond_2/bucket_queue_2_enqueue/Switch_3:1"
  input: "train_input_fn/bucket_queue/bucket/cond/cond_2/bucket_queue_2_enqueue/Switch_4:1"
  input: "train_input_fn/bucket_queue/bucket/cond/cond_2/bucket_queue_2_enqueue/Switch_5:1"
  attr {
    key: "Tcomponents"
    value {
      list {
        type: DT_INT32
        type: DT_INT32
        type: DT_STRING
        type: DT_INT32
        type: DT_STRING
      }
    }
  }
  attr {
    key: "timeout_ms"
    value {
      i: -1
    }
  }
}
node {
  name: "train_input_fn/bucket_queue/bucket/cond/cond_2/bucket_queue_2_enqueue/Switch"
  op: "Switch"
  input: "train_input_fn/bucket_queue/bucket/bucket_queue_2"
  input: "train_input_fn/bucket_queue/bucket/cond/pred_id"
  attr {
    key: "T"
    value {
      type: DT_RESOURCE
    }
  }
  attr {
    key: "_class"
    value {
      list {
        s: "loc:@train_input_fn/bucket_queue/bucket/bucket_queue_2"
      }
    }
  }
  attr {
    key: "_output_shapes"
    value {
      list {
        shape {
        }
        shape {
        }
      }
    }
  }
}
node {
  name: "train_input_fn/bucket_queue/bucket/cond/cond_2/bucket_queue_2_enqueue/Switch_1"
  op: "Switch"
  input: "train_input_fn/bucket_queue/bucket/cond/cond_2/bucket_queue_2_enqueue/Switch:1"
  input: "train_input_fn/bucket_queue/bucket/cond/cond_2/pred_id"
  attr {
    key: "T"
    value {
      type: DT_RESOURCE
    }
  }
  attr {
    key: "_class"
    value {
      list {
        s: "loc:@train_input_fn/bucket_queue/bucket/bucket_queue_2"
      }
    }
  }
  attr {
    key: "_output_shapes"
    value {
      list {
        shape {
        }
        shape {
        }
      }
    }
  }
}
node {
  name: "train_input_fn/bucket_queue/bucket/cond/cond_2/bucket_queue_2_enqueue/Switch_2"
  op: "Switch"
  input: "train_input_fn/bucket_queue/bucket/cond/cond/bucket_queue_0_enqueue/Switch_2:1"
  input: "train_input_fn/bucket_queue/bucket/cond/cond_2/pred_id"
  attr {
    key: "T"
    value {
      type: DT_INT32
    }
  }
  attr {
    key: "_class"
    value {
      list {
        s: "loc:@train_input_fn/Size"
      }
    }
  }
  attr {
    key: "_output_shapes"
    value {
      list {
        shape {
        }
        shape {
        }
      }
    }
  }
}
node {
  name: "train_input_fn/bucket_queue/bucket/cond/cond_2/bucket_queue_2_enqueue/Switch_3"
  op: "Switch"
  input: "train_input_fn/bucket_queue/bucket/cond/cond/bucket_queue_0_enqueue/Switch_4:1"
  input: "train_input_fn/bucket_queue/bucket/cond/cond_2/pred_id"
  attr {
    key: "T"
    value {
      type: DT_STRING
    }
  }
  attr {
    key: "_class"
    value {
      list {
        s: "loc:@train_input_fn/concat"
      }
    }
  }
  attr {
    key: "_output_shapes"
    value {
      list {
        shape {
          dim {
            size: -1
          }
        }
        shape {
          dim {
            size: -1
          }
        }
      }
    }
  }
}
node {
  name: "train_input_fn/bucket_queue/bucket/cond/cond_2/bucket_queue_2_enqueue/Switch_4"
  op: "Switch"
  input: "train_input_fn/bucket_queue/bucket/cond/cond/bucket_queue_0_enqueue/Switch_6:1"
  input: "train_input_fn/bucket_queue/bucket/cond/cond_2/pred_id"
  attr {
    key: "T"
    value {
      type: DT_INT32
    }
  }
  attr {
    key: "_class"
    value {
      list {
        s: "loc:@train_input_fn/Size_1"
      }
    }
  }
  attr {
    key: "_output_shapes"
    value {
      list {
        shape {
        }
        shape {
        }
      }
    }
  }
}
node {
  name: "train_input_fn/bucket_queue/bucket/cond/cond_2/bucket_queue_2_enqueue/Switch_5"
  op: "Switch"
  input: "train_input_fn/bucket_queue/bucket/cond/cond/bucket_queue_0_enqueue/Switch_8:1"
  input: "train_input_fn/bucket_queue/bucket/cond/cond_2/pred_id"
  attr {
    key: "T"
    value {
      type: DT_STRING
    }
  }
  attr {
    key: "_class"
    value {
      list {
        s: "loc:@train_input_fn/concat_2"
      }
    }
  }
  attr {
    key: "_output_shapes"
    value {
      list {
        shape {
          dim {
            size: -1
          }
        }
        shape {
          dim {
            size: -1
          }
        }
      }
    }
  }
}
node {
  name: "train_input_fn/bucket_queue/bucket/cond/cond_2/control_dependency"
  op: "Identity"
  input: "train_input_fn/bucket_queue/bucket/cond/cond_2/switch_t"
  input: "^train_input_fn/bucket_queue/bucket/cond/cond_2/bucket_queue_2_enqueue"
  attr {
    key: "T"
    value {
      type: DT_BOOL
    }
  }
  attr {
    key: "_class"
    value {
      list {
        s: "loc:@train_input_fn/bucket_queue/bucket/cond/cond_2/switch_t"
      }
    }
  }
  attr {
    key: "_output_shapes"
    value {
      list {
        shape {
        }
      }
    }
  }
}
node {
  name: "train_input_fn/bucket_queue/bucket/cond/cond_2/NoOp"
  op: "NoOp"
  input: "^train_input_fn/bucket_queue/bucket/cond/cond_2/switch_f"
}
node {
  name: "train_input_fn/bucket_queue/bucket/cond/cond_2/control_dependency_1"
  op: "Identity"
  input: "train_input_fn/bucket_queue/bucket/cond/cond_2/switch_f"
  input: "^train_input_fn/bucket_queue/bucket/cond/cond_2/NoOp"
  attr {
    key: "T"
    value {
      type: DT_BOOL
    }
  }
  attr {
    key: "_class"
    value {
      list {
        s: "loc:@train_input_fn/bucket_queue/bucket/cond/cond_2/switch_f"
      }
    }
  }
  attr {
    key: "_output_shapes"
    value {
      list {
        shape {
        }
      }
    }
  }
}
node {
  name: "train_input_fn/bucket_queue/bucket/cond/cond_2/Merge"
  op: "Merge"
  input: "train_input_fn/bucket_queue/bucket/cond/cond_2/control_dependency_1"
  input: "train_input_fn/bucket_queue/bucket/cond/cond_2/control_dependency"
  attr {
    key: "N"
    value {
      i: 2
    }
  }
  attr {
    key: "T"
    value {
      type: DT_BOOL
    }
  }
  attr {
    key: "_output_shapes"
    value {
      list {
        shape {
        }
        shape {
        }
      }
    }
  }
}
node {
  name: "train_input_fn/bucket_queue/bucket/cond/Equal_3/y"
  op: "Const"
  input: "^train_input_fn/bucket_queue/bucket/cond/switch_t"
  attr {
    key: "_output_shapes"
    value {
      list {
        shape {
        }
      }
    }
  }
  attr {
    key: "dtype"
    value {
      type: DT_INT32
    }
  }
  attr {
    key: "value"
    value {
      tensor {
        dtype: DT_INT32
        tensor_shape {
        }
        int_val: 3
      }
    }
  }
}
node {
  name: "train_input_fn/bucket_queue/bucket/cond/Equal_3"
  op: "Equal"
  input: "train_input_fn/bucket_queue/bucket/cond/Equal/Switch:1"
  input: "train_input_fn/bucket_queue/bucket/cond/Equal_3/y"
  attr {
    key: "T"
    value {
      type: DT_INT32
    }
  }
  attr {
    key: "_output_shapes"
    value {
      list {
        shape {
        }
      }
    }
  }
}
node {
  name: "train_input_fn/bucket_queue/bucket/cond/cond_3/Switch"
  op: "Switch"
  input: "train_input_fn/bucket_queue/bucket/cond/Equal_3"
  input: "train_input_fn/bucket_queue/bucket/cond/Equal_3"
  attr {
    key: "T"
    value {
      type: DT_BOOL
    }
  }
  attr {
    key: "_output_shapes"
    value {
      list {
        shape {
        }
        shape {
        }
      }
    }
  }
}
node {
  name: "train_input_fn/bucket_queue/bucket/cond/cond_3/switch_t"
  op: "Identity"
  input: "train_input_fn/bucket_queue/bucket/cond/cond_3/Switch:1"
  attr {
    key: "T"
    value {
      type: DT_BOOL
    }
  }
  attr {
    key: "_output_shapes"
    value {
      list {
        shape {
        }
      }
    }
  }
}
node {
  name: "train_input_fn/bucket_queue/bucket/cond/cond_3/switch_f"
  op: "Identity"
  input: "train_input_fn/bucket_queue/bucket/cond/cond_3/Switch"
  attr {
    key: "T"
    value {
      type: DT_BOOL
    }
  }
  attr {
    key: "_output_shapes"
    value {
      list {
        shape {
        }
      }
    }
  }
}
node {
  name: "train_input_fn/bucket_queue/bucket/cond/cond_3/pred_id"
  op: "Identity"
  input: "train_input_fn/bucket_queue/bucket/cond/Equal_3"
  attr {
    key: "T"
    value {
      type: DT_BOOL
    }
  }
  attr {
    key: "_output_shapes"
    value {
      list {
        shape {
        }
      }
    }
  }
}
node {
  name: "train_input_fn/bucket_queue/bucket/cond/cond_3/bucket_queue_3_enqueue"
  op: "QueueEnqueueV2"
  input: "train_input_fn/bucket_queue/bucket/cond/cond_3/bucket_queue_3_enqueue/Switch_1:1"
  input: "train_input_fn/bucket_queue/bucket/cond/cond_3/bucket_queue_3_enqueue/Switch_2:1"
  input: "train_input_fn/bucket_queue/bucket/cond/cond_3/bucket_queue_3_enqueue/Switch_2:1"
  input: "train_input_fn/bucket_queue/bucket/cond/cond_3/bucket_queue_3_enqueue/Switch_3:1"
  input: "train_input_fn/bucket_queue/bucket/cond/cond_3/bucket_queue_3_enqueue/Switch_4:1"
  input: "train_input_fn/bucket_queue/bucket/cond/cond_3/bucket_queue_3_enqueue/Switch_5:1"
  attr {
    key: "Tcomponents"
    value {
      list {
        type: DT_INT32
        type: DT_INT32
        type: DT_STRING
        type: DT_INT32
        type: DT_STRING
      }
    }
  }
  attr {
    key: "timeout_ms"
    value {
      i: -1
    }
  }
}
node {
  name: "train_input_fn/bucket_queue/bucket/cond/cond_3/bucket_queue_3_enqueue/Switch"
  op: "Switch"
  input: "train_input_fn/bucket_queue/bucket/bucket_queue_3"
  input: "train_input_fn/bucket_queue/bucket/cond/pred_id"
  attr {
    key: "T"
    value {
      type: DT_RESOURCE
    }
  }
  attr {
    key: "_class"
    value {
      list {
        s: "loc:@train_input_fn/bucket_queue/bucket/bucket_queue_3"
      }
    }
  }
  attr {
    key: "_output_shapes"
    value {
      list {
        shape {
        }
        shape {
        }
      }
    }
  }
}
node {
  name: "train_input_fn/bucket_queue/bucket/cond/cond_3/bucket_queue_3_enqueue/Switch_1"
  op: "Switch"
  input: "train_input_fn/bucket_queue/bucket/cond/cond_3/bucket_queue_3_enqueue/Switch:1"
  input: "train_input_fn/bucket_queue/bucket/cond/cond_3/pred_id"
  attr {
    key: "T"
    value {
      type: DT_RESOURCE
    }
  }
  attr {
    key: "_class"
    value {
      list {
        s: "loc:@train_input_fn/bucket_queue/bucket/bucket_queue_3"
      }
    }
  }
  attr {
    key: "_output_shapes"
    value {
      list {
        shape {
        }
        shape {
        }
      }
    }
  }
}
node {
  name: "train_input_fn/bucket_queue/bucket/cond/cond_3/bucket_queue_3_enqueue/Switch_2"
  op: "Switch"
  input: "train_input_fn/bucket_queue/bucket/cond/cond/bucket_queue_0_enqueue/Switch_2:1"
  input: "train_input_fn/bucket_queue/bucket/cond/cond_3/pred_id"
  attr {
    key: "T"
    value {
      type: DT_INT32
    }
  }
  attr {
    key: "_class"
    value {
      list {
        s: "loc:@train_input_fn/Size"
      }
    }
  }
  attr {
    key: "_output_shapes"
    value {
      list {
        shape {
        }
        shape {
        }
      }
    }
  }
}
node {
  name: "train_input_fn/bucket_queue/bucket/cond/cond_3/bucket_queue_3_enqueue/Switch_3"
  op: "Switch"
  input: "train_input_fn/bucket_queue/bucket/cond/cond/bucket_queue_0_enqueue/Switch_4:1"
  input: "train_input_fn/bucket_queue/bucket/cond/cond_3/pred_id"
  attr {
    key: "T"
    value {
      type: DT_STRING
    }
  }
  attr {
    key: "_class"
    value {
      list {
        s: "loc:@train_input_fn/concat"
      }
    }
  }
  attr {
    key: "_output_shapes"
    value {
      list {
        shape {
          dim {
            size: -1
          }
        }
        shape {
          dim {
            size: -1
          }
        }
      }
    }
  }
}
node {
  name: "train_input_fn/bucket_queue/bucket/cond/cond_3/bucket_queue_3_enqueue/Switch_4"
  op: "Switch"
  input: "train_input_fn/bucket_queue/bucket/cond/cond/bucket_queue_0_enqueue/Switch_6:1"
  input: "train_input_fn/bucket_queue/bucket/cond/cond_3/pred_id"
  attr {
    key: "T"
    value {
      type: DT_INT32
    }
  }
  attr {
    key: "_class"
    value {
      list {
        s: "loc:@train_input_fn/Size_1"
      }
    }
  }
  attr {
    key: "_output_shapes"
    value {
      list {
        shape {
        }
        shape {
        }
      }
    }
  }
}
node {
  name: "train_input_fn/bucket_queue/bucket/cond/cond_3/bucket_queue_3_enqueue/Switch_5"
  op: "Switch"
  input: "train_input_fn/bucket_queue/bucket/cond/cond/bucket_queue_0_enqueue/Switch_8:1"
  input: "train_input_fn/bucket_queue/bucket/cond/cond_3/pred_id"
  attr {
    key: "T"
    value {
      type: DT_STRING
    }
  }
  attr {
    key: "_class"
    value {
      list {
        s: "loc:@train_input_fn/concat_2"
      }
    }
  }
  attr {
    key: "_output_shapes"
    value {
      list {
        shape {
          dim {
            size: -1
          }
        }
        shape {
          dim {
            size: -1
          }
        }
      }
    }
  }
}
node {
  name: "train_input_fn/bucket_queue/bucket/cond/cond_3/control_dependency"
  op: "Identity"
  input: "train_input_fn/bucket_queue/bucket/cond/cond_3/switch_t"
  input: "^train_input_fn/bucket_queue/bucket/cond/cond_3/bucket_queue_3_enqueue"
  attr {
    key: "T"
    value {
      type: DT_BOOL
    }
  }
  attr {
    key: "_class"
    value {
      list {
        s: "loc:@train_input_fn/bucket_queue/bucket/cond/cond_3/switch_t"
      }
    }
  }
  attr {
    key: "_output_shapes"
    value {
      list {
        shape {
        }
      }
    }
  }
}
node {
  name: "train_input_fn/bucket_queue/bucket/cond/cond_3/NoOp"
  op: "NoOp"
  input: "^train_input_fn/bucket_queue/bucket/cond/cond_3/switch_f"
}
node {
  name: "train_input_fn/bucket_queue/bucket/cond/cond_3/control_dependency_1"
  op: "Identity"
  input: "train_input_fn/bucket_queue/bucket/cond/cond_3/switch_f"
  input: "^train_input_fn/bucket_queue/bucket/cond/cond_3/NoOp"
  attr {
    key: "T"
    value {
      type: DT_BOOL
    }
  }
  attr {
    key: "_class"
    value {
      list {
        s: "loc:@train_input_fn/bucket_queue/bucket/cond/cond_3/switch_f"
      }
    }
  }
  attr {
    key: "_output_shapes"
    value {
      list {
        shape {
        }
      }
    }
  }
}
node {
  name: "train_input_fn/bucket_queue/bucket/cond/cond_3/Merge"
  op: "Merge"
  input: "train_input_fn/bucket_queue/bucket/cond/cond_3/control_dependency_1"
  input: "train_input_fn/bucket_queue/bucket/cond/cond_3/control_dependency"
  attr {
    key: "N"
    value {
      i: 2
    }
  }
  attr {
    key: "T"
    value {
      type: DT_BOOL
    }
  }
  attr {
    key: "_output_shapes"
    value {
      list {
        shape {
        }
        shape {
        }
      }
    }
  }
}
node {
  name: "train_input_fn/bucket_queue/bucket/cond/Equal_4/y"
  op: "Const"
  input: "^train_input_fn/bucket_queue/bucket/cond/switch_t"
  attr {
    key: "_output_shapes"
    value {
      list {
        shape {
        }
      }
    }
  }
  attr {
    key: "dtype"
    value {
      type: DT_INT32
    }
  }
  attr {
    key: "value"
    value {
      tensor {
        dtype: DT_INT32
        tensor_shape {
        }
        int_val: 4
      }
    }
  }
}
node {
  name: "train_input_fn/bucket_queue/bucket/cond/Equal_4"
  op: "Equal"
  input: "train_input_fn/bucket_queue/bucket/cond/Equal/Switch:1"
  input: "train_input_fn/bucket_queue/bucket/cond/Equal_4/y"
  attr {
    key: "T"
    value {
      type: DT_INT32
    }
  }
  attr {
    key: "_output_shapes"
    value {
      list {
        shape {
        }
      }
    }
  }
}
node {
  name: "train_input_fn/bucket_queue/bucket/cond/cond_4/Switch"
  op: "Switch"
  input: "train_input_fn/bucket_queue/bucket/cond/Equal_4"
  input: "train_input_fn/bucket_queue/bucket/cond/Equal_4"
  attr {
    key: "T"
    value {
      type: DT_BOOL
    }
  }
  attr {
    key: "_output_shapes"
    value {
      list {
        shape {
        }
        shape {
        }
      }
    }
  }
}
node {
  name: "train_input_fn/bucket_queue/bucket/cond/cond_4/switch_t"
  op: "Identity"
  input: "train_input_fn/bucket_queue/bucket/cond/cond_4/Switch:1"
  attr {
    key: "T"
    value {
      type: DT_BOOL
    }
  }
  attr {
    key: "_output_shapes"
    value {
      list {
        shape {
        }
      }
    }
  }
}
node {
  name: "train_input_fn/bucket_queue/bucket/cond/cond_4/switch_f"
  op: "Identity"
  input: "train_input_fn/bucket_queue/bucket/cond/cond_4/Switch"
  attr {
    key: "T"
    value {
      type: DT_BOOL
    }
  }
  attr {
    key: "_output_shapes"
    value {
      list {
        shape {
        }
      }
    }
  }
}
node {
  name: "train_input_fn/bucket_queue/bucket/cond/cond_4/pred_id"
  op: "Identity"
  input: "train_input_fn/bucket_queue/bucket/cond/Equal_4"
  attr {
    key: "T"
    value {
      type: DT_BOOL
    }
  }
  attr {
    key: "_output_shapes"
    value {
      list {
        shape {
        }
      }
    }
  }
}
node {
  name: "train_input_fn/bucket_queue/bucket/cond/cond_4/bucket_queue_4_enqueue"
  op: "QueueEnqueueV2"
  input: "train_input_fn/bucket_queue/bucket/cond/cond_4/bucket_queue_4_enqueue/Switch_1:1"
  input: "train_input_fn/bucket_queue/bucket/cond/cond_4/bucket_queue_4_enqueue/Switch_2:1"
  input: "train_input_fn/bucket_queue/bucket/cond/cond_4/bucket_queue_4_enqueue/Switch_2:1"
  input: "train_input_fn/bucket_queue/bucket/cond/cond_4/bucket_queue_4_enqueue/Switch_3:1"
  input: "train_input_fn/bucket_queue/bucket/cond/cond_4/bucket_queue_4_enqueue/Switch_4:1"
  input: "train_input_fn/bucket_queue/bucket/cond/cond_4/bucket_queue_4_enqueue/Switch_5:1"
  attr {
    key: "Tcomponents"
    value {
      list {
        type: DT_INT32
        type: DT_INT32
        type: DT_STRING
        type: DT_INT32
        type: DT_STRING
      }
    }
  }
  attr {
    key: "timeout_ms"
    value {
      i: -1
    }
  }
}
node {
  name: "train_input_fn/bucket_queue/bucket/cond/cond_4/bucket_queue_4_enqueue/Switch"
  op: "Switch"
  input: "train_input_fn/bucket_queue/bucket/bucket_queue_4"
  input: "train_input_fn/bucket_queue/bucket/cond/pred_id"
  attr {
    key: "T"
    value {
      type: DT_RESOURCE
    }
  }
  attr {
    key: "_class"
    value {
      list {
        s: "loc:@train_input_fn/bucket_queue/bucket/bucket_queue_4"
      }
    }
  }
  attr {
    key: "_output_shapes"
    value {
      list {
        shape {
        }
        shape {
        }
      }
    }
  }
}
node {
  name: "train_input_fn/bucket_queue/bucket/cond/cond_4/bucket_queue_4_enqueue/Switch_1"
  op: "Switch"
  input: "train_input_fn/bucket_queue/bucket/cond/cond_4/bucket_queue_4_enqueue/Switch:1"
  input: "train_input_fn/bucket_queue/bucket/cond/cond_4/pred_id"
  attr {
    key: "T"
    value {
      type: DT_RESOURCE
    }
  }
  attr {
    key: "_class"
    value {
      list {
        s: "loc:@train_input_fn/bucket_queue/bucket/bucket_queue_4"
      }
    }
  }
  attr {
    key: "_output_shapes"
    value {
      list {
        shape {
        }
        shape {
        }
      }
    }
  }
}
node {
  name: "train_input_fn/bucket_queue/bucket/cond/cond_4/bucket_queue_4_enqueue/Switch_2"
  op: "Switch"
  input: "train_input_fn/bucket_queue/bucket/cond/cond/bucket_queue_0_enqueue/Switch_2:1"
  input: "train_input_fn/bucket_queue/bucket/cond/cond_4/pred_id"
  attr {
    key: "T"
    value {
      type: DT_INT32
    }
  }
  attr {
    key: "_class"
    value {
      list {
        s: "loc:@train_input_fn/Size"
      }
    }
  }
  attr {
    key: "_output_shapes"
    value {
      list {
        shape {
        }
        shape {
        }
      }
    }
  }
}
node {
  name: "train_input_fn/bucket_queue/bucket/cond/cond_4/bucket_queue_4_enqueue/Switch_3"
  op: "Switch"
  input: "train_input_fn/bucket_queue/bucket/cond/cond/bucket_queue_0_enqueue/Switch_4:1"
  input: "train_input_fn/bucket_queue/bucket/cond/cond_4/pred_id"
  attr {
    key: "T"
    value {
      type: DT_STRING
    }
  }
  attr {
    key: "_class"
    value {
      list {
        s: "loc:@train_input_fn/concat"
      }
    }
  }
  attr {
    key: "_output_shapes"
    value {
      list {
        shape {
          dim {
            size: -1
          }
        }
        shape {
          dim {
            size: -1
          }
        }
      }
    }
  }
}
node {
  name: "train_input_fn/bucket_queue/bucket/cond/cond_4/bucket_queue_4_enqueue/Switch_4"
  op: "Switch"
  input: "train_input_fn/bucket_queue/bucket/cond/cond/bucket_queue_0_enqueue/Switch_6:1"
  input: "train_input_fn/bucket_queue/bucket/cond/cond_4/pred_id"
  attr {
    key: "T"
    value {
      type: DT_INT32
    }
  }
  attr {
    key: "_class"
    value {
      list {
        s: "loc:@train_input_fn/Size_1"
      }
    }
  }
  attr {
    key: "_output_shapes"
    value {
      list {
        shape {
        }
        shape {
        }
      }
    }
  }
}
node {
  name: "train_input_fn/bucket_queue/bucket/cond/cond_4/bucket_queue_4_enqueue/Switch_5"
  op: "Switch"
  input: "train_input_fn/bucket_queue/bucket/cond/cond/bucket_queue_0_enqueue/Switch_8:1"
  input: "train_input_fn/bucket_queue/bucket/cond/cond_4/pred_id"
  attr {
    key: "T"
    value {
      type: DT_STRING
    }
  }
  attr {
    key: "_class"
    value {
      list {
        s: "loc:@train_input_fn/concat_2"
      }
    }
  }
  attr {
    key: "_output_shapes"
    value {
      list {
        shape {
          dim {
            size: -1
          }
        }
        shape {
          dim {
            size: -1
          }
        }
      }
    }
  }
}
node {
  name: "train_input_fn/bucket_queue/bucket/cond/cond_4/control_dependency"
  op: "Identity"
  input: "train_input_fn/bucket_queue/bucket/cond/cond_4/switch_t"
  input: "^train_input_fn/bucket_queue/bucket/cond/cond_4/bucket_queue_4_enqueue"
  attr {
    key: "T"
    value {
      type: DT_BOOL
    }
  }
  attr {
    key: "_class"
    value {
      list {
        s: "loc:@train_input_fn/bucket_queue/bucket/cond/cond_4/switch_t"
      }
    }
  }
  attr {
    key: "_output_shapes"
    value {
      list {
        shape {
        }
      }
    }
  }
}
node {
  name: "train_input_fn/bucket_queue/bucket/cond/cond_4/NoOp"
  op: "NoOp"
  input: "^train_input_fn/bucket_queue/bucket/cond/cond_4/switch_f"
}
node {
  name: "train_input_fn/bucket_queue/bucket/cond/cond_4/control_dependency_1"
  op: "Identity"
  input: "train_input_fn/bucket_queue/bucket/cond/cond_4/switch_f"
  input: "^train_input_fn/bucket_queue/bucket/cond/cond_4/NoOp"
  attr {
    key: "T"
    value {
      type: DT_BOOL
    }
  }
  attr {
    key: "_class"
    value {
      list {
        s: "loc:@train_input_fn/bucket_queue/bucket/cond/cond_4/switch_f"
      }
    }
  }
  attr {
    key: "_output_shapes"
    value {
      list {
        shape {
        }
      }
    }
  }
}
node {
  name: "train_input_fn/bucket_queue/bucket/cond/cond_4/Merge"
  op: "Merge"
  input: "train_input_fn/bucket_queue/bucket/cond/cond_4/control_dependency_1"
  input: "train_input_fn/bucket_queue/bucket/cond/cond_4/control_dependency"
  attr {
    key: "N"
    value {
      i: 2
    }
  }
  attr {
    key: "T"
    value {
      type: DT_BOOL
    }
  }
  attr {
    key: "_output_shapes"
    value {
      list {
        shape {
        }
        shape {
        }
      }
    }
  }
}
node {
  name: "train_input_fn/bucket_queue/bucket/cond/group_enqueues"
  op: "NoOp"
  input: "^train_input_fn/bucket_queue/bucket/cond/cond/Merge"
  input: "^train_input_fn/bucket_queue/bucket/cond/cond_1/Merge"
  input: "^train_input_fn/bucket_queue/bucket/cond/cond_2/Merge"
  input: "^train_input_fn/bucket_queue/bucket/cond/cond_3/Merge"
  input: "^train_input_fn/bucket_queue/bucket/cond/cond_4/Merge"
  input: "^train_input_fn/bucket_queue/bucket/cond/switch_t"
}
node {
  name: "train_input_fn/bucket_queue/bucket/cond/control_dependency"
  op: "Identity"
  input: "train_input_fn/bucket_queue/bucket/cond/switch_t"
  input: "^train_input_fn/bucket_queue/bucket/cond/group_enqueues"
  attr {
    key: "T"
    value {
      type: DT_BOOL
    }
  }
  attr {
    key: "_class"
    value {
      list {
        s: "loc:@train_input_fn/bucket_queue/bucket/cond/switch_t"
      }
    }
  }
  attr {
    key: "_output_shapes"
    value {
      list {
        shape {
        }
      }
    }
  }
}
node {
  name: "train_input_fn/bucket_queue/bucket/cond/NoOp"
  op: "NoOp"
  input: "^train_input_fn/bucket_queue/bucket/cond/switch_f"
}
node {
  name: "train_input_fn/bucket_queue/bucket/cond/control_dependency_1"
  op: "Identity"
  input: "train_input_fn/bucket_queue/bucket/cond/switch_f"
  input: "^train_input_fn/bucket_queue/bucket/cond/NoOp"
  attr {
    key: "T"
    value {
      type: DT_BOOL
    }
  }
  attr {
    key: "_class"
    value {
      list {
        s: "loc:@train_input_fn/bucket_queue/bucket/cond/switch_f"
      }
    }
  }
  attr {
    key: "_output_shapes"
    value {
      list {
        shape {
        }
      }
    }
  }
}
node {
  name: "train_input_fn/bucket_queue/bucket/cond/Merge"
  op: "Merge"
  input: "train_input_fn/bucket_queue/bucket/cond/control_dependency_1"
  input: "train_input_fn/bucket_queue/bucket/cond/control_dependency"
  attr {
    key: "N"
    value {
      i: 2
    }
  }
  attr {
    key: "T"
    value {
      type: DT_BOOL
    }
  }
  attr {
    key: "_output_shapes"
    value {
      list {
        shape {
        }
        shape {
        }
      }
    }
  }
}
node {
  name: "train_input_fn/bucket_queue/bucket/Const"
  op: "Const"
  attr {
    key: "_output_shapes"
    value {
      list {
        shape {
        }
      }
    }
  }
  attr {
    key: "dtype"
    value {
      type: DT_INT32
    }
  }
  attr {
    key: "value"
    value {
      tensor {
        dtype: DT_INT32
        tensor_shape {
        }
        int_val: 0
      }
    }
  }
}
node {
  name: "train_input_fn/bucket_queue/bucket/read_bucket_0/n"
  op: "Const"
  attr {
    key: "_output_shapes"
    value {
      list {
        shape {
        }
      }
    }
  }
  attr {
    key: "dtype"
    value {
      type: DT_INT32
    }
  }
  attr {
    key: "value"
    value {
      tensor {
        dtype: DT_INT32
        tensor_shape {
        }
        int_val: 1
      }
    }
  }
}
node {
  name: "train_input_fn/bucket_queue/bucket/read_bucket_0"
  op: "QueueDequeueManyV2"
  input: "train_input_fn/bucket_queue/bucket/bucket_queue_0"
  input: "train_input_fn/bucket_queue/bucket/read_bucket_0/n"
  attr {
    key: "_output_shapes"
    value {
      list {
        shape {
          dim {
            size: 1
          }
        }
        shape {
          dim {
            size: 1
          }
        }
        shape {
          dim {
            size: 1
          }
          dim {
            size: -1
          }
        }
        shape {
          dim {
            size: 1
          }
        }
        shape {
          dim {
            size: 1
          }
          dim {
            size: -1
          }
        }
      }
    }
  }
  attr {
    key: "component_types"
    value {
      list {
        type: DT_INT32
        type: DT_INT32
        type: DT_STRING
        type: DT_INT32
        type: DT_STRING
      }
    }
  }
  attr {
    key: "timeout_ms"
    value {
      i: -1
    }
  }
}
node {
  name: "train_input_fn/bucket_queue/bucket/enqueue_from_bucket_0"
  op: "QueueEnqueueV2"
  input: "train_input_fn/bucket_queue/bucket/top_queue"
  input: "train_input_fn/bucket_queue/bucket/Const"
  input: "train_input_fn/bucket_queue/bucket/read_bucket_0"
  input: "train_input_fn/bucket_queue/bucket/read_bucket_0:1"
  input: "train_input_fn/bucket_queue/bucket/read_bucket_0:2"
  input: "train_input_fn/bucket_queue/bucket/read_bucket_0:3"
  input: "train_input_fn/bucket_queue/bucket/read_bucket_0:4"
  attr {
    key: "Tcomponents"
    value {
      list {
        type: DT_INT32
        type: DT_INT32
        type: DT_INT32
        type: DT_STRING
        type: DT_INT32
        type: DT_STRING
      }
    }
  }
  attr {
    key: "timeout_ms"
    value {
      i: -1
    }
  }
}
node {
  name: "train_input_fn/bucket_queue/bucket/Const_1"
  op: "Const"
  attr {
    key: "_output_shapes"
    value {
      list {
        shape {
        }
      }
    }
  }
  attr {
    key: "dtype"
    value {
      type: DT_INT32
    }
  }
  attr {
    key: "value"
    value {
      tensor {
        dtype: DT_INT32
        tensor_shape {
        }
        int_val: 1
      }
    }
  }
}
node {
  name: "train_input_fn/bucket_queue/bucket/read_bucket_1/n"
  op: "Const"
  attr {
    key: "_output_shapes"
    value {
      list {
        shape {
        }
      }
    }
  }
  attr {
    key: "dtype"
    value {
      type: DT_INT32
    }
  }
  attr {
    key: "value"
    value {
      tensor {
        dtype: DT_INT32
        tensor_shape {
        }
        int_val: 1
      }
    }
  }
}
node {
  name: "train_input_fn/bucket_queue/bucket/read_bucket_1"
  op: "QueueDequeueManyV2"
  input: "train_input_fn/bucket_queue/bucket/bucket_queue_1"
  input: "train_input_fn/bucket_queue/bucket/read_bucket_1/n"
  attr {
    key: "_output_shapes"
    value {
      list {
        shape {
          dim {
            size: 1
          }
        }
        shape {
          dim {
            size: 1
          }
        }
        shape {
          dim {
            size: 1
          }
          dim {
            size: -1
          }
        }
        shape {
          dim {
            size: 1
          }
        }
        shape {
          dim {
            size: 1
          }
          dim {
            size: -1
          }
        }
      }
    }
  }
  attr {
    key: "component_types"
    value {
      list {
        type: DT_INT32
        type: DT_INT32
        type: DT_STRING
        type: DT_INT32
        type: DT_STRING
      }
    }
  }
  attr {
    key: "timeout_ms"
    value {
      i: -1
    }
  }
}
node {
  name: "train_input_fn/bucket_queue/bucket/enqueue_from_bucket_1"
  op: "QueueEnqueueV2"
  input: "train_input_fn/bucket_queue/bucket/top_queue"
  input: "train_input_fn/bucket_queue/bucket/Const_1"
  input: "train_input_fn/bucket_queue/bucket/read_bucket_1"
  input: "train_input_fn/bucket_queue/bucket/read_bucket_1:1"
  input: "train_input_fn/bucket_queue/bucket/read_bucket_1:2"
  input: "train_input_fn/bucket_queue/bucket/read_bucket_1:3"
  input: "train_input_fn/bucket_queue/bucket/read_bucket_1:4"
  attr {
    key: "Tcomponents"
    value {
      list {
        type: DT_INT32
        type: DT_INT32
        type: DT_INT32
        type: DT_STRING
        type: DT_INT32
        type: DT_STRING
      }
    }
  }
  attr {
    key: "timeout_ms"
    value {
      i: -1
    }
  }
}
node {
  name: "train_input_fn/bucket_queue/bucket/Const_2"
  op: "Const"
  attr {
    key: "_output_shapes"
    value {
      list {
        shape {
        }
      }
    }
  }
  attr {
    key: "dtype"
    value {
      type: DT_INT32
    }
  }
  attr {
    key: "value"
    value {
      tensor {
        dtype: DT_INT32
        tensor_shape {
        }
        int_val: 2
      }
    }
  }
}
node {
  name: "train_input_fn/bucket_queue/bucket/read_bucket_2/n"
  op: "Const"
  attr {
    key: "_output_shapes"
    value {
      list {
        shape {
        }
      }
    }
  }
  attr {
    key: "dtype"
    value {
      type: DT_INT32
    }
  }
  attr {
    key: "value"
    value {
      tensor {
        dtype: DT_INT32
        tensor_shape {
        }
        int_val: 1
      }
    }
  }
}
node {
  name: "train_input_fn/bucket_queue/bucket/read_bucket_2"
  op: "QueueDequeueManyV2"
  input: "train_input_fn/bucket_queue/bucket/bucket_queue_2"
  input: "train_input_fn/bucket_queue/bucket/read_bucket_2/n"
  attr {
    key: "_output_shapes"
    value {
      list {
        shape {
          dim {
            size: 1
          }
        }
        shape {
          dim {
            size: 1
          }
        }
        shape {
          dim {
            size: 1
          }
          dim {
            size: -1
          }
        }
        shape {
          dim {
            size: 1
          }
        }
        shape {
          dim {
            size: 1
          }
          dim {
            size: -1
          }
        }
      }
    }
  }
  attr {
    key: "component_types"
    value {
      list {
        type: DT_INT32
        type: DT_INT32
        type: DT_STRING
        type: DT_INT32
        type: DT_STRING
      }
    }
  }
  attr {
    key: "timeout_ms"
    value {
      i: -1
    }
  }
}
node {
  name: "train_input_fn/bucket_queue/bucket/enqueue_from_bucket_2"
  op: "QueueEnqueueV2"
  input: "train_input_fn/bucket_queue/bucket/top_queue"
  input: "train_input_fn/bucket_queue/bucket/Const_2"
  input: "train_input_fn/bucket_queue/bucket/read_bucket_2"
  input: "train_input_fn/bucket_queue/bucket/read_bucket_2:1"
  input: "train_input_fn/bucket_queue/bucket/read_bucket_2:2"
  input: "train_input_fn/bucket_queue/bucket/read_bucket_2:3"
  input: "train_input_fn/bucket_queue/bucket/read_bucket_2:4"
  attr {
    key: "Tcomponents"
    value {
      list {
        type: DT_INT32
        type: DT_INT32
        type: DT_INT32
        type: DT_STRING
        type: DT_INT32
        type: DT_STRING
      }
    }
  }
  attr {
    key: "timeout_ms"
    value {
      i: -1
    }
  }
}
node {
  name: "train_input_fn/bucket_queue/bucket/Const_3"
  op: "Const"
  attr {
    key: "_output_shapes"
    value {
      list {
        shape {
        }
      }
    }
  }
  attr {
    key: "dtype"
    value {
      type: DT_INT32
    }
  }
  attr {
    key: "value"
    value {
      tensor {
        dtype: DT_INT32
        tensor_shape {
        }
        int_val: 3
      }
    }
  }
}
node {
  name: "train_input_fn/bucket_queue/bucket/read_bucket_3/n"
  op: "Const"
  attr {
    key: "_output_shapes"
    value {
      list {
        shape {
        }
      }
    }
  }
  attr {
    key: "dtype"
    value {
      type: DT_INT32
    }
  }
  attr {
    key: "value"
    value {
      tensor {
        dtype: DT_INT32
        tensor_shape {
        }
        int_val: 1
      }
    }
  }
}
node {
  name: "train_input_fn/bucket_queue/bucket/read_bucket_3"
  op: "QueueDequeueManyV2"
  input: "train_input_fn/bucket_queue/bucket/bucket_queue_3"
  input: "train_input_fn/bucket_queue/bucket/read_bucket_3/n"
  attr {
    key: "_output_shapes"
    value {
      list {
        shape {
          dim {
            size: 1
          }
        }
        shape {
          dim {
            size: 1
          }
        }
        shape {
          dim {
            size: 1
          }
          dim {
            size: -1
          }
        }
        shape {
          dim {
            size: 1
          }
        }
        shape {
          dim {
            size: 1
          }
          dim {
            size: -1
          }
        }
      }
    }
  }
  attr {
    key: "component_types"
    value {
      list {
        type: DT_INT32
        type: DT_INT32
        type: DT_STRING
        type: DT_INT32
        type: DT_STRING
      }
    }
  }
  attr {
    key: "timeout_ms"
    value {
      i: -1
    }
  }
}
node {
  name: "train_input_fn/bucket_queue/bucket/enqueue_from_bucket_3"
  op: "QueueEnqueueV2"
  input: "train_input_fn/bucket_queue/bucket/top_queue"
  input: "train_input_fn/bucket_queue/bucket/Const_3"
  input: "train_input_fn/bucket_queue/bucket/read_bucket_3"
  input: "train_input_fn/bucket_queue/bucket/read_bucket_3:1"
  input: "train_input_fn/bucket_queue/bucket/read_bucket_3:2"
  input: "train_input_fn/bucket_queue/bucket/read_bucket_3:3"
  input: "train_input_fn/bucket_queue/bucket/read_bucket_3:4"
  attr {
    key: "Tcomponents"
    value {
      list {
        type: DT_INT32
        type: DT_INT32
        type: DT_INT32
        type: DT_STRING
        type: DT_INT32
        type: DT_STRING
      }
    }
  }
  attr {
    key: "timeout_ms"
    value {
      i: -1
    }
  }
}
node {
  name: "train_input_fn/bucket_queue/bucket/Const_4"
  op: "Const"
  attr {
    key: "_output_shapes"
    value {
      list {
        shape {
        }
      }
    }
  }
  attr {
    key: "dtype"
    value {
      type: DT_INT32
    }
  }
  attr {
    key: "value"
    value {
      tensor {
        dtype: DT_INT32
        tensor_shape {
        }
        int_val: 4
      }
    }
  }
}
node {
  name: "train_input_fn/bucket_queue/bucket/read_bucket_4/n"
  op: "Const"
  attr {
    key: "_output_shapes"
    value {
      list {
        shape {
        }
      }
    }
  }
  attr {
    key: "dtype"
    value {
      type: DT_INT32
    }
  }
  attr {
    key: "value"
    value {
      tensor {
        dtype: DT_INT32
        tensor_shape {
        }
        int_val: 1
      }
    }
  }
}
node {
  name: "train_input_fn/bucket_queue/bucket/read_bucket_4"
  op: "QueueDequeueManyV2"
  input: "train_input_fn/bucket_queue/bucket/bucket_queue_4"
  input: "train_input_fn/bucket_queue/bucket/read_bucket_4/n"
  attr {
    key: "_output_shapes"
    value {
      list {
        shape {
          dim {
            size: 1
          }
        }
        shape {
          dim {
            size: 1
          }
        }
        shape {
          dim {
            size: 1
          }
          dim {
            size: -1
          }
        }
        shape {
          dim {
            size: 1
          }
        }
        shape {
          dim {
            size: 1
          }
          dim {
            size: -1
          }
        }
      }
    }
  }
  attr {
    key: "component_types"
    value {
      list {
        type: DT_INT32
        type: DT_INT32
        type: DT_STRING
        type: DT_INT32
        type: DT_STRING
      }
    }
  }
  attr {
    key: "timeout_ms"
    value {
      i: -1
    }
  }
}
node {
  name: "train_input_fn/bucket_queue/bucket/enqueue_from_bucket_4"
  op: "QueueEnqueueV2"
  input: "train_input_fn/bucket_queue/bucket/top_queue"
  input: "train_input_fn/bucket_queue/bucket/Const_4"
  input: "train_input_fn/bucket_queue/bucket/read_bucket_4"
  input: "train_input_fn/bucket_queue/bucket/read_bucket_4:1"
  input: "train_input_fn/bucket_queue/bucket/read_bucket_4:2"
  input: "train_input_fn/bucket_queue/bucket/read_bucket_4:3"
  input: "train_input_fn/bucket_queue/bucket/read_bucket_4:4"
  attr {
    key: "Tcomponents"
    value {
      list {
        type: DT_INT32
        type: DT_INT32
        type: DT_INT32
        type: DT_STRING
        type: DT_INT32
        type: DT_STRING
      }
    }
  }
  attr {
    key: "timeout_ms"
    value {
      i: -1
    }
  }
}
node {
  name: "train_input_fn/bucket_queue/bucket/top_queue_Close"
  op: "QueueCloseV2"
  input: "train_input_fn/bucket_queue/bucket/top_queue"
  attr {
    key: "cancel_pending_enqueues"
    value {
      b: false
    }
  }
}
node {
  name: "train_input_fn/bucket_queue/bucket/top_queue_Close_1"
  op: "QueueCloseV2"
  input: "train_input_fn/bucket_queue/bucket/top_queue"
  attr {
    key: "cancel_pending_enqueues"
    value {
      b: true
    }
  }
}
node {
  name: "train_input_fn/bucket_queue/bucket/bucket_queue_0_Close"
  op: "QueueCloseV2"
  input: "train_input_fn/bucket_queue/bucket/bucket_queue_0"
  attr {
    key: "cancel_pending_enqueues"
    value {
      b: false
    }
  }
}
node {
  name: "train_input_fn/bucket_queue/bucket/bucket_queue_1_Close"
  op: "QueueCloseV2"
  input: "train_input_fn/bucket_queue/bucket/bucket_queue_1"
  attr {
    key: "cancel_pending_enqueues"
    value {
      b: false
    }
  }
}
node {
  name: "train_input_fn/bucket_queue/bucket/bucket_queue_2_Close"
  op: "QueueCloseV2"
  input: "train_input_fn/bucket_queue/bucket/bucket_queue_2"
  attr {
    key: "cancel_pending_enqueues"
    value {
      b: false
    }
  }
}
node {
  name: "train_input_fn/bucket_queue/bucket/bucket_queue_3_Close"
  op: "QueueCloseV2"
  input: "train_input_fn/bucket_queue/bucket/bucket_queue_3"
  attr {
    key: "cancel_pending_enqueues"
    value {
      b: false
    }
  }
}
node {
  name: "train_input_fn/bucket_queue/bucket/bucket_queue_4_Close"
  op: "QueueCloseV2"
  input: "train_input_fn/bucket_queue/bucket/bucket_queue_4"
  attr {
    key: "cancel_pending_enqueues"
    value {
      b: false
    }
  }
}
node {
  name: "train_input_fn/bucket_queue/bucket/group_deps"
  op: "NoOp"
  input: "^train_input_fn/bucket_queue/bucket/bucket_queue_0_Close"
  input: "^train_input_fn/bucket_queue/bucket/bucket_queue_1_Close"
  input: "^train_input_fn/bucket_queue/bucket/bucket_queue_2_Close"
  input: "^train_input_fn/bucket_queue/bucket/bucket_queue_3_Close"
  input: "^train_input_fn/bucket_queue/bucket/bucket_queue_4_Close"
}
node {
  name: "train_input_fn/bucket_queue/bucket/bucket_queue_0_Close_1"
  op: "QueueCloseV2"
  input: "train_input_fn/bucket_queue/bucket/bucket_queue_0"
  attr {
    key: "cancel_pending_enqueues"
    value {
      b: true
    }
  }
}
node {
  name: "train_input_fn/bucket_queue/bucket/bucket_queue_1_Close_1"
  op: "QueueCloseV2"
  input: "train_input_fn/bucket_queue/bucket/bucket_queue_1"
  attr {
    key: "cancel_pending_enqueues"
    value {
      b: true
    }
  }
}
node {
  name: "train_input_fn/bucket_queue/bucket/bucket_queue_2_Close_1"
  op: "QueueCloseV2"
  input: "train_input_fn/bucket_queue/bucket/bucket_queue_2"
  attr {
    key: "cancel_pending_enqueues"
    value {
      b: true
    }
  }
}
node {
  name: "train_input_fn/bucket_queue/bucket/bucket_queue_3_Close_1"
  op: "QueueCloseV2"
  input: "train_input_fn/bucket_queue/bucket/bucket_queue_3"
  attr {
    key: "cancel_pending_enqueues"
    value {
      b: true
    }
  }
}
node {
  name: "train_input_fn/bucket_queue/bucket/bucket_queue_4_Close_1"
  op: "QueueCloseV2"
  input: "train_input_fn/bucket_queue/bucket/bucket_queue_4"
  attr {
    key: "cancel_pending_enqueues"
    value {
      b: true
    }
  }
}
node {
  name: "train_input_fn/bucket_queue/bucket/group_deps_1"
  op: "NoOp"
  input: "^train_input_fn/bucket_queue/bucket/bucket_queue_0_Close_1"
  input: "^train_input_fn/bucket_queue/bucket/bucket_queue_1_Close_1"
  input: "^train_input_fn/bucket_queue/bucket/bucket_queue_2_Close_1"
  input: "^train_input_fn/bucket_queue/bucket/bucket_queue_3_Close_1"
  input: "^train_input_fn/bucket_queue/bucket/bucket_queue_4_Close_1"
}
node {
  name: "train_input_fn/bucket_queue/bucket/top_queue_Size"
  op: "QueueSizeV2"
  input: "train_input_fn/bucket_queue/bucket/top_queue"
  attr {
    key: "_output_shapes"
    value {
      list {
        shape {
        }
      }
    }
  }
}
node {
  name: "train_input_fn/bucket_queue/bucket/Cast"
  op: "Cast"
  input: "train_input_fn/bucket_queue/bucket/top_queue_Size"
  attr {
    key: "DstT"
    value {
      type: DT_FLOAT
    }
  }
  attr {
    key: "SrcT"
    value {
      type: DT_INT32
    }
  }
  attr {
    key: "_output_shapes"
    value {
      list {
        shape {
        }
      }
    }
  }
}
node {
  name: "train_input_fn/bucket_queue/bucket/bucket/train_input_fn/bucket_queue/bucket/bucket_queue_0/size/tags"
  op: "Const"
  attr {
    key: "_output_shapes"
    value {
      list {
        shape {
        }
      }
    }
  }
  attr {
    key: "dtype"
    value {
      type: DT_STRING
    }
  }
  attr {
    key: "value"
    value {
      tensor {
        dtype: DT_STRING
        tensor_shape {
        }
        string_val: "train_input_fn/bucket_queue/bucket/bucket/train_input_fn/bucket_queue/bucket/bucket_queue_0/size"
      }
    }
  }
}
node {
  name: "train_input_fn/bucket_queue/bucket/bucket/train_input_fn/bucket_queue/bucket/bucket_queue_0/size"
  op: "ScalarSummary"
  input: "train_input_fn/bucket_queue/bucket/bucket/train_input_fn/bucket_queue/bucket/bucket_queue_0/size/tags"
  input: "train_input_fn/bucket_queue/bucket/Cast"
  attr {
    key: "T"
    value {
      type: DT_FLOAT
    }
  }
  attr {
    key: "_output_shapes"
    value {
      list {
        shape {
        }
      }
    }
  }
}
node {
  name: "train_input_fn/bucket_queue/bucket/top_queue_Size_1"
  op: "QueueSizeV2"
  input: "train_input_fn/bucket_queue/bucket/top_queue"
  attr {
    key: "_output_shapes"
    value {
      list {
        shape {
        }
      }
    }
  }
}
node {
  name: "train_input_fn/bucket_queue/bucket/Cast_1"
  op: "Cast"
  input: "train_input_fn/bucket_queue/bucket/top_queue_Size_1"
  attr {
    key: "DstT"
    value {
      type: DT_FLOAT
    }
  }
  attr {
    key: "SrcT"
    value {
      type: DT_INT32
    }
  }
  attr {
    key: "_output_shapes"
    value {
      list {
        shape {
        }
      }
    }
  }
}
node {
  name: "train_input_fn/bucket_queue/bucket/bucket/train_input_fn/bucket_queue/bucket/bucket_queue_1/size/tags"
  op: "Const"
  attr {
    key: "_output_shapes"
    value {
      list {
        shape {
        }
      }
    }
  }
  attr {
    key: "dtype"
    value {
      type: DT_STRING
    }
  }
  attr {
    key: "value"
    value {
      tensor {
        dtype: DT_STRING
        tensor_shape {
        }
        string_val: "train_input_fn/bucket_queue/bucket/bucket/train_input_fn/bucket_queue/bucket/bucket_queue_1/size"
      }
    }
  }
}
node {
  name: "train_input_fn/bucket_queue/bucket/bucket/train_input_fn/bucket_queue/bucket/bucket_queue_1/size"
  op: "ScalarSummary"
  input: "train_input_fn/bucket_queue/bucket/bucket/train_input_fn/bucket_queue/bucket/bucket_queue_1/size/tags"
  input: "train_input_fn/bucket_queue/bucket/Cast_1"
  attr {
    key: "T"
    value {
      type: DT_FLOAT
    }
  }
  attr {
    key: "_output_shapes"
    value {
      list {
        shape {
        }
      }
    }
  }
}
node {
  name: "train_input_fn/bucket_queue/bucket/top_queue_Size_2"
  op: "QueueSizeV2"
  input: "train_input_fn/bucket_queue/bucket/top_queue"
  attr {
    key: "_output_shapes"
    value {
      list {
        shape {
        }
      }
    }
  }
}
node {
  name: "train_input_fn/bucket_queue/bucket/Cast_2"
  op: "Cast"
  input: "train_input_fn/bucket_queue/bucket/top_queue_Size_2"
  attr {
    key: "DstT"
    value {
      type: DT_FLOAT
    }
  }
  attr {
    key: "SrcT"
    value {
      type: DT_INT32
    }
  }
  attr {
    key: "_output_shapes"
    value {
      list {
        shape {
        }
      }
    }
  }
}
node {
  name: "train_input_fn/bucket_queue/bucket/bucket/train_input_fn/bucket_queue/bucket/bucket_queue_2/size/tags"
  op: "Const"
  attr {
    key: "_output_shapes"
    value {
      list {
        shape {
        }
      }
    }
  }
  attr {
    key: "dtype"
    value {
      type: DT_STRING
    }
  }
  attr {
    key: "value"
    value {
      tensor {
        dtype: DT_STRING
        tensor_shape {
        }
        string_val: "train_input_fn/bucket_queue/bucket/bucket/train_input_fn/bucket_queue/bucket/bucket_queue_2/size"
      }
    }
  }
}
node {
  name: "train_input_fn/bucket_queue/bucket/bucket/train_input_fn/bucket_queue/bucket/bucket_queue_2/size"
  op: "ScalarSummary"
  input: "train_input_fn/bucket_queue/bucket/bucket/train_input_fn/bucket_queue/bucket/bucket_queue_2/size/tags"
  input: "train_input_fn/bucket_queue/bucket/Cast_2"
  attr {
    key: "T"
    value {
      type: DT_FLOAT
    }
  }
  attr {
    key: "_output_shapes"
    value {
      list {
        shape {
        }
      }
    }
  }
}
node {
  name: "train_input_fn/bucket_queue/bucket/top_queue_Size_3"
  op: "QueueSizeV2"
  input: "train_input_fn/bucket_queue/bucket/top_queue"
  attr {
    key: "_output_shapes"
    value {
      list {
        shape {
        }
      }
    }
  }
}
node {
  name: "train_input_fn/bucket_queue/bucket/Cast_3"
  op: "Cast"
  input: "train_input_fn/bucket_queue/bucket/top_queue_Size_3"
  attr {
    key: "DstT"
    value {
      type: DT_FLOAT
    }
  }
  attr {
    key: "SrcT"
    value {
      type: DT_INT32
    }
  }
  attr {
    key: "_output_shapes"
    value {
      list {
        shape {
        }
      }
    }
  }
}
node {
  name: "train_input_fn/bucket_queue/bucket/bucket/train_input_fn/bucket_queue/bucket/bucket_queue_3/size/tags"
  op: "Const"
  attr {
    key: "_output_shapes"
    value {
      list {
        shape {
        }
      }
    }
  }
  attr {
    key: "dtype"
    value {
      type: DT_STRING
    }
  }
  attr {
    key: "value"
    value {
      tensor {
        dtype: DT_STRING
        tensor_shape {
        }
        string_val: "train_input_fn/bucket_queue/bucket/bucket/train_input_fn/bucket_queue/bucket/bucket_queue_3/size"
      }
    }
  }
}
node {
  name: "train_input_fn/bucket_queue/bucket/bucket/train_input_fn/bucket_queue/bucket/bucket_queue_3/size"
  op: "ScalarSummary"
  input: "train_input_fn/bucket_queue/bucket/bucket/train_input_fn/bucket_queue/bucket/bucket_queue_3/size/tags"
  input: "train_input_fn/bucket_queue/bucket/Cast_3"
  attr {
    key: "T"
    value {
      type: DT_FLOAT
    }
  }
  attr {
    key: "_output_shapes"
    value {
      list {
        shape {
        }
      }
    }
  }
}
node {
  name: "train_input_fn/bucket_queue/bucket/top_queue_Size_4"
  op: "QueueSizeV2"
  input: "train_input_fn/bucket_queue/bucket/top_queue"
  attr {
    key: "_output_shapes"
    value {
      list {
        shape {
        }
      }
    }
  }
}
node {
  name: "train_input_fn/bucket_queue/bucket/Cast_4"
  op: "Cast"
  input: "train_input_fn/bucket_queue/bucket/top_queue_Size_4"
  attr {
    key: "DstT"
    value {
      type: DT_FLOAT
    }
  }
  attr {
    key: "SrcT"
    value {
      type: DT_INT32
    }
  }
  attr {
    key: "_output_shapes"
    value {
      list {
        shape {
        }
      }
    }
  }
}
node {
  name: "train_input_fn/bucket_queue/bucket/bucket/train_input_fn/bucket_queue/bucket/bucket_queue_4/size/tags"
  op: "Const"
  attr {
    key: "_output_shapes"
    value {
      list {
        shape {
        }
      }
    }
  }
  attr {
    key: "dtype"
    value {
      type: DT_STRING
    }
  }
  attr {
    key: "value"
    value {
      tensor {
        dtype: DT_STRING
        tensor_shape {
        }
        string_val: "train_input_fn/bucket_queue/bucket/bucket/train_input_fn/bucket_queue/bucket/bucket_queue_4/size"
      }
    }
  }
}
node {
  name: "train_input_fn/bucket_queue/bucket/bucket/train_input_fn/bucket_queue/bucket/bucket_queue_4/size"
  op: "ScalarSummary"
  input: "train_input_fn/bucket_queue/bucket/bucket/train_input_fn/bucket_queue/bucket/bucket_queue_4/size/tags"
  input: "train_input_fn/bucket_queue/bucket/Cast_4"
  attr {
    key: "T"
    value {
      type: DT_FLOAT
    }
  }
  attr {
    key: "_output_shapes"
    value {
      list {
        shape {
        }
      }
    }
  }
}
node {
  name: "train_input_fn/bucket_queue/bucket/top_queue_Size_5"
  op: "QueueSizeV2"
  input: "train_input_fn/bucket_queue/bucket/top_queue"
  attr {
    key: "_output_shapes"
    value {
      list {
        shape {
        }
      }
    }
  }
}
node {
  name: "train_input_fn/bucket_queue/bucket/Cast_5"
  op: "Cast"
  input: "train_input_fn/bucket_queue/bucket/top_queue_Size_5"
  attr {
    key: "DstT"
    value {
      type: DT_FLOAT
    }
  }
  attr {
    key: "SrcT"
    value {
      type: DT_INT32
    }
  }
  attr {
    key: "_output_shapes"
    value {
      list {
        shape {
        }
      }
    }
  }
}
node {
  name: "train_input_fn/bucket_queue/bucket/mul/y"
  op: "Const"
  attr {
    key: "_output_shapes"
    value {
      list {
        shape {
        }
      }
    }
  }
  attr {
    key: "dtype"
    value {
      type: DT_FLOAT
    }
  }
  attr {
    key: "value"
    value {
      tensor {
        dtype: DT_FLOAT
        tensor_shape {
        }
        float_val: 0.00019936203898396343
      }
    }
  }
}
node {
  name: "train_input_fn/bucket_queue/bucket/mul"
  op: "Mul"
  input: "train_input_fn/bucket_queue/bucket/Cast_5"
  input: "train_input_fn/bucket_queue/bucket/mul/y"
  attr {
    key: "T"
    value {
      type: DT_FLOAT
    }
  }
  attr {
    key: "_output_shapes"
    value {
      list {
        shape {
        }
      }
    }
  }
}
node {
  name: "train_input_fn/bucket_queue/bucket/bucket/train_input_fn/bucket_queue/bucket/top_queue/fraction_of_5016_full/tags"
  op: "Const"
  attr {
    key: "_output_shapes"
    value {
      list {
        shape {
        }
      }
    }
  }
  attr {
    key: "dtype"
    value {
      type: DT_STRING
    }
  }
  attr {
    key: "value"
    value {
      tensor {
        dtype: DT_STRING
        tensor_shape {
        }
        string_val: "…"
      }
    }
  }
}
node {
  name: "train_input_fn/bucket_queue/bucket/bucket/train_input_fn/bucket_queue/bucket/top_queue/fraction_of_5016_full"
  op: "ScalarSummary"
  input: "train_input_fn/bucket_queue/bucket/bucket/train_input_fn/bucket_queue/bucket/top_queue/fraction_of_5016_full/tags"
  input: "train_input_fn/bucket_queue/bucket/mul"
  attr {
    key: "T"
    value {
      type: DT_FLOAT
    }
  }
  attr {
    key: "_output_shapes"
    value {
      list {
        shape {
        }
      }
    }
  }
}
node {
  name: "train_input_fn/bucket_queue/bucket/dequeue_top"
  op: "QueueDequeueV2"
  input: "train_input_fn/bucket_queue/bucket/top_queue"
  attr {
    key: "_output_shapes"
    value {
      list {
        shape {
        }
        shape {
          dim {
            size: 1
          }
        }
        shape {
          dim {
            size: 1
          }
        }
        shape {
          dim {
            size: 1
          }
          dim {
            size: -1
          }
        }
        shape {
          dim {
            size: 1
          }
        }
        shape {
          dim {
            size: 1
          }
          dim {
            size: -1
          }
        }
      }
    }
  }
  attr {
    key: "component_types"
    value {
      list {
        type: DT_INT32
        type: DT_INT32
        type: DT_INT32
        type: DT_STRING
        type: DT_INT32
        type: DT_STRING
      }
    }
  }
  attr {
    key: "timeout_ms"
    value {
      i: -1
    }
  }
}
node {
  name: "global_step/IsVariableInitialized"
  op: "IsVariableInitialized"
  input: "global_step"
  attr {
    key: "_class"
    value {
      list {
        s: "loc:@global_step"
      }
    }
  }
  attr {
    key: "_output_shapes"
    value {
      list {
        shape {
        }
      }
    }
  }
  attr {
    key: "dtype"
    value {
      type: DT_INT64
    }
  }
}
node {
  name: "global_step/cond/Switch"
  op: "Switch"
  input: "global_step/IsVariableInitialized"
  input: "global_step/IsVariableInitialized"
  attr {
    key: "T"
    value {
      type: DT_BOOL
    }
  }
  attr {
    key: "_output_shapes"
    value {
      list {
        shape {
        }
        shape {
        }
      }
    }
  }
}
node {
  name: "global_step/cond/switch_t"
  op: "Identity"
  input: "global_step/cond/Switch:1"
  attr {
    key: "T"
    value {
      type: DT_BOOL
    }
  }
  attr {
    key: "_output_shapes"
    value {
      list {
        shape {
        }
      }
    }
  }
}
node {
  name: "global_step/cond/switch_f"
  op: "Identity"
  input: "global_step/cond/Switch"
  attr {
    key: "T"
    value {
      type: DT_BOOL
    }
  }
  attr {
    key: "_output_shapes"
    value {
      list {
        shape {
        }
      }
    }
  }
}
node {
  name: "global_step/cond/pred_id"
  op: "Identity"
  input: "global_step/IsVariableInitialized"
  attr {
    key: "T"
    value {
      type: DT_BOOL
    }
  }
  attr {
    key: "_output_shapes"
    value {
      list {
        shape {
        }
      }
    }
  }
}
node {
  name: "global_step/cond/read"
  op: "Identity"
  input: "global_step/cond/read/Switch:1"
  attr {
    key: "T"
    value {
      type: DT_INT64
    }
  }
  attr {
    key: "_output_shapes"
    value {
      list {
        shape {
        }
      }
    }
  }
}
node {
  name: "global_step/cond/read/Switch"
  op: "RefSwitch"
  input: "global_step"
  input: "global_step/cond/pred_id"
  attr {
    key: "T"
    value {
      type: DT_INT64
    }
  }
  attr {
    key: "_class"
    value {
      list {
        s: "loc:@global_step"
      }
    }
  }
  attr {
    key: "_output_shapes"
    value {
      list {
        shape {
        }
        shape {
        }
      }
    }
  }
}
node {
  name: "global_step/cond/Switch_1"
  op: "Switch"
  input: "global_step/Initializer/zeros"
  input: "global_step/cond/pred_id"
  attr {
    key: "T"
    value {
      type: DT_INT64
    }
  }
  attr {
    key: "_class"
    value {
      list {
        s: "loc:@global_step"
      }
    }
  }
  attr {
    key: "_output_shapes"
    value {
      list {
        shape {
        }
        shape {
        }
      }
    }
  }
}
node {
  name: "global_step/cond/Merge"
  op: "Merge"
  input: "global_step/cond/Switch_1"
  input: "global_step/cond/read"
  attr {
    key: "N"
    value {
      i: 2
    }
  }
  attr {
    key: "T"
    value {
      type: DT_INT64
    }
  }
  attr {
    key: "_output_shapes"
    value {
      list {
        shape {
        }
        shape {
        }
      }
    }
  }
}
node {
  name: "global_step/add/y"
  op: "Const"
  attr {
    key: "_output_shapes"
    value {
      list {
        shape {
        }
      }
    }
  }
  attr {
    key: "dtype"
    value {
      type: DT_INT64
    }
  }
  attr {
    key: "value"
    value {
      tensor {
        dtype: DT_INT64
        tensor_shape {
        }
        int64_val: 0
      }
    }
  }
}
node {
  name: "global_step/add"
  op: "Add"
  input: "global_step/cond/Merge"
  input: "global_step/add/y"
  attr {
    key: "T"
    value {
      type: DT_INT64
    }
  }
  attr {
    key: "_output_shapes"
    value {
      list {
        shape {
        }
      }
    }
  }
}
node {
  name: "model/att_seq2seq/Const"
  op: "Const"
  attr {
    key: "_output_shapes"
    value {
      list {
        shape {
          dim {
            size: 3577
          }
        }
      }
    }
  }
  attr {
    key: "dtype"
    value {
      type: DT_STRING
    }
  }
  attr {
    key: "value"
    value {
      tensor {
        dtype: DT_STRING
        tensor_shape {
          dim {
            size: 3577
          }
        }
        string_val: ")"
        string_val: "("
        string_val: ";"
        string_val: ","
        string_val: "="
        string_val: "if"
        string_val: "0"
        string_val: "{"
        string_val: "}"
        string_val: "]"
        string_val: "["
        string_val: ":"
        string_val: "*"
        string_val: "1"
        string_val: "case"
        string_val: "break;"
        string_val: "=="
        string_val: "i"
        string_val: "argv"
        string_val: "optind"
        string_val: "argc"
        string_val: "-"
        string_val: "&&"
        string_val: "_"
        string_val: "error"
        string_val: "&"
        string_val: "!="
        string_val: "++"
        string_val: "NULL"
        string_val: "EXIT_FAILURE"
        string_val: "!"
        string_val: "c"
        string_val: "<"
        string_val: "true"
        string_val: "int"
        string_val: "else"
        string_val: "+"
        string_val: "char"
        string_val: "ok"
        string_val: "errno"
        string_val: "usage"
        string_val: "false"
        string_val: "."
        string_val: "||"
        string_val: "while"
        string_val: "2"
        string_val: "for"
        string_val: "optarg"
        string_val: "->"
        string_val: "switch"
        string_val: "<="
        string_val: "quote"
        string_val: "return"
        string_val: "?"
        string_val: "f"
        string_val: "const"
        string_val: "s"
        string_val: "file"
        string_val: "stdout"
        string_val: "size_t"
        string_val: "MST[STMT!TRAPSTMT]MSP[]"
        string_val: "bool"
        string_val: "()"
        string_val: "getopt_long"
        string_val: "toprint"
        string_val: "p"
        string_val: "fputs"
        string_val: "sum"
        string_val: "j"
        string_val: "MST[@!ABS$@$]MSP[]"
        string_val: "+="
        string_val: "default:"
        string_val: "line"
        string_val: "len"
        string_val: "EXIT_SUCCESS"
        string_val: "PROGRAM_NAME"
        string_val: ">"
        string_val: "MST[SWITCH!SHUFFLECASESDESTS$2$]MSP[]"
        string_val: "|="
        string_val: "unsigned"
        string_val: "length"
        string_val: "static"
        string_val: "printf"
        string_val: "&="
        string_val: "lo"
        string_val: "long_options"
        string_val: "exit"
        string_val: "AUTHORS"
        string_val: "void"
        string_val: "optc"
        string_val: "n"
        string_val: "--"
        string_val: "\'c\'"
        string_val: "status"
        string_val: "format"
        string_val: "\'a\'"
        string_val: "|"
        string_val: "fp"
        string_val: "STREQ"
        string_val: "MST[STMT!DELSTMT]MSP[]"
        string_val: "fd"
        string_val: "binary"
        string_val: "crc"
        string_val: "chopt"
        string_val: "struct"
        string_val: "case_GETOPT_VERSION_CHAR"
        string_val: "putchar"
        string_val: "(;"
        string_val: "10"
        string_val: "bit_flags"
        string_val: "cnt"
        string_val: "\'d\'"
        string_val: "\'b\'"
        string_val: "lr_13"
        string_val: "case_GETOPT_HELP_CHAR"
        string_val: ">>"
        string_val: "nfiles"
        string_val: "\'"
        string_val: "fts"
        string_val: "lr_4"
        string_val: "PACKAGE"
        string_val: "oi"
        string_val: "lr_12"
        string_val: "thisline"
        string_val: "lr_10"
        string_val: "bytes_read"
        string_val: "\'0\'"
        string_val: "name"
        string_val: "\'\\n\'"
        string_val: "time_type"
        string_val: "newtime"
        string_val: "free"
        string_val: "ent"
        string_val: "can_mode"
        string_val: "/"
        string_val: "template"
        string_val: "lr_14"
        string_val: "checksum"
        string_val: "LONGINT_OK"
        string_val: "lr_7"
        string_val: "MST[C!ADD$C$1$]MSP[]"
        string_val: "err"
        string_val: "files"
        string_val: "dereference"
        string_val: "inbuf"
        string_val: "buffer"
        string_val: "longopts"
        string_val: "lr_5"
        string_val: "set_quoting_style"
        string_val: "in"
        string_val: "ignore_mode"
        string_val: "stat"
        string_val: "time_ctime"
        string_val: "~"
        string_val: "escape_quoting_style"
        string_val: "order"
        string_val: "st"
        string_val: "hi"
        string_val: "close_stdout"
        string_val: "atexit"
        string_val: "IGNORE_MINIMAL"
        string_val: "ferror"
        string_val: "lr_9"
        string_val: "FTS_PHYSICAL"
        string_val: "lr_16"
        string_val: "stdin"
        string_val: "\'s\'"
        string_val: "e"
        string_val: "suffix"
        string_val: "lr_8"
        string_val: "MST[C!ADD$C$-1$]MSP[]"
        string_val: "8"
        string_val: "ch"
        string_val: "fclose"
        string_val: "^"
        string_val: "sizeof"
        string_val: "lr_24"
        string_val: "lr_3"
        string_val: "reference_file"
        string_val: "\'\\0\'"
        string_val: "lr_2"
        string_val: "lr_6"
        string_val: "lr_17"
        string_val: "lo_carry"
        string_val: "width"
        string_val: "tv_nsec"
        string_val: "lr_15"
        string_val: "descriptors"
        string_val: "uptime"
        string_val: "change_times"
        string_val: "MST[CALL!SHUFFLEARGS$2$]MSP[]"
        string_val: "mode"
        string_val: "this"
        string_val: "filename"
        string_val: "start"
        string_val: "newmode"
        string_val: "k"
        string_val: "\'L\'"
        string_val: "dir"
        string_val: "textdomain"
        string_val: "direc_length"
        string_val: "\'\\\\\'"
        string_val: "old_mode"
        string_val: "long"
        string_val: "program_name"
        string_val: "arg"
        string_val: "expected_operands"
        string_val: "feof"
        string_val: "do_check"
        string_val: "tv_sec"
        string_val: "alt"
        string_val: "long_format"
        string_val: "fstatus"
        string_val: "#endif"
        string_val: "O_BINARY"
        string_val: "human_output_opts"
        string_val: "lr_11"
        string_val: "lr_18"
        string_val: "output_block_size"
        string_val: "ret"
        string_val: "lr_19"
        string_val: "line_length"
        string_val: "bad_cast"
        string_val: "buf"
        string_val: "gid"
        string_val: "print_element"
        string_val: "is_stdin"
        string_val: "lr_1"
        string_val: "exit_status"
        string_val: "getenv"
        string_val: "lr_20"
        string_val: "bin_buffer"
        string_val: "groups"
        string_val: "3"
        string_val: "uintmax_t"
        string_val: "main"
        string_val: "lr_22"
        string_val: "<<"
        string_val: "size"
        string_val: "prefix_tag"
        string_val: ");"
        string_val: "delimiter"
        string_val: "tm"
        string_val: "\'t\'"
        string_val: "needs_escape"
        string_val: "updays"
        string_val: "\'p\'"
        string_val: "uid"
        string_val: "4"
        string_val: "bindtextdomain"
        string_val: "LOCALEDIR"
        string_val: "\'m\'"
        string_val: "change"
        string_val: "lr_23"
        string_val: "EOF"
        string_val: "\'P\'"
        string_val: "\'r\'"
        string_val: "lr_25"
        string_val: "precision"
        string_val: "logical"
        string_val: "gid_t"
        string_val: "outbuf"
        string_val: "status_only"
        string_val: "egid"
        string_val: "optc_status"
        string_val: "\'e\'"
        string_val: "scontext"
        string_val: "STDIN_FILENO"
        string_val: "rel_mode"
        string_val: "digest_bin_bytes"
        string_val: "total_bytes"
        string_val: "use_nuls"
        string_val: "lr_21"
        string_val: "1024"
        string_val: "ref_stats"
        string_val: "emit_try_help"
        string_val: "which"
        string_val: "opt"
        string_val: "\'7\'"
        string_val: "rgid"
        string_val: "notnow"
        string_val: "-="
        string_val: "CH_ATIME"
        string_val: "\'i\'"
        string_val: "\'X\'"
        string_val: "MST[C!CONSTVAL$0$]MSP[]"
        string_val: "sort_type"
        string_val: "\'v\'"
        string_val: "uid_t"
        string_val: "new_mode_len"
        string_val: "new_mode"
        string_val: "recurse"
        string_val: "W_TYPE_SIZE"
        string_val: "val"
        string_val: "setlocale"
        string_val: "check_input_order"
        string_val: "n_entries"
        string_val: "issued_disorder_warning"
        string_val: "affect_symlink_referent"
        string_val: "tmp_ulong"
        string_val: "hex_digest"
        string_val: "header_mode"
        string_val: "conversion"
        string_val: "no_create"
        string_val: "date_set"
        string_val: "uphours"
        string_val: "streams"
        string_val: "CAN_NOLINKS"
        string_val: "digest_hex_bytes"
        string_val: "u"
        string_val: "LC_ALL"
        string_val: "newpath"
        string_val: "86400"
        string_val: "n_mismatched_checksums"
        string_val: "XARGMATCH"
        string_val: "prev"
        string_val: "r"
        string_val: "CH_MTIME"
        string_val: "strlen"
        string_val: "q"
        string_val: "t"
        string_val: "EXIT_CANCELED"
        string_val: "sig"
        string_val: "field_width"
        string_val: "ai"
        string_val: "set_program_name"
        string_val: "initialize_main"
        string_val: "current"
        string_val: "close"
        string_val: "PRINT_MACHINE"
        string_val: "have_precision"
        string_val: "prev_optc_status"
        string_val: "args_used"
        string_val: "check_basic_portability"
        string_val: "\'h\'"
        string_val: "wd"
        string_val: "join_field_1"
        string_val: "direc_start"
        string_val: "set_join_field"
        string_val: "ENC_BLOCKSIZE"
        string_val: "24"
        string_val: "tmn"
        string_val: "filelen"
        string_val: "padding_width"
        string_val: "ref_file"
        string_val: "#if"
        string_val: "FILE"
        string_val: "mode_len"
        string_val: "PRIuMAX"
        string_val: "joption_count"
        string_val: "\'w\'"
        string_val: "BASE64_LENGTH"
        string_val: "LONGINT_OVERFLOW"
        string_val: "st_mode"
        string_val: "lr_26"
        string_val: "factors"
        string_val: "verbosity"
        string_val: "now"
        string_val: "operand_status"
        string_val: "emit_ancillary_info"
        string_val: "crctab"
        string_val: "0xFF"
        string_val: "files_given"
        string_val: "3600"
        string_val: "dest_name"
        string_val: "stats"
        string_val: "have_read_stdin"
        string_val: "files_from"
        string_val: "PACKAGE_NAME"
        string_val: "g_names"
        string_val: "bin2hex"
        string_val: "tmp_size"
        string_val: "have_field_width"
        string_val: "wrap_column"
        string_val: "quote_n"
        string_val: "PRINT_KERNEL_NAME"
        string_val: "temp"
        string_val: "\'2\'"
        string_val: "xnmalloc"
        string_val: "time_now"
        string_val: "n_open_or_read_failures"
        string_val: "i_major"
        string_val: "force_silent"
        string_val: "print_filename"
        string_val: "regular_total"
        string_val: "minimum_width"
        string_val: "PRINT_KERNEL_VERSION"
        string_val: "PRINT_KERNEL_RELEASE"
        string_val: "checkfile_stream"
        string_val: "checkfile_name"
        string_val: "mode_alloc"
        string_val: "0xffff"
        string_val: "MST[NEQ$@1$@2$!DIV$@1$@2$]MSP[]"
        string_val: "STDOUT_FILENO"
        string_val: "\'z\'"
        string_val: "mode_comma_len"
        string_val: "join_field_2"
        string_val: "arg_len"
        string_val: "act"
        string_val: "flex_date"
        string_val: "env"
        string_val: "color_indicator"
        string_val: "file_full_name"
        string_val: "sort_type_specified"
        string_val: "options"
        string_val: "local"
        string_val: "umask_value"
        string_val: "file_is_binary"
        string_val: "pending_dirs"
        string_val: "all_line"
        string_val: "\'H\'"
        string_val: "60"
        string_val: "xstrtoul"
        string_val: "ptr"
        string_val: "notnow1"
        string_val: "indicator_style"
        string_val: "do"
        string_val: "required_uid"
        string_val: "required_gid"
        string_val: "perform_basename"
        string_val: "lr_28"
        string_val: "dired"
        string_val: "style"
        string_val: "debug"
        string_val: "tolower"
        string_val: "path"
        string_val: "HELP_OPTION_DESCRIPTION"
        string_val: "root_dev_ino"
        string_val: "continue;"
        string_val: "\'*\'"
        string_val: "fs_incl"
        string_val: "MST[NEQ$@1$@2$!LE$@1$@2$]MSP[]"
        string_val: "MST[NEQ$@1$@2$!GE$@2$@1$]MSP[]"
        string_val: "\'n\'"
        string_val: "MST[NEQ$@1$@2$!LT$@2$@1$]MSP[]"
        string_val: "MST[NEQ$@1$@2$!GT$@1$@2$]MSP[]"
        string_val: "long_time_format"
        string_val: "\'/\'"
        string_val: "\'1\'"
        string_val: "\'+\'"
        string_val: "FTS_COMFOLLOW"
        string_val: "specified_mode"
        string_val: "ruid"
        string_val: "Version"
        string_val: "\'E\'"
        string_val: "s_major"
        string_val: "16"
        string_val: "maxsize"
        string_val: "\'x\'"
        string_val: "mode_adjust"
        string_val: "t1"
        string_val: "PRINT_NODENAME"
        string_val: "opt_fileno"
        string_val: "ncolumns"
        string_val: "cp"
        string_val: "fill_up"
        string_val: "lr_44"
        string_val: "print_name"
        string_val: "fname"
        string_val: "_invalid"
        string_val: "isatty"
        string_val: "PRINT_PROCESSOR"
        string_val: "MST[A!CONSTVAL$0$]MSP[]"
        string_val: "FTS_LOGICAL"
        string_val: "\'o\'"
        string_val: "MUST_BE_OPERAND"
        string_val: "lr_36"
        string_val: "goto"
        string_val: "_suffix"
        string_val: "chmod_succeeded"
        string_val: "fopen"
        string_val: "\'f\'"
        string_val: "set_security_context"
        string_val: "lr_30"
        string_val: "assert"
        string_val: "SIZE_MAX"
        string_val: "CAN_MODE_MASK"
        string_val: "tmp"
        string_val: "cwd_n_used"
        string_val: ">="
        string_val: "VERSION_OPTION_DESCRIPTION"
        string_val: "\'l\'"
        string_val: "warn"
        string_val: "preserve_root"
        string_val: "strtol_error"
        string_val: "length_modifier_len"
        string_val: "i_minor"
        string_val: "whatfile"
        string_val: "\'j\'"
        string_val: "lr_34"
        string_val: "header"
        string_val: "dry_run"
        string_val: "NO_GID"
        string_val: "pdir"
        string_val: "out"
        string_val: "quiet"
        string_val: "S_ISDIR"
        string_val: "S_IRWXUGO"
        string_val: "ngettext"
        string_val: "boot_time"
        string_val: "UNLIKELY"
        string_val: "upmins"
        string_val: "newtab"
        string_val: "localtime"
        string_val: "strict"
        string_val: "MST[EQ$@1$@2$!GT$@1$@2$]MSP[]"
        string_val: "MST[EQ$@1$@2$!LT$@2$@1$]MSP[]"
        string_val: "stderr"
        string_val: "MST[EQ$@1$@2$!LE$@1$@2$]MSP[]"
        string_val: "num"
        string_val: "MST[EQ$@1$@2$!GE$@2$@1$]MSP[]"
        string_val: "lr_27"
        string_val: "prevline"
        string_val: "loads"
        string_val: "group_name"
        string_val: "ENOENT"
        string_val: "enum"
        string_val: "can_relative_to"
        string_val: "hextobin"
        string_val: "valid_numbers"
        string_val: "select_plural"
        string_val: "infiles"
        string_val: "file_name"
        string_val: "dest_dir_arg"
        string_val: "u_argc"
        string_val: "shell"
        string_val: "gids"
        string_val: "fts_close"
        string_val: "result"
        string_val: "columns"
        string_val: "#else"
        string_val: "option_specified_date"
        string_val: "MST[EQ$@1$@2$!DIV$@1$@2$]MSP[]"
        string_val: "fts_read"
        string_val: "value"
        string_val: "stream"
        string_val: "device"
        string_val: "suffix_len"
        string_val: "pwd"
        string_val: "\'%\'"
        string_val: "component_specified"
        string_val: "no_dereference"
        string_val: "ISDIGIT"
        string_val: "immediate_dirs"
        string_val: "newline"
        string_val: "FADVISE_SEQUENTIAL"
        string_val: "xstrtoumax"
        string_val: "fadvise"
        string_val: "MST[SWITCH!REMOVECASES$1$]MSP[]"
        string_val: "line_allocated"
        string_val: "stat_flags"
        string_val: "parse_long_options"
        string_val: "lr_29"
        string_val: "xalloc_die"
        string_val: "sum_func"
        string_val: "read_tokens"
        string_val: "caught_signals"
        string_val: "intmax_t"
        string_val: "name_max"
        string_val: "got_size"
        string_val: "MST[EQ$@1$@2$!LE$@2$@1$]MSP[]"
        string_val: "mode_t"
        string_val: "when"
        string_val: "str"
        string_val: "nproc"
        string_val: "invalid"
        string_val: "MST[EQ$@1$@2$!GT$@2$@1$]MSP[]"
        string_val: "hp"
        string_val: "check_extra_portability"
        string_val: "set_date"
        string_val: "file_stats"
        string_val: "MIN"
        string_val: "nsigs"
        string_val: "fail"
        string_val: "MST[EQ$@1$@2$!GE$@1$@2$]MSP[]"
        string_val: "fstat"
        string_val: "base"
        string_val: "MST[EQ$@1$@2$!LT$@1$@2$]MSP[]"
        string_val: "format_str"
        string_val: "element"
        string_val: "naively_expected_mode"
        string_val: "active_dir_set"
        string_val: "multiple_names"
        string_val: "st_size"
        string_val: "length_modifier"
        string_val: "NO_UID"
        string_val: "digest_file"
        string_val: "ls_block_size"
        string_val: "lr_42"
        string_val: "valid_number"
        string_val: "print_with_color"
        string_val: "lr_32"
        string_val: "s_minor"
        string_val: "open"
        string_val: "O_NOCTTY"
        string_val: "infile"
        string_val: "IF_LINT"
        string_val: "dest_dir"
        string_val: "fprintf"
        string_val: "can_relative_base"
        string_val: "lr_37"
        string_val: "can_fname"
        string_val: "devmsg"
        string_val: "is_j2"
        string_val: "print_group"
        string_val: "\'A\'"
        string_val: "open_errno"
        string_val: "MST[NEQ$@1$@2$!LE$@2$@1$]MSP[]"
        string_val: "time_style_option"
        string_val: "\'-\'"
        string_val: "st2"
        string_val: "st1"
        string_val: "filename_quoting_options"
        string_val: "field"
        string_val: "FTS"
        string_val: "S_ISREG"
        string_val: "use_dest_dir"
        string_val: "CAN_MISSING"
        string_val: "g"
        string_val: "wc_file"
        string_val: "fp1"
        string_val: "slash"
        string_val: "entries"
        string_val: "setvbuf"
        string_val: "xprintf"
        string_val: "string_to_join_field"
        string_val: "show_all_fs"
        string_val: "file_size"
        string_val: "n_args"
        string_val: "human_options"
        string_val: "sort_time"
        string_val: "n_gids"
        string_val: "field_data"
        string_val: "ws"
        string_val: "V_off"
        string_val: "MIGHT_BE_O_ARG"
        string_val: "MODE_RW_UGO"
        string_val: "current_column"
        string_val: "MST[EQ$@1$@2$!MOD$@1$@2$]MSP[]"
        string_val: "getline"
        string_val: "fputc"
        string_val: "MST[PADD$A1$@2$!OPERAND$@2$]MSP[]"
        string_val: "defaultcon"
        string_val: "restorecon_private"
        string_val: "MST[NEQ$@1$@2$!GT$@2$@1$]MSP[]"
        string_val: "FTSENT"
        string_val: "\'u\'"
        string_val: "not_an_escape:"
        string_val: "STATUS_OPTION"
        string_val: "OUTPUT_MODE"
        string_val: "FTS_NOSTAT"
        string_val: "15"
        string_val: "verbose"
        string_val: "lr_31"
        string_val: "wrap_write"
        string_val: "table"
        string_val: "relative_to"
        string_val: "base64_encode"
        string_val: "MST[NEQ$@1$@2$!GE$@1$@2$]MSP[]"
        string_val: "NO_PRESERVE_ROOT"
…
        s: "loc:@model/att_seq2seq/decode/attention_decoder/decoder/extended_multi_rnn_cell/cell_0/gru_cell/gates/kernel"
      }
    }
  }
  attr {
    key: "_output_shapes"
    value {
      list {
        shape {
          dim {
            size: 1280
          }
          dim {
            size: 512
          }
        }
      }
    }
  }
  attr {
    key: "use_locking"
    value {
      b: true
    }
  }
  attr {
    key: "validate_shape"
    value {
      b: true
    }
  }
}
node {
  name: "save/Assign_26"
  op: "Assign"
  input: "model/att_seq2seq/OptimizeLoss/model/att_seq2seq/decode/attention_decoder/decoder/extended_multi_rnn_cell/cell_1/gru_cell/candidate/bias/Adam"
  input: "save/RestoreV2:26"
  attr {
    key: "T"
    value {
      type: DT_FLOAT
    }
  }
  attr {
    key: "_class"
    value {
      list {
        s: "loc:@model/att_seq2seq/decode/attention_decoder/decoder/extended_multi_rnn_cell/cell_1/gru_cell/candidate/bias"
      }
    }
  }
  attr {
    key: "_output_shapes"
    value {
      list {
        shape {
          dim {
            size: 256
          }
        }
      }
    }
  }
  attr {
    key: "use_locking"
    value {
      b: true
    }
  }
  attr {
    key: "validate_shape"
    value {
      b: true
    }
  }
}
node {
  name: "save/Assign_27"
  op: "Assign"
  input: "model/att_seq2seq/OptimizeLoss/model/att_seq2seq/decode/attention_decoder/decoder/extended_multi_rnn_cell/cell_1/gru_cell/candidate/bias/Adam_1"
  input: "save/RestoreV2:27"
  attr {
    key: "T"
    value {
      type: DT_FLOAT
    }
  }
  attr {
    key: "_class"
    value {
      list {
        s: "loc:@model/att_seq2seq/decode/attention_decoder/decoder/extended_multi_rnn_cell/cell_1/gru_cell/candidate/bias"
      }
    }
  }
  attr {
    key: "_output_shapes"
    value {
      list {
        shape {
          dim {
            size: 256
          }
        }
      }
    }
  }
  attr {
    key: "use_locking"
    value {
      b: true
    }
  }
  attr {
    key: "validate_shape"
    value {
      b: true
    }
  }
}
node {
  name: "save/Assign_28"
  op: "Assign"
  input: "model/att_seq2seq/OptimizeLoss/model/att_seq2seq/decode/attention_decoder/decoder/extended_multi_rnn_cell/cell_1/gru_cell/candidate/kernel/Adam"
  input: "save/RestoreV2:28"
  attr {
    key: "T"
    value {
      type: DT_FLOAT
    }
  }
  attr {
    key: "_class"
    value {
      list {
        s: "loc:@model/att_seq2seq/decode/attention_decoder/decoder/extended_multi_rnn_cell/cell_1/gru_cell/candidate/kernel"
      }
    }
  }
  attr {
    key: "_output_shapes"
    value {
      list {
        shape {
          dim {
            size: 512
          }
          dim {
            size: 256
          }
        }
      }
    }
  }
  attr {
    key: "use_locking"
    value {
      b: true
    }
  }
  attr {
    key: "validate_shape"
    value {
      b: true
    }
  }
}
node {
  name: "save/Assign_29"
  op: "Assign"
  input: "model/att_seq2seq/OptimizeLoss/model/att_seq2seq/decode/attention_decoder/decoder/extended_multi_rnn_cell/cell_1/gru_cell/candidate/kernel/Adam_1"
  input: "save/RestoreV2:29"
  attr {
    key: "T"
    value {
      type: DT_FLOAT
    }
  }
  attr {
    key: "_class"
    value {
      list {
        s: "loc:@model/att_seq2seq/decode/attention_decoder/decoder/extended_multi_rnn_cell/cell_1/gru_cell/candidate/kernel"
      }
    }
  }
  attr {
    key: "_output_shapes"
    value {
      list {
        shape {
          dim {
            size: 512
          }
          dim {
            size: 256
          }
        }
      }
    }
  }
  attr {
    key: "use_locking"
    value {
      b: true
    }
  }
  attr {
    key: "validate_shape"
    value {
      b: true
    }
  }
}
node {
  name: "save/Assign_30"
  op: "Assign"
  input: "model/att_seq2seq/OptimizeLoss/model/att_seq2seq/decode/attention_decoder/decoder/extended_multi_rnn_cell/cell_1/gru_cell/gates/bias/Adam"
  input: "save/RestoreV2:30"
  attr {
    key: "T"
    value {
      type: DT_FLOAT
    }
  }
  attr {
    key: "_class"
    value {
      list {
        s: "loc:@model/att_seq2seq/decode/attention_decoder/decoder/extended_multi_rnn_cell/cell_1/gru_cell/gates/bias"
      }
    }
  }
  attr {
    key: "_output_shapes"
    value {
      list {
        shape {
          dim {
            size: 512
          }
        }
      }
    }
  }
  attr {
    key: "use_locking"
    value {
      b: true
    }
  }
  attr {
    key: "validate_shape"
    value {
      b: true
    }
  }
}
node {
  name: "save/Assign_31"
  op: "Assign"
  input: "model/att_seq2seq/OptimizeLoss/model/att_seq2seq/decode/attention_decoder/decoder/extended_multi_rnn_cell/cell_1/gru_cell/gates/bias/Adam_1"
  input: "save/RestoreV2:31"
  attr {
    key: "T"
    value {
      type: DT_FLOAT
    }
  }
  attr {
    key: "_class"
    value {
      list {
        s: "loc:@model/att_seq2seq/decode/attention_decoder/decoder/extended_multi_rnn_cell/cell_1/gru_cell/gates/bias"
      }
    }
  }
  attr {
    key: "_output_shapes"
    value {
      list {
        shape {
          dim {
            size: 512
          }
        }
      }
    }
  }
  attr {
    key: "use_locking"
    value {
      b: true
    }
  }
  attr {
    key: "validate_shape"
    value {
      b: true
    }
  }
}
node {
  name: "save/Assign_32"
  op: "Assign"
  input: "model/att_seq2seq/OptimizeLoss/model/att_seq2seq/decode/attention_decoder/decoder/extended_multi_rnn_cell/cell_1/gru_cell/gates/kernel/Adam"
  input: "save/RestoreV2:32"
  attr {
    key: "T"
    value {
      type: DT_FLOAT
    }
  }
  attr {
    key: "_class"
    value {
      list {
        s: "loc:@model/att_seq2seq/decode/attention_decoder/decoder/extended_multi_rnn_cell/cell_1/gru_cell/gates/kernel"
      }
    }
  }
  attr {
    key: "_output_shapes"
    value {
      list {
        shape {
          dim {
            size: 512
          }
          dim {
            size: 512
          }
        }
      }
    }
  }
  attr {
    key: "use_locking"
    value {
      b: true
    }
  }
  attr {
    key: "validate_shape"
    value {
      b: true
    }
  }
}
node {
  name: "save/Assign_33"
  op: "Assign"
  input: "model/att_seq2seq/OptimizeLoss/model/att_seq2seq/decode/attention_decoder/decoder/extended_multi_rnn_cell/cell_1/gru_cell/gates/kernel/Adam_1"
  input: "save/RestoreV2:33"
  attr {
    key: "T"
    value {
      type: DT_FLOAT
    }
  }
  attr {
    key: "_class"
    value {
      list {
        s: "loc:@model/att_seq2seq/decode/attention_decoder/decoder/extended_multi_rnn_cell/cell_1/gru_cell/gates/kernel"
      }
    }
  }
  attr {
    key: "_output_shapes"
    value {
      list {
        shape {
          dim {
            size: 512
          }
          dim {
            size: 512
          }
        }
      }
    }
  }
  attr {
    key: "use_locking"
    value {
      b: true
    }
  }
  attr {
    key: "validate_shape"
    value {
      b: true
    }
  }
}
node {
  name: "save/Assign_34"
  op: "Assign"
  input: "model/att_seq2seq/OptimizeLoss/model/att_seq2seq/decode/attention_decoder/decoder/logits/biases/Adam"
  input: "save/RestoreV2:34"
  attr {
    key: "T"
    value {
      type: DT_FLOAT
    }
  }
  attr {
    key: "_class"
    value {
      list {
        s: "loc:@model/att_seq2seq/decode/attention_decoder/decoder/logits/biases"
      }
    }
  }
  attr {
    key: "_output_shapes"
    value {
      list {
        shape {
          dim {
            size: 4016
          }
        }
      }
    }
  }
  attr {
    key: "use_locking"
    value {
      b: true
    }
  }
  attr {
    key: "validate_shape"
    value {
      b: true
    }
  }
}
node {
  name: "save/Assign_35"
  op: "Assign"
  input: "model/att_seq2seq/OptimizeLoss/model/att_seq2seq/decode/attention_decoder/decoder/logits/biases/Adam_1"
  input: "save/RestoreV2:35"
  attr {
    key: "T"
    value {
      type: DT_FLOAT
    }
  }
  attr {
    key: "_class"
    value {
      list {
        s: "loc:@model/att_seq2seq/decode/attention_decoder/decoder/logits/biases"
      }
    }
  }
  attr {
    key: "_output_shapes"
    value {
      list {
        shape {
          dim {
            size: 4016
          }
        }
      }
    }
  }
  attr {
    key: "use_locking"
    value {
      b: true
    }
  }
  attr {
    key: "validate_shape"
    value {
      b: true
    }
  }
}
node {
  name: "save/Assign_36"
  op: "Assign"
  input: "model/att_seq2seq/OptimizeLoss/model/att_seq2seq/decode/attention_decoder/decoder/logits/weights/Adam"
  input: "save/RestoreV2:36"
  attr {
    key: "T"
    value {
      type: DT_FLOAT
    }
  }
  attr {
    key: "_class"
    value {
      list {
        s: "loc:@model/att_seq2seq/decode/attention_decoder/decoder/logits/weights"
      }
    }
  }
  attr {
    key: "_output_shapes"
    value {
      list {
        shape {
          dim {
            size: 256
          }
          dim {
            size: 4016
          }
        }
      }
    }
  }
  attr {
    key: "use_locking"
    value {
      b: true
    }
  }
  attr {
    key: "validate_shape"
    value {
      b: true
    }
  }
}
node {
  name: "save/Assign_37"
  op: "Assign"
  input: "model/att_seq2seq/OptimizeLoss/model/att_seq2seq/decode/attention_decoder/decoder/logits/weights/Adam_1"
  input: "save/RestoreV2:37"
  attr {
    key: "T"
    value {
      type: DT_FLOAT
    }
  }
  attr {
    key: "_class"
    value {
      list {
        s: "loc:@model/att_seq2seq/decode/attention_decoder/decoder/logits/weights"
      }
    }
  }
  attr {
    key: "_output_shapes"
    value {
      list {
        shape {
          dim {
            size: 256
          }
          dim {
            size: 4016
          }
        }
      }
    }
  }
  attr {
    key: "use_locking"
    value {
      b: true
    }
  }
  attr {
    key: "validate_shape"
    value {
      b: true
    }
  }
}
node {
  name: "save/Assign_38"
  op: "Assign"
  input: "model/att_seq2seq/OptimizeLoss/model/att_seq2seq/decode/target_embedding/W/Adam"
  input: "save/RestoreV2:38"
  attr {
    key: "T"
    value {
      type: DT_FLOAT
    }
  }
  attr {
    key: "_class"
    value {
      list {
        s: "loc:@model/att_seq2seq/decode/target_embedding/W"
      }
    }
  }
  attr {
    key: "_output_shapes"
    value {
      list {
        shape {
          dim {
            size: 4016
          }
          dim {
            size: 512
          }
        }
      }
    }
  }
  attr {
    key: "use_locking"
    value {
      b: true
    }
  }
  attr {
    key: "validate_shape"
    value {
      b: true
    }
  }
}
node {
  name: "save/Assign_39"
  op: "Assign"
  input: "model/att_seq2seq/OptimizeLoss/model/att_seq2seq/decode/target_embedding/W/Adam_1"
  input: "save/RestoreV2:39"
  attr {
    key: "T"
    value {
      type: DT_FLOAT
    }
  }
  attr {
    key: "_class"
    value {
      list {
        s: "loc:@model/att_seq2seq/decode/target_embedding/W"
      }
    }
  }
  attr {
    key: "_output_shapes"
    value {
      list {
        shape {
          dim {
            size: 4016
          }
          dim {
            size: 512
          }
        }
      }
    }
  }
  attr {
    key: "use_locking"
    value {
      b: true
    }
  }
  attr {
    key: "validate_shape"
    value {
      b: true
    }
  }
}
node {
  name: "save/Assign_40"
  op: "Assign"
  input: "model/att_seq2seq/OptimizeLoss/model/att_seq2seq/encode/bidi_rnn_encoder/bidirectional_rnn/bw/gru_cell/candidate/bias/Adam"
  input: "save/RestoreV2:40"
  attr {
    key: "T"
    value {
      type: DT_FLOAT
    }
  }
  attr {
    key: "_class"
    value {
      list {
        s: "loc:@model/att_seq2seq/encode/bidi_rnn_encoder/bidirectional_rnn/bw/gru_cell/candidate/bias"
      }
    }
  }
  attr {
    key: "_output_shapes"
    value {
      list {
        shape {
          dim {
            size: 256
          }
        }
      }
    }
  }
  attr {
    key: "use_locking"
    value {
      b: true
    }
  }
  attr {
    key: "validate_shape"
    value {
      b: true
    }
  }
}
node {
  name: "save/Assign_41"
  op: "Assign"
  input: "model/att_seq2seq/OptimizeLoss/model/att_seq2seq/encode/bidi_rnn_encoder/bidirectional_rnn/bw/gru_cell/candidate/bias/Adam_1"
  input: "save/RestoreV2:41"
  attr {
    key: "T"
    value {
      type: DT_FLOAT
    }
  }
  attr {
    key: "_class"
    value {
      list {
        s: "loc:@model/att_seq2seq/encode/bidi_rnn_encoder/bidirectional_rnn/bw/gru_cell/candidate/bias"
      }
    }
  }
  attr {
    key: "_output_shapes"
    value {
      list {
        shape {
          dim {
            size: 256
          }
        }
      }
    }
  }
  attr {
    key: "use_locking"
    value {
      b: true
    }
  }
  attr {
    key: "validate_shape"
    value {
      b: true
    }
  }
}
node {
  name: "save/Assign_42"
  op: "Assign"
  input: "model/att_seq2seq/OptimizeLoss/model/att_seq2seq/encode/bidi_rnn_encoder/bidirectional_rnn/bw/gru_cell/candidate/kernel/Adam"
  input: "save/RestoreV2:42"
  attr {
    key: "T"
    value {
      type: DT_FLOAT
    }
  }
  attr {
    key: "_class"
    value {
      list {
        s: "loc:@model/att_seq2seq/encode/bidi_rnn_encoder/bidirectional_rnn/bw/gru_cell/candidate/kernel"
      }
    }
  }
  attr {
    key: "_output_shapes"
    value {
      list {
        shape {
          dim {
            size: 768
          }
          dim {
            size: 256
          }
        }
      }
    }
  }
  attr {
    key: "use_locking"
    value {
      b: true
    }
  }
  attr {
    key: "validate_shape"
    value {
      b: true
    }
  }
}
node {
  name: "save/Assign_43"
  op: "Assign"
  input: "model/att_seq2seq/OptimizeLoss/model/att_seq2seq/encode/bidi_rnn_encoder/bidirectional_rnn/bw/gru_cell/candidate/kernel/Adam_1"
  input: "save/RestoreV2:43"
  attr {
    key: "T"
    value {
      type: DT_FLOAT
    }
  }
  attr {
    key: "_class"
    value {
      list {
        s: "loc:@model/att_seq2seq/encode/bidi_rnn_encoder/bidirectional_rnn/bw/gru_cell/candidate/kernel"
      }
    }
  }
  attr {
    key: "_output_shapes"
    value {
      list {
        shape {
          dim {
            size: 768
          }
          dim {
            size: 256
          }
        }
      }
    }
  }
  attr {
    key: "use_locking"
    value {
      b: true
    }
  }
  attr {
    key: "validate_shape"
    value {
      b: true
    }
  }
}
node {
  name: "save/Assign_44"
  op: "Assign"
  input: "model/att_seq2seq/OptimizeLoss/model/att_seq2seq/encode/bidi_rnn_encoder/bidirectional_rnn/bw/gru_cell/gates/bias/Adam"
  input: "save/RestoreV2:44"
  attr {
    key: "T"
    value {
      type: DT_FLOAT
    }
  }
  attr {
    key: "_class"
    value {
      list {
        s: "loc:@model/att_seq2seq/encode/bidi_rnn_encoder/bidirectional_rnn/bw/gru_cell/gates/bias"
      }
    }
  }
  attr {
    key: "_output_shapes"
    value {
      list {
        shape {
          dim {
            size: 512
          }
        }
      }
    }
  }
  attr {
    key: "use_locking"
    value {
      b: true
    }
  }
  attr {
    key: "validate_shape"
    value {
      b: true
    }
  }
}
node {
  name: "save/Assign_45"
  op: "Assign"
  input: "model/att_seq2seq/OptimizeLoss/model/att_seq2seq/encode/bidi_rnn_encoder/bidirectional_rnn/bw/gru_cell/gates/bias/Adam_1"
  input: "save/RestoreV2:45"
  attr {
    key: "T"
    value {
      type: DT_FLOAT
    }
  }
  attr {
    key: "_class"
    value {
      list {
        s: "loc:@model/att_seq2seq/encode/bidi_rnn_encoder/bidirectional_rnn/bw/gru_cell/gates/bias"
      }
    }
  }
  attr {
    key: "_output_shapes"
    value {
      list {
        shape {
          dim {
            size: 512
          }
        }
      }
    }
  }
  attr {
    key: "use_locking"
    value {
      b: true
    }
  }
  attr {
    key: "validate_shape"
    value {
      b: true
    }
  }
}
node {
  name: "save/Assign_46"
  op: "Assign"
  input: "model/att_seq2seq/OptimizeLoss/model/att_seq2seq/encode/bidi_rnn_encoder/bidirectional_rnn/bw/gru_cell/gates/kernel/Adam"
  input: "save/RestoreV2:46"
  attr {
    key: "T"
    value {
      type: DT_FLOAT
    }
  }
  attr {
    key: "_class"
    value {
      list {
        s: "loc:@model/att_seq2seq/encode/bidi_rnn_encoder/bidirectional_rnn/bw/gru_cell/gates/kernel"
      }
    }
  }
  attr {
    key: "_output_shapes"
    value {
      list {
        shape {
          dim {
            size: 768
          }
          dim {
            size: 512
          }
        }
      }
    }
  }
  attr {
    key: "use_locking"
    value {
      b: true
    }
  }
  attr {
    key: "validate_shape"
    value {
      b: true
    }
  }
}
node {
  name: "save/Assign_47"
  op: "Assign"
  input: "model/att_seq2seq/OptimizeLoss/model/att_seq2seq/encode/bidi_rnn_encoder/bidirectional_rnn/bw/gru_cell/gates/kernel/Adam_1"
  input: "save/RestoreV2:47"
  attr {
    key: "T"
    value {
      type: DT_FLOAT
    }
  }
  attr {
    key: "_class"
    value {
      list {
        s: "loc:@model/att_seq2seq/encode/bidi_rnn_encoder/bidirectional_rnn/bw/gru_cell/gates/kernel"
      }
    }
  }
  attr {
    key: "_output_shapes"
    value {
      list {
        shape {
          dim {
            size: 768
          }
          dim {
            size: 512
          }
        }
      }
    }
  }
  attr {
    key: "use_locking"
    value {
      b: true
    }
  }
  attr {
    key: "validate_shape"
    value {
      b: true
    }
  }
}
node {
  name: "save/Assign_48"
  op: "Assign"
  input: "model/att_seq2seq/OptimizeLoss/model/att_seq2seq/encode/bidi_rnn_encoder/bidirectional_rnn/fw/gru_cell/candidate/bias/Adam"
  input: "save/RestoreV2:48"
  attr {
    key: "T"
    value {
      type: DT_FLOAT
    }
  }
  attr {
    key: "_class"
    value {
      list {
        s: "loc:@model/att_seq2seq/encode/bidi_rnn_encoder/bidirectional_rnn/fw/gru_cell/candidate/bias"
      }
    }
  }
  attr {
    key: "_output_shapes"
    value {
      list {
        shape {
          dim {
            size: 256
          }
        }
      }
    }
  }
  attr {
    key: "use_locking"
    value {
      b: true
    }
  }
  attr {
    key: "validate_shape"
    value {
      b: true
    }
  }
}
node {
  name: "save/Assign_49"
  op: "Assign"
  input: "model/att_seq2seq/OptimizeLoss/model/att_seq2seq/encode/bidi_rnn_encoder/bidirectional_rnn/fw/gru_cell/candidate/bias/Adam_1"
  input: "save/RestoreV2:49"
  attr {
    key: "T"
    value {
      type: DT_FLOAT
    }
  }
  attr {
    key: "_class"
    value {
      list {
        s: "loc:@model/att_seq2seq/encode/bidi_rnn_encoder/bidirectional_rnn/fw/gru_cell/candidate/bias"
      }
    }
  }
  attr {
    key: "_output_shapes"
    value {
      list {
        shape {
          dim {
            size: 256
          }
        }
      }
    }
  }
  attr {
    key: "use_locking"
    value {
      b: true
    }
  }
  attr {
    key: "validate_shape"
    value {
      b: true
    }
  }
}
node {
  name: "save/Assign_50"
  op: "Assign"
  input: "model/att_seq2seq/OptimizeLoss/model/att_seq2seq/encode/bidi_rnn_encoder/bidirectional_rnn/fw/gru_cell/candidate/kernel/Adam"
  input: "save/RestoreV2:50"
  attr {
    key: "T"
    value {
      type: DT_FLOAT
    }
  }
  attr {
    key: "_class"
    value {
      list {
        s: "loc:@model/att_seq2seq/encode/bidi_rnn_encoder/bidirectional_rnn/fw/gru_cell/candidate/kernel"
      }
    }
  }
  attr {
    key: "_output_shapes"
    value {
      list {
        shape {
          dim {
            size: 768
          }
          dim {
            size: 256
          }
        }
      }
    }
  }
  attr {
    key: "use_locking"
    value {
      b: true
    }
  }
  attr {
    key: "validate_shape"
    value {
      b: true
    }
  }
}
node {
  name: "save/Assign_51"
  op: "Assign"
  input: "model/att_seq2seq/OptimizeLoss/model/att_seq2seq/encode/bidi_rnn_encoder/bidirectional_rnn/fw/gru_cell/candidate/kernel/Adam_1"
  input: "save/RestoreV2:51"
  attr {
    key: "T"
    value {
      type: DT_FLOAT
    }
  }
  attr {
    key: "_class"
    value {
      list {
        s: "loc:@model/att_seq2seq/encode/bidi_rnn_encoder/bidirectional_rnn/fw/gru_cell/candidate/kernel"
      }
    }
  }
  attr {
    key: "_output_shapes"
    value {
      list {
        shape {
          dim {
            size: 768
          }
          dim {
            size: 256
          }
        }
      }
    }
  }
  attr {
    key: "use_locking"
    value {
      b: true
    }
  }
  attr {
    key: "validate_shape"
    value {
      b: true
    }
  }
}
node {
  name: "save/Assign_52"
  op: "Assign"
  input: "model/att_seq2seq/OptimizeLoss/model/att_seq2seq/encode/bidi_rnn_encoder/bidirectional_rnn/fw/gru_cell/gates/bias/Adam"
  input: "save/RestoreV2:52"
  attr {
    key: "T"
    value {
      type: DT_FLOAT
    }
  }
  attr {
    key: "_class"
    value {
      list {
        s: "loc:@model/att_seq2seq/encode/bidi_rnn_encoder/bidirectional_rnn/fw/gru_cell/gates/bias"
      }
    }
  }
  attr {
    key: "_output_shapes"
    value {
      list {
        shape {
          dim {
            size: 512
          }
        }
      }
    }
  }
  attr {
    key: "use_locking"
    value {
      b: true
    }
  }
  attr {
    key: "validate_shape"
    value {
      b: true
    }
  }
}
node {
  name: "save/Assign_53"
  op: "Assign"
  input: "model/att_seq2seq/OptimizeLoss/model/att_seq2seq/encode/bidi_rnn_encoder/bidirectional_rnn/fw/gru_cell/gates/bias/Adam_1"
  input: "save/RestoreV2:53"
  attr {
    key: "T"
    value {
      type: DT_FLOAT
    }
  }
  attr {
    key: "_class"
    value {
      list {
        s: "loc:@model/att_seq2seq/encode/bidi_rnn_encoder/bidirectional_rnn/fw/gru_cell/gates/bias"
      }
    }
  }
  attr {
    key: "_output_shapes"
    value {
      list {
        shape {
          dim {
            size: 512
          }
        }
      }
    }
  }
  attr {
    key: "use_locking"
    value {
      b: true
    }
  }
  attr {
    key: "validate_shape"
    value {
      b: true
    }
  }
}
node {
  name: "save/Assign_54"
  op: "Assign"
  input: "model/att_seq2seq/OptimizeLoss/model/att_seq2seq/encode/bidi_rnn_encoder/bidirectional_rnn/fw/gru_cell/gates/kernel/Adam"
  input: "save/RestoreV2:54"
  attr {
    key: "T"
    value {
      type: DT_FLOAT
    }
  }
  attr {
    key: "_class"
    value {
      list {
        s: "loc:@model/att_seq2seq/encode/bidi_rnn_encoder/bidirectional_rnn/fw/gru_cell/gates/kernel"
      }
    }
  }
  attr {
    key: "_output_shapes"
    value {
      list {
        shape {
          dim {
            size: 768
          }
          dim {
            size: 512
          }
        }
      }
    }
  }
  attr {
    key: "use_locking"
    value {
      b: true
    }
  }
  attr {
    key: "validate_shape"
    value {
      b: true
    }
  }
}
node {
  name: "save/Assign_55"
  op: "Assign"
  input: "model/att_seq2seq/OptimizeLoss/model/att_seq2seq/encode/bidi_rnn_encoder/bidirectional_rnn/fw/gru_cell/gates/kernel/Adam_1"
  input: "save/RestoreV2:55"
  attr {
    key: "T"
    value {
      type: DT_FLOAT
    }
  }
  attr {
    key: "_class"
    value {
      list {
        s: "loc:@model/att_seq2seq/encode/bidi_rnn_encoder/bidirectional_rnn/fw/gru_cell/gates/kernel"
      }
    }
  }
  attr {
    key: "_output_shapes"
    value {
      list {
        shape {
          dim {
            size: 768
          }
          dim {
            size: 512
          }
        }
      }
    }
  }
  attr {
    key: "use_locking"
    value {
      b: true
    }
  }
  attr {
    key: "validate_shape"
    value {
      b: true
    }
  }
}
node {
  name: "save/Assign_56"
  op: "Assign"
  input: "model/att_seq2seq/OptimizeLoss/model/att_seq2seq/encode/source_embedding/W/Adam"
  input: "save/RestoreV2:56"
  attr {
    key: "T"
    value {
      type: DT_FLOAT
    }
  }
  attr {
    key: "_class"
    value {
      list {
        s: "loc:@model/att_seq2seq/encode/source_embedding/W"
      }
    }
  }
  attr {
    key: "_output_shapes"
    value {
      list {
        shape {
          dim {
            size: 3577
          }
          dim {
            size: 512
          }
        }
      }
    }
  }
  attr {
    key: "use_locking"
    value {
      b: true
    }
  }
  attr {
    key: "validate_shape"
    value {
      b: true
    }
  }
}
node {
  name: "save/Assign_57"
  op: "Assign"
  input: "model/att_seq2seq/OptimizeLoss/model/att_seq2seq/encode/source_embedding/W/Adam_1"
  input: "save/RestoreV2:57"
  attr {
    key: "T"
    value {
      type: DT_FLOAT
    }
  }
  attr {
    key: "_class"
    value {
      list {
        s: "loc:@model/att_seq2seq/encode/source_embedding/W"
      }
    }
  }
  attr {
    key: "_output_shapes"
    value {
      list {
        shape {
          dim {
            size: 3577
          }
          dim {
            size: 512
          }
        }
      }
    }
  }
  attr {
    key: "use_locking"
    value {
      b: true
    }
  }
  attr {
    key: "validate_shape"
    value {
      b: true
    }
  }
}
node {
  name: "save/Assign_58"
  op: "Assign"
  input: "model/att_seq2seq/Variable"
  input: "save/RestoreV2:58"
  attr {
    key: "T"
    value {
      type: DT_INT32
    }
  }
  attr {
    key: "_class"
    value {
      list {
        s: "loc:@model/att_seq2seq/Variable"
      }
    }
  }
  attr {
    key: "_output_shapes"
    value {
      list {
        shape {
        }
      }
    }
  }
  attr {
    key: "use_locking"
    value {
      b: true
    }
  }
  attr {
    key: "validate_shape"
    value {
      b: true
    }
  }
}
node {
  name: "save/Assign_59"
  op: "Assign"
  input: "model/att_seq2seq/decode/attention/att_keys/biases"
  input: "save/RestoreV2:59"
  attr {
    key: "T"
    value {
      type: DT_FLOAT
    }
  }
  attr {
    key: "_class"
    value {
      list {
        s: "loc:@model/att_seq2seq/decode/attention/att_keys/biases"
      }
    }
  }
  attr {
    key: "_output_shapes"
    value {
      list {
        shape {
          dim {
            size: 512
          }
        }
      }
    }
  }
  attr {
    key: "use_locking"
    value {
      b: true
    }
  }
  attr {
    key: "validate_shape"
    value {
      b: true
    }
  }
}
node {
  name: "save/Assign_60"
  op: "Assign"
  input: "model/att_seq2seq/decode/attention/att_keys/weights"
  input: "save/RestoreV2:60"
  attr {
    key: "T"
    value {
      type: DT_FLOAT
    }
  }
  attr {
    key: "_class"
    value {
      list {
        s: "loc:@model/att_seq2seq/decode/attention/att_keys/weights"
      }
    }
  }
  attr {
    key: "_output_shapes"
    value {
      list {
        shape {
          dim {
            size: 512
          }
          dim {
            size: 512
          }
        }
      }
    }
  }
  attr {
    key: "use_locking"
    value {
      b: true
    }
  }
  attr {
    key: "validate_shape"
    value {
      b: true
    }
  }
}
node {
  name: "save/Assign_61"
  op: "Assign"
  input: "model/att_seq2seq/decode/attention/att_query/biases"
  input: "save/RestoreV2:61"
  attr {
    key: "T"
    value {
      type: DT_FLOAT
    }
  }
  attr {
    key: "_class"
    value {
      list {
        s: "loc:@model/att_seq2seq/decode/attention/att_query/biases"
      }
    }
  }
  attr {
    key: "_output_shapes"
    value {
      list {
        shape {
          dim {
            size: 512
          }
        }
      }
    }
  }
  attr {
    key: "use_locking"
    value {
      b: true
    }
  }
  attr {
    key: "validate_shape"
    value {
      b: true
    }
  }
}
node {
  name: "save/Assign_62"
  op: "Assign"
  input: "model/att_seq2seq/decode/attention/att_query/weights"
  input: "save/RestoreV2:62"
  attr {
    key: "T"
    value {
      type: DT_FLOAT
    }
  }
  attr {
    key: "_class"
    value {
      list {
        s: "loc:@model/att_seq2seq/decode/attention/att_query/weights"
      }
    }
  }
  attr {
    key: "_output_shapes"
    value {
      list {
        shape {
          dim {
            size: 256
          }
          dim {
            size: 512
          }
        }
      }
    }
  }
  attr {
    key: "use_locking"
    value {
      b: true
    }
  }
  attr {
    key: "validate_shape"
    value {
      b: true
    }
  }
}
node {
  name: "save/Assign_63"
  op: "Assign"
  input: "model/att_seq2seq/decode/attention/v_att"
  input: "save/RestoreV2:63"
  attr {
    key: "T"
    value {
      type: DT_FLOAT
    }
  }
  attr {
    key: "_class"
    value {
      list {
        s: "loc:@model/att_seq2seq/decode/attention/v_att"
      }
    }
  }
  attr {
    key: "_output_shapes"
    value {
      list {
        shape {
          dim {
            size: 512
          }
        }
      }
    }
  }
  attr {
    key: "use_locking"
    value {
      b: true
    }
  }
  attr {
    key: "validate_shape"
    value {
      b: true
    }
  }
}
node {
  name: "save/Assign_64"
  op: "Assign"
  input: "model/att_seq2seq/decode/attention_decoder/decoder/attention_mix/biases"
  input: "save/RestoreV2:64"
  attr {
    key: "T"
    value {
      type: DT_FLOAT
    }
  }
  attr {
    key: "_class"
    value {
      list {
        s: "loc:@model/att_seq2seq/decode/attention_decoder/decoder/attention_mix/biases"
      }
    }
  }
  attr {
    key: "_output_shapes"
    value {
      list {
        shape {
          dim {
            size: 256
          }
        }
      }
    }
  }
  attr {
    key: "use_locking"
    value {
      b: true
    }
  }
  attr {
    key: "validate_shape"
    value {
      b: true
    }
  }
}
node {
  name: "save/Assign_65"
  op: "Assign"
  input: "model/att_seq2seq/decode/attention_decoder/decoder/attention_mix/weights"
  input: "save/RestoreV2:65"
  attr {
    key: "T"
    value {
      type: DT_FLOAT
    }
  }
  attr {
    key: "_class"
    value {
      list {
        s: "loc:@model/att_seq2seq/decode/attention_decoder/decoder/attention_mix/weights"
      }
    }
  }
  attr {
    key: "_output_shapes"
    value {
      list {
        shape {
          dim {
            size: 768
          }
          dim {
            size: 256
          }
        }
      }
    }
  }
  attr {
    key: "use_locking"
    value {
      b: true
    }
  }
  attr {
    key: "validate_shape"
    value {
      b: true
    }
  }
}
node {
  name: "save/Assign_66"
  op: "Assign"
  input: "model/att_seq2seq/decode/attention_decoder/decoder/extended_multi_rnn_cell/cell_0/gru_cell/candidate/bias"
  input: "save/RestoreV2:66"
  attr {
    key: "T"
    value {
      type: DT_FLOAT
    }
  }
  attr {
    key: "_class"
    value {
      list {
        s: "loc:@model/att_seq2seq/decode/attention_decoder/decoder/extended_multi_rnn_cell/cell_0/gru_cell/candidate/bias"
      }
    }
  }
  attr {
    key: "_output_shapes"
    value {
      list {
        shape {
          dim {
            size: 256
          }
        }
      }
    }
  }
  attr {
    key: "use_locking"
    value {
      b: true
    }
  }
  attr {
    key: "validate_shape"
    value {
      b: true
    }
  }
}
node {
  name: "save/Assign_67"
  op: "Assign"
  input: "model/att_seq2seq/decode/attention_decoder/decoder/extended_multi_rnn_cell/cell_0/gru_cell/candidate/kernel"
  input: "save/RestoreV2:67"
  attr {
    key: "T"
    value {
      type: DT_FLOAT
    }
  }
  attr {
    key: "_class"
    value {
      list {
        s: "loc:@model/att_seq2seq/decode/attention_decoder/decoder/extended_multi_rnn_cell/cell_0/gru_cell/candidate/kernel"
      }
    }
  }
  attr {
    key: "_output_shapes"
    value {
      list {
        shape {
          dim {
            size: 1280
          }
          dim {
            size: 256
          }
        }
      }
    }
  }
  attr {
    key: "use_locking"
    value {
      b: true
    }
  }
  attr {
    key: "validate_shape"
    value {
      b: true
    }
  }
}
node {
  name: "save/Assign_68"
  op: "Assign"
  input: "model/att_seq2seq/decode/attention_decoder/decoder/extended_multi_rnn_cell/cell_0/gru_cell/gates/bias"
  input: "save/RestoreV2:68"
  attr {
    key: "T"
    value {
      type: DT_FLOAT
    }
  }
  attr {
    key: "_class"
    value {
      list {
        s: "loc:@model/att_seq2seq/decode/attention_decoder/decoder/extended_multi_rnn_cell/cell_0/gru_cell/gates/bias"
      }
    }
  }
  attr {
    key: "_output_shapes"
    value {
      list {
        shape {
          dim {
            size: 512
          }
        }
      }
    }
  }
  attr {
    key: "use_locking"
    value {
      b: true
    }
  }
  attr {
    key: "validate_shape"
    value {
      b: true
    }
  }
}
node {
  name: "save/Assign_69"
  op: "Assign"
  input: "model/att_seq2seq/decode/attention_decoder/decoder/extended_multi_rnn_cell/cell_0/gru_cell/gates/kernel"
  input: "save/RestoreV2:69"
  attr {
    key: "T"
    value {
      type: DT_FLOAT
    }
  }
  attr {
    key: "_class"
    value {
      list {
        s: "loc:@model/att_seq2seq/decode/attention_decoder/decoder/extended_multi_rnn_cell/cell_0/gru_cell/gates/kernel"
      }
    }
  }
  attr {
    key: "_output_shapes"
    value {
      list {
        shape {
          dim {
            size: 1280
          }
          dim {
            size: 512
          }
        }
      }
    }
  }
  attr {
    key: "use_locking"
    value {
      b: true
    }
  }
  attr {
    key: "validate_shape"
    value {
      b: true
    }
  }
}
node {
  name: "save/Assign_70"
  op: "Assign"
  input: "model/att_seq2seq/decode/attention_decoder/decoder/extended_multi_rnn_cell/cell_1/gru_cell/candidate/bias"
  input: "save/RestoreV2:70"
  attr {
    key: "T"
    value {
      type: DT_FLOAT
    }
  }
  attr {
    key: "_class"
    value {
      list {
        s: "loc:@model/att_seq2seq/decode/attention_decoder/decoder/extended_multi_rnn_cell/cell_1/gru_cell/candidate/bias"
      }
    }
  }
  attr {
    key: "_output_shapes"
    value {
      list {
        shape {
          dim {
            size: 256
          }
        }
      }
    }
  }
  attr {
    key: "use_locking"
    value {
      b: true
    }
  }
  attr {
    key: "validate_shape"
    value {
      b: true
    }
  }
}
node {
  name: "save/Assign_71"
  op: "Assign"
  input: "model/att_seq2seq/decode/attention_decoder/decoder/extended_multi_rnn_cell/cell_1/gru_cell/candidate/kernel"
  input: "save/RestoreV2:71"
  attr {
    key: "T"
    value {
      type: DT_FLOAT
    }
  }
  attr {
    key: "_class"
    value {
      list {
        s: "loc:@model/att_seq2seq/decode/attention_decoder/decoder/extended_multi_rnn_cell/cell_1/gru_cell/candidate/kernel"
      }
    }
  }
  attr {
    key: "_output_shapes"
    value {
      list {
        shape {
          dim {
            size: 512
          }
          dim {
            size: 256
          }
        }
      }
    }
  }
  attr {
    key: "use_locking"
    value {
      b: true
    }
  }
  attr {
    key: "validate_shape"
    value {
      b: true
    }
  }
}
node {
  name: "save/Assign_72"
  op: "Assign"
  input: "model/att_seq2seq/decode/attention_decoder/decoder/extended_multi_rnn_cell/cell_1/gru_cell/gates/bias"
  input: "save/RestoreV2:72"
  attr {
    key: "T"
    value {
      type: DT_FLOAT
    }
  }
  attr {
    key: "_class"
    value {
      list {
        s: "loc:@model/att_seq2seq/decode/attention_decoder/decoder/extended_multi_rnn_cell/cell_1/gru_cell/gates/bias"
      }
    }
  }
  attr {
    key: "_output_shapes"
    value {
      list {
        shape {
          dim {
            size: 512
          }
        }
      }
    }
  }
  attr {
    key: "use_locking"
    value {
      b: true
    }
  }
  attr {
    key: "validate_shape"
    value {
      b: true
    }
  }
}
node {
  name: "save/Assign_73"
  op: "Assign"
  input: "model/att_seq2seq/decode/attention_decoder/decoder/extended_multi_rnn_cell/cell_1/gru_cell/gates/kernel"
  input: "save/RestoreV2:73"
  attr {
    key: "T"
    value {
      type: DT_FLOAT
    }
  }
  attr {
    key: "_class"
    value {
      list {
        s: "loc:@model/att_seq2seq/decode/attention_decoder/decoder/extended_multi_rnn_cell/cell_1/gru_cell/gates/kernel"
      }
    }
  }
  attr {
    key: "_output_shapes"
    value {
      list {
        shape {
          dim {
            size: 512
          }
          dim {
            size: 512
          }
        }
      }
    }
  }
  attr {
    key: "use_locking"
    value {
      b: true
    }
  }
  attr {
    key: "validate_shape"
    value {
      b: true
    }
  }
}
node {
  name: "save/Assign_74"
  op: "Assign"
  input: "model/att_seq2seq/decode/attention_decoder/decoder/logits/biases"
  input: "save/RestoreV2:74"
  attr {
    key: "T"
    value {
      type: DT_FLOAT
    }
  }
  attr {
    key: "_class"
    value {
      list {
        s: "loc:@model/att_seq2seq/decode/attention_decoder/decoder/logits/biases"
      }
    }
  }
  attr {
    key: "_output_shapes"
    value {
      list {
        shape {
          dim {
            size: 4016
          }
        }
      }
    }
  }
  attr {
    key: "use_locking"
    value {
      b: true
    }
  }
  attr {
    key: "validate_shape"
    value {
      b: true
    }
  }
}
node {
  name: "save/Assign_75"
  op: "Assign"
  input: "model/att_seq2seq/decode/attention_decoder/decoder/logits/weights"
  input: "save/RestoreV2:75"
  attr {
    key: "T"
    value {
      type: DT_FLOAT
    }
  }
  attr {
    key: "_class"
    value {
      list {
        s: "loc:@model/att_seq2seq/decode/attention_decoder/decoder/logits/weights"
      }
    }
  }
  attr {
    key: "_output_shapes"
    value {
      list {
        shape {
          dim {
            size: 256
          }
          dim {
            size: 4016
          }
        }
      }
    }
  }
  attr {
    key: "use_locking"
    value {
      b: true
    }
  }
  attr {
    key: "validate_shape"
    value {
      b: true
    }
  }
}
node {
  name: "save/Assign_76"
  op: "Assign"
  input: "model/att_seq2seq/decode/target_embedding/W"
  input: "save/RestoreV2:76"
  attr {
    key: "T"
    value {
      type: DT_FLOAT
    }
  }
  attr {
    key: "_class"
    value {
      list {
        s: "loc:@model/att_seq2seq/decode/target_embedding/W"
      }
    }
  }
  attr {
    key: "_output_shapes"
    value {
      list {
        shape {
          dim {
            size: 4016
          }
          dim {
            size: 512
          }
        }
      }
    }
  }
  attr {
    key: "use_locking"
    value {
      b: true
    }
  }
  attr {
    key: "validate_shape"
    value {
      b: true
    }
  }
}
node {
  name: "save/Assign_77"
  op: "Assign"
  input: "model/att_seq2seq/encode/bidi_rnn_encoder/bidirectional_rnn/bw/gru_cell/candidate/bias"
  input: "save/RestoreV2:77"
  attr {
    key: "T"
    value {
      type: DT_FLOAT
    }
  }
  attr {
    key: "_class"
    value {
      list {
        s: "loc:@model/att_seq2seq/encode/bidi_rnn_encoder/bidirectional_rnn/bw/gru_cell/candidate/bias"
      }
    }
  }
  attr {
    key: "_output_shapes"
    value {
      list {
        shape {
          dim {
            size: 256
          }
        }
      }
    }
  }
  attr {
    key: "use_locking"
    value {
      b: true
    }
  }
  attr {
    key: "validate_shape"
    value {
      b: true
    }
  }
}
node {
  name: "save/Assign_78"
  op: "Assign"
  input: "model/att_seq2seq/encode/bidi_rnn_encoder/bidirectional_rnn/bw/gru_cell/candidate/kernel"
  input: "save/RestoreV2:78"
  attr {
    key: "T"
    value {
      type: DT_FLOAT
    }
  }
  attr {
    key: "_class"
    value {
      list {
        s: "loc:@model/att_seq2seq/encode/bidi_rnn_encoder/bidirectional_rnn/bw/gru_cell/candidate/kernel"
      }
    }
  }
  attr {
    key: "_output_shapes"
    value {
      list {
        shape {
          dim {
            size: 768
          }
          dim {
            size: 256
          }
        }
      }
    }
  }
  attr {
    key: "use_locking"
    value {
      b: true
    }
  }
  attr {
    key: "validate_shape"
    value {
      b: true
    }
  }
}
node {
  name: "save/Assign_79"
  op: "Assign"
  input: "model/att_seq2seq/encode/bidi_rnn_encoder/bidirectional_rnn/bw/gru_cell/gates/bias"
  input: "save/RestoreV2:79"
  attr {
    key: "T"
    value {
      type: DT_FLOAT
    }
  }
  attr {
    key: "_class"
    value {
      list {
        s: "loc:@model/att_seq2seq/encode/bidi_rnn_encoder/bidirectional_rnn/bw/gru_cell/gates/bias"
      }
    }
  }
  attr {
    key: "_output_shapes"
    value {
      list {
        shape {
          dim {
            size: 512
          }
        }
      }
    }
  }
  attr {
    key: "use_locking"
    value {
      b: true
    }
  }
  attr {
    key: "validate_shape"
    value {
      b: true
    }
  }
}
node {
  name: "save/Assign_80"
  op: "Assign"
  input: "model/att_seq2seq/encode/bidi_rnn_encoder/bidirectional_rnn/bw/gru_cell/gates/kernel"
  input: "save/RestoreV2:80"
  attr {
    key: "T"
    value {
      type: DT_FLOAT
    }
  }
  attr {
    key: "_class"
    value {
      list {
        s: "loc:@model/att_seq2seq/encode/bidi_rnn_encoder/bidirectional_rnn/bw/gru_cell/gates/kernel"
      }
    }
  }
  attr {
    key: "_output_shapes"
    value {
      list {
        shape {
          dim {
            size: 768
          }
          dim {
            size: 512
          }
        }
      }
    }
  }
  attr {
    key: "use_locking"
    value {
      b: true
    }
  }
  attr {
    key: "validate_shape"
    value {
      b: true
    }
  }
}
node {
  name: "save/Assign_81"
  op: "Assign"
  input: "model/att_seq2seq/encode/bidi_rnn_encoder/bidirectional_rnn/fw/gru_cell/candidate/bias"
  input: "save/RestoreV2:81"
  attr {
    key: "T"
    value {
      type: DT_FLOAT
    }
  }
  attr {
    key: "_class"
    value {
      list {
        s: "loc:@model/att_seq2seq/encode/bidi_rnn_encoder/bidirectional_rnn/fw/gru_cell/candidate/bias"
      }
    }
  }
  attr {
    key: "_output_shapes"
    value {
      list {
        shape {
          dim {
            size: 256
          }
        }
      }
    }
  }
  attr {
    key: "use_locking"
    value {
      b: true
    }
  }
  attr {
    key: "validate_shape"
    value {
      b: true
    }
  }
}
node {
  name: "save/Assign_82"
  op: "Assign"
  input: "model/att_seq2seq/encode/bidi_rnn_encoder/bidirectional_rnn/fw/gru_cell/candidate/kernel"
  input: "save/RestoreV2:82"
  attr {
    key: "T"
    value {
      type: DT_FLOAT
    }
  }
  attr {
    key: "_class"
    value {
      list {
        s: "loc:@model/att_seq2seq/encode/bidi_rnn_encoder/bidirectional_rnn/fw/gru_cell/candidate/kernel"
      }
    }
  }
  attr {
    key: "_output_shapes"
    value {
      list {
        shape {
          dim {
            size: 768
          }
          dim {
            size: 256
          }
        }
      }
    }
  }
  attr {
    key: "use_locking"
    value {
      b: true
    }
  }
  attr {
    key: "validate_shape"
    value {
      b: true
    }
  }
}
node {
  name: "save/Assign_83"
  op: "Assign"
  input: "model/att_seq2seq/encode/bidi_rnn_encoder/bidirectional_rnn/fw/gru_cell/gates/bias"
  input: "save/RestoreV2:83"
  attr {
    key: "T"
    value {
      type: DT_FLOAT
    }
  }
  attr {
    key: "_class"
    value {
      list {
        s: "loc:@model/att_seq2seq/encode/bidi_rnn_encoder/bidirectional_rnn/fw/gru_cell/gates/bias"
      }
    }
  }
  attr {
    key: "_output_shapes"
    value {
      list {
        shape {
          dim {
            size: 512
          }
        }
      }
    }
  }
  attr {
    key: "use_locking"
    value {
      b: true
    }
  }
  attr {
    key: "validate_shape"
    value {
      b: true
    }
  }
}
node {
  name: "save/Assign_84"
  op: "Assign"
  input: "model/att_seq2seq/encode/bidi_rnn_encoder/bidirectional_rnn/fw/gru_cell/gates/kernel"
  input: "save/RestoreV2:84"
  attr {
    key: "T"
    value {
      type: DT_FLOAT
    }
  }
  attr {
    key: "_class"
    value {
      list {
        s: "loc:@model/att_seq2seq/encode/bidi_rnn_encoder/bidirectional_rnn/fw/gru_cell/gates/kernel"
      }
    }
  }
  attr {
    key: "_output_shapes"
    value {
      list {
        shape {
          dim {
            size: 768
          }
          dim {
            size: 512
          }
        }
      }
    }
  }
  attr {
    key: "use_locking"
    value {
      b: true
    }
  }
  attr {
    key: "validate_shape"
    value {
      b: true
    }
  }
}
node {
  name: "save/Assign_85"
  op: "Assign"
  input: "model/att_seq2seq/encode/source_embedding/W"
  input: "save/RestoreV2:85"
  attr {
    key: "T"
    value {
      type: DT_FLOAT
    }
  }
  attr {
    key: "_class"
    value {
      list {
        s: "loc:@model/att_seq2seq/encode/source_embedding/W"
      }
    }
  }
  attr {
    key: "_output_shapes"
    value {
      list {
        shape {
          dim {
            size: 3577
          }
          dim {
            size: 512
          }
        }
      }
    }
  }
  attr {
    key: "use_locking"
    value {
      b: true
    }
  }
  attr {
    key: "validate_shape"
    value {
      b: true
    }
  }
}
node {
  name: "save/restore_shard"
  op: "NoOp"
  input: "^save/Assign"
  input: "^save/Assign_1"
  input: "^save/Assign_10"
  input: "^save/Assign_11"
  input: "^save/Assign_12"
  input: "^save/Assign_13"
  input: "^save/Assign_14"
  input: "^save/Assign_15"
  input: "^save/Assign_16"
  input: "^save/Assign_17"
  input: "^save/Assign_18"
  input: "^save/Assign_19"
  input: "^save/Assign_2"
  input: "^save/Assign_20"
  input: "^save/Assign_21"
  input: "^save/Assign_22"
  input: "^save/Assign_23"
  input: "^save/Assign_24"
  input: "^save/Assign_25"
  input: "^save/Assign_26"
  input: "^save/Assign_27"
  input: "^save/Assign_28"
  input: "^save/Assign_29"
  input: "^save/Assign_3"
  input: "^save/Assign_30"
  input: "^save/Assign_31"
  input: "^save/Assign_32"
  input: "^save/Assign_33"
  input: "^save/Assign_34"
  input: "^save/Assign_35"
  input: "^save/Assign_36"
  input: "^save/Assign_37"
  input: "^save/Assign_38"
  input: "^save/Assign_39"
  input: "^save/Assign_4"
  input: "^save/Assign_40"
  input: "^save/Assign_41"
  input: "^save/Assign_42"
  input: "^save/Assign_43"
  input: "^save/Assign_44"
  input: "^save/Assign_45"
  input: "^save/Assign_46"
  input: "^save/Assign_47"
  input: "^save/Assign_48"
  input: "^save/Assign_49"
  input: "^save/Assign_5"
  input: "^save/Assign_50"
  input: "^save/Assign_51"
  input: "^save/Assign_52"
  input: "^save/Assign_53"
  input: "^save/Assign_54"
  input: "^save/Assign_55"
  input: "^save/Assign_56"
  input: "^save/Assign_57"
  input: "^save/Assign_58"
  input: "^save/Assign_59"
  input: "^save/Assign_6"
  input: "^save/Assign_60"
  input: "^save/Assign_61"
  input: "^save/Assign_62"
  input: "^save/Assign_63"
  input: "^save/Assign_64"
  input: "^save/Assign_65"
  input: "^save/Assign_66"
  input: "^save/Assign_67"
  input: "^save/Assign_68"
  input: "^save/Assign_69"
  input: "^save/Assign_7"
  input: "^save/Assign_70"
  input: "^save/Assign_71"
  input: "^save/Assign_72"
  input: "^save/Assign_73"
  input: "^save/Assign_74"
  input: "^save/Assign_75"
  input: "^save/Assign_76"
  input: "^save/Assign_77"
  input: "^save/Assign_78"
  input: "^save/Assign_79"
  input: "^save/Assign_8"
  input: "^save/Assign_80"
  input: "^save/Assign_81"
  input: "^save/Assign_82"
  input: "^save/Assign_83"
  input: "^save/Assign_84"
  input: "^save/Assign_85"
  input: "^save/Assign_9"
}
node {
  name: "save/restore_all"
  op: "NoOp"
  input: "^save/restore_shard"
}
library {
  function {
    signature {
      name: "att_sum_bahdanau"
      input_arg {
        name: "v_att"
        type: DT_FLOAT
      }
      input_arg {
        name: "keys"
        type: DT_FLOAT
      }
      input_arg {
        name: "query"
        type: DT_FLOAT
      }
      output_arg {
        name: "sum"
        type: DT_FLOAT
      }
      description: "Calculates a batch- and timweise dot product with a variable"
    }
    node_def {
      name: "ExpandDims/dim"
      op: "Const"
      attr {
        key: "dtype"
        value {
          type: DT_INT32
        }
      }
      attr {
        key: "value"
        value {
          tensor {
            dtype: DT_INT32
            tensor_shape {
            }
            int_val: 1
          }
        }
      }
    }
    node_def {
      name: "ExpandDims"
      op: "ExpandDims"
      input: "query"
      input: "ExpandDims/dim:output:0"
      attr {
        key: "T"
        value {
          type: DT_FLOAT
        }
      }
      attr {
        key: "Tdim"
        value {
          type: DT_INT32
        }
      }
    }
    node_def {
      name: "add"
      op: "Add"
      input: "keys"
      input: "ExpandDims:output:0"
      attr {
        key: "T"
        value {
          type: DT_FLOAT
        }
      }
    }
    node_def {
      name: "Tanh"
      op: "Tanh"
      input: "add:z:0"
      attr {
        key: "T"
        value {
          type: DT_FLOAT
        }
      }
    }
    node_def {
      name: "mul"
      op: "Mul"
      input: "v_att"
      input: "Tanh:y:0"
      attr {
        key: "T"
        value {
          type: DT_FLOAT
        }
      }
    }
    node_def {
      name: "Sum/reduction_indices"
      op: "Const"
      attr {
        key: "dtype"
        value {
          type: DT_INT32
        }
      }
      attr {
        key: "value"
        value {
          tensor {
            dtype: DT_INT32
            tensor_shape {
              dim {
                size: 1
              }
            }
            int_val: 2
          }
        }
      }
    }
    node_def {
      name: "Sum"
      op: "Sum"
      input: "mul:z:0"
      input: "Sum/reduction_indices:output:0"
      attr {
        key: "T"
        value {
          type: DT_FLOAT
        }
      }
      attr {
        key: "Tidx"
        value {
          type: DT_INT32
        }
      }
      attr {
        key: "keep_dims"
        value {
          b: false
        }
      }
    }
    ret {
      key: "sum"
      value: "Sum:output:0"
    }
    attr {
      key: "_noinline"
      value {
        b: true
      }
    }
  }
}
versions {
  producer: 26
  min_consumer: 12
}
