node {
  name: "global_step/Initializer/zeros"
  op: "Const"
  attr {
    key: "_class"
    value {
      list {
        s: "loc:@global_step"
      }
    }
  }
  attr {
    key: "_output_shapes"
    value {
      list {
        shape {
        }
      }
    }
  }
  attr {
    key: "dtype"
    value {
      type: DT_INT64
    }
  }
  attr {
    key: "value"
    value {
      tensor {
        dtype: DT_INT64
        tensor_shape {
        }
        int64_val: 0
      }
    }
  }
}
node {
  name: "global_step"
  op: "VariableV2"
  attr {
    key: "_class"
    value {
      list {
        s: "loc:@global_step"
      }
    }
  }
  attr {
    key: "_output_shapes"
    value {
      list {
        shape {
        }
      }
    }
  }
  attr {
    key: "container"
    value {
      s: ""
    }
  }
  attr {
    key: "dtype"
    value {
      type: DT_INT64
    }
  }
  attr {
    key: "shape"
    value {
      shape {
      }
    }
  }
  attr {
    key: "shared_name"
    value {
      s: ""
    }
  }
}
node {
  name: "global_step/Assign"
  op: "Assign"
  input: "global_step"
  input: "global_step/Initializer/zeros"
  attr {
    key: "T"
    value {
      type: DT_INT64
    }
  }
  attr {
    key: "_class"
    value {
      list {
        s: "loc:@global_step"
      }
    }
  }
  attr {
    key: "_output_shapes"
    value {
      list {
        shape {
        }
      }
    }
  }
  attr {
    key: "use_locking"
    value {
      b: true
    }
  }
  attr {
    key: "validate_shape"
    value {
      b: true
    }
  }
}
node {
  name: "global_step/read"
  op: "Identity"
  input: "global_step"
  attr {
    key: "T"
    value {
      type: DT_INT64
    }
  }
  attr {
    key: "_class"
    value {
      list {
        s: "loc:@global_step"
      }
    }
  }
  attr {
    key: "_output_shapes"
    value {
      list {
        shape {
        }
      }
    }
  }
}
node {
  name: "train_input_fn/parallel_read/filenames/Const"
  op: "Const"
  attr {
    key: "_output_shapes"
    value {
      list {
        shape {
          dim {
            size: 1
          }
        }
      }
    }
  }
  attr {
    key: "dtype"
    value {
      type: DT_STRING
    }
  }
  attr {
    key: "value"
    value {
      tensor {
        dtype: DT_STRING
        tensor_shape {
          dim {
            size: 1
          }
        }
        string_val: "../pa-smp-java-50-00/train/lhs.txt"
      }
    }
  }
}
node {
  name: "train_input_fn/parallel_read/filenames/Size"
  op: "Const"
  attr {
    key: "_output_shapes"
    value {
      list {
        shape {
        }
      }
    }
  }
  attr {
    key: "dtype"
    value {
      type: DT_INT32
    }
  }
  attr {
    key: "value"
    value {
      tensor {
        dtype: DT_INT32
        tensor_shape {
        }
        int_val: 1
      }
    }
  }
}
node {
  name: "train_input_fn/parallel_read/filenames/Greater/y"
  op: "Const"
  attr {
    key: "_output_shapes"
    value {
      list {
        shape {
        }
      }
    }
  }
  attr {
    key: "dtype"
    value {
      type: DT_INT32
    }
  }
  attr {
    key: "value"
    value {
      tensor {
        dtype: DT_INT32
        tensor_shape {
        }
        int_val: 0
      }
    }
  }
}
node {
  name: "train_input_fn/parallel_read/filenames/Greater"
  op: "Greater"
  input: "train_input_fn/parallel_read/filenames/Size"
  input: "train_input_fn/parallel_read/filenames/Greater/y"
  attr {
    key: "T"
    value {
      type: DT_INT32
    }
  }
  attr {
    key: "_output_shapes"
    value {
      list {
        shape {
        }
      }
    }
  }
}
node {
  name: "train_input_fn/parallel_read/filenames/Assert/Const"
  op: "Const"
  attr {
    key: "_output_shapes"
    value {
      list {
        shape {
        }
      }
    }
  }
  attr {
    key: "dtype"
    value {
      type: DT_STRING
    }
  }
  attr {
    key: "value"
    value {
      tensor {
        dtype: DT_STRING
        tensor_shape {
        }
        string_val: "string_input_producer requires a non-null input tensor"
      }
    }
  }
}
node {
  name: "train_input_fn/parallel_read/filenames/Assert/Assert/data_0"
  op: "Const"
  attr {
    key: "_output_shapes"
    value {
      list {
        shape {
        }
      }
    }
  }
  attr {
    key: "dtype"
    value {
      type: DT_STRING
    }
  }
  attr {
    key: "value"
    value {
      tensor {
        dtype: DT_STRING
        tensor_shape {
        }
        string_val: "string_input_producer requires a non-null input tensor"
      }
    }
  }
}
node {
  name: "train_input_fn/parallel_read/filenames/Assert/Assert"
  op: "Assert"
  input: "train_input_fn/parallel_read/filenames/Greater"
  input: "train_input_fn/parallel_read/filenames/Assert/Assert/data_0"
  attr {
    key: "T"
    value {
      list {
        type: DT_STRING
      }
    }
  }
  attr {
    key: "summarize"
    value {
      i: 3
    }
  }
}
node {
  name: "train_input_fn/parallel_read/filenames/Identity"
  op: "Identity"
  input: "train_input_fn/parallel_read/filenames/Const"
  input: "^train_input_fn/parallel_read/filenames/Assert/Assert"
  attr {
    key: "T"
    value {
      type: DT_STRING
    }
  }
  attr {
    key: "_output_shapes"
    value {
      list {
        shape {
          dim {
            size: 1
          }
        }
      }
    }
  }
}
node {
  name: "train_input_fn/parallel_read/filenames"
  op: "FIFOQueueV2"
  attr {
    key: "_output_shapes"
    value {
      list {
        shape {
        }
      }
    }
  }
  attr {
    key: "capacity"
    value {
      i: 32
    }
  }
  attr {
    key: "component_types"
    value {
      list {
        type: DT_STRING
      }
    }
  }
  attr {
    key: "container"
    value {
      s: ""
    }
  }
  attr {
    key: "shapes"
    value {
      list {
        shape {
        }
      }
    }
  }
  attr {
    key: "shared_name"
    value {
      s: ""
    }
  }
}
node {
  name: "train_input_fn/parallel_read/filenames/filenames_EnqueueMany"
  op: "QueueEnqueueManyV2"
  input: "train_input_fn/parallel_read/filenames"
  input: "train_input_fn/parallel_read/filenames/Identity"
  attr {
    key: "Tcomponents"
    value {
      list {
        type: DT_STRING
      }
    }
  }
  attr {
    key: "timeout_ms"
    value {
      i: -1
    }
  }
}
node {
  name: "train_input_fn/parallel_read/filenames/filenames_Close"
  op: "QueueCloseV2"
  input: "train_input_fn/parallel_read/filenames"
  attr {
    key: "cancel_pending_enqueues"
    value {
      b: false
    }
  }
}
node {
  name: "train_input_fn/parallel_read/filenames/filenames_Close_1"
  op: "QueueCloseV2"
  input: "train_input_fn/parallel_read/filenames"
  attr {
    key: "cancel_pending_enqueues"
    value {
      b: true
    }
  }
}
node {
  name: "train_input_fn/parallel_read/filenames/filenames_Size"
  op: "QueueSizeV2"
  input: "train_input_fn/parallel_read/filenames"
  attr {
    key: "_output_shapes"
    value {
      list {
        shape {
        }
      }
    }
  }
}
node {
  name: "train_input_fn/parallel_read/filenames/ToFloat"
  op: "Cast"
  input: "train_input_fn/parallel_read/filenames/filenames_Size"
  attr {
    key: "DstT"
    value {
      type: DT_FLOAT
    }
  }
  attr {
    key: "SrcT"
    value {
      type: DT_INT32
    }
  }
  attr {
    key: "_output_shapes"
    value {
      list {
        shape {
        }
      }
    }
  }
}
node {
  name: "train_input_fn/parallel_read/filenames/mul/y"
  op: "Const"
  attr {
    key: "_output_shapes"
    value {
      list {
        shape {
        }
      }
    }
  }
  attr {
    key: "dtype"
    value {
      type: DT_FLOAT
    }
  }
  attr {
    key: "value"
    value {
      tensor {
        dtype: DT_FLOAT
        tensor_shape {
        }
        float_val: 0.03125
      }
    }
  }
}
node {
  name: "train_input_fn/parallel_read/filenames/mul"
  op: "Mul"
  input: "train_input_fn/parallel_read/filenames/ToFloat"
  input: "train_input_fn/parallel_read/filenames/mul/y"
  attr {
    key: "T"
    value {
      type: DT_FLOAT
    }
  }
  attr {
    key: "_output_shapes"
    value {
      list {
        shape {
        }
      }
    }
  }
}
node {
  name: "train_input_fn/parallel_read/filenames/fraction_of_32_full/tags"
  op: "Const"
  attr {
    key: "_output_shapes"
    value {
      list {
        shape {
        }
      }
    }
  }
  attr {
    key: "dtype"
    value {
      type: DT_STRING
    }
  }
  attr {
    key: "value"
    value {
      tensor {
        dtype: DT_STRING
        tensor_shape {
        }
        string_val: "train_input_fn/parallel_read/filenames/fraction_of_32_full"
      }
    }
  }
}
node {
  name: "train_input_fn/parallel_read/filenames/fraction_of_32_full"
  op: "ScalarSummary"
  input: "train_input_fn/parallel_read/filenames/fraction_of_32_full/tags"
  input: "train_input_fn/parallel_read/filenames/mul"
  attr {
    key: "T"
    value {
      type: DT_FLOAT
    }
  }
  attr {
    key: "_output_shapes"
    value {
      list {
        shape {
        }
      }
    }
  }
}
node {
  name: "train_input_fn/parallel_read/common_queue"
  op: "FIFOQueueV2"
  attr {
    key: "_output_shapes"
    value {
      list {
        shape {
        }
      }
    }
  }
  attr {
    key: "capacity"
    value {
      i: 4096
    }
  }
  attr {
    key: "component_types"
    value {
      list {
        type: DT_STRING
        type: DT_STRING
      }
    }
  }
  attr {
    key: "container"
    value {
      s: ""
    }
  }
  attr {
    key: "shapes"
    value {
      list {
      }
    }
  }
  attr {
    key: "shared_name"
    value {
      s: ""
    }
  }
}
node {
  name: "train_input_fn/parallel_read/common_queue_Size"
  op: "QueueSizeV2"
  input: "train_input_fn/parallel_read/common_queue"
  attr {
    key: "_output_shapes"
    value {
      list {
        shape {
        }
      }
    }
  }
}
node {
  name: "train_input_fn/parallel_read/ToFloat"
  op: "Cast"
  input: "train_input_fn/parallel_read/common_queue_Size"
  attr {
    key: "DstT"
    value {
      type: DT_FLOAT
    }
  }
  attr {
    key: "SrcT"
    value {
      type: DT_INT32
    }
  }
  attr {
    key: "_output_shapes"
    value {
      list {
        shape {
        }
      }
    }
  }
}
node {
  name: "train_input_fn/parallel_read/mul/y"
  op: "Const"
  attr {
    key: "_output_shapes"
    value {
      list {
        shape {
        }
      }
    }
  }
  attr {
    key: "dtype"
    value {
      type: DT_FLOAT
    }
  }
  attr {
    key: "value"
    value {
      tensor {
        dtype: DT_FLOAT
        tensor_shape {
        }
        float_val: 0.000244140625
      }
    }
  }
}
node {
  name: "train_input_fn/parallel_read/mul"
  op: "Mul"
  input: "train_input_fn/parallel_read/ToFloat"
  input: "train_input_fn/parallel_read/mul/y"
  attr {
    key: "T"
    value {
      type: DT_FLOAT
    }
  }
  attr {
    key: "_output_shapes"
    value {
      list {
        shape {
        }
      }
    }
  }
}
node {
  name: "train_input_fn/parallel_read/fraction_of_4096_full/tags"
  op: "Const"
  attr {
    key: "_output_shapes"
    value {
      list {
        shape {
        }
      }
    }
  }
  attr {
    key: "dtype"
    value {
      type: DT_STRING
    }
  }
  attr {
    key: "value"
    value {
      tensor {
        dtype: DT_STRING
        tensor_shape {
        }
        string_val: "train_input_fn/parallel_read/fraction_of_4096_full"
      }
    }
  }
}
node {
  name: "train_input_fn/parallel_read/fraction_of_4096_full"
  op: "ScalarSummary"
  input: "train_input_fn/parallel_read/fraction_of_4096_full/tags"
  input: "train_input_fn/parallel_read/mul"
  attr {
    key: "T"
    value {
      type: DT_FLOAT
    }
  }
  attr {
    key: "_output_shapes"
    value {
      list {
        shape {
        }
      }
    }
  }
}
node {
  name: "train_input_fn/parallel_read/TextLineReaderV2"
  op: "TextLineReaderV2"
  attr {
    key: "_output_shapes"
    value {
      list {
        shape {
        }
      }
    }
  }
  attr {
    key: "container"
    value {
      s: ""
    }
  }
  attr {
    key: "shared_name"
    value {
      s: ""
    }
  }
  attr {
    key: "skip_header_lines"
    value {
      i: 0
    }
  }
}
node {
  name: "train_input_fn/parallel_read/ReaderReadV2"
  op: "ReaderReadV2"
  input: "train_input_fn/parallel_read/TextLineReaderV2"
  input: "train_input_fn/parallel_read/filenames"
  attr {
    key: "_output_shapes"
    value {
      list {
        shape {
        }
        shape {
        }
      }
    }
  }
}
node {
  name: "train_input_fn/parallel_read/common_queue_enqueue"
  op: "QueueEnqueueV2"
  input: "train_input_fn/parallel_read/common_queue"
  input: "train_input_fn/parallel_read/ReaderReadV2"
  input: "train_input_fn/parallel_read/ReaderReadV2:1"
  attr {
    key: "Tcomponents"
    value {
      list {
        type: DT_STRING
        type: DT_STRING
      }
    }
  }
  attr {
    key: "timeout_ms"
    value {
      i: -1
    }
  }
}
node {
  name: "train_input_fn/parallel_read/common_queue_Close"
  op: "QueueCloseV2"
  input: "train_input_fn/parallel_read/common_queue"
  attr {
    key: "cancel_pending_enqueues"
    value {
      b: false
    }
  }
}
node {
  name: "train_input_fn/parallel_read/common_queue_Close_1"
  op: "QueueCloseV2"
  input: "train_input_fn/parallel_read/common_queue"
  attr {
    key: "cancel_pending_enqueues"
    value {
      b: true
    }
  }
}
node {
  name: "train_input_fn/parallel_read/common_queue_Dequeue"
  op: "QueueDequeueV2"
  input: "train_input_fn/parallel_read/common_queue"
  attr {
    key: "_output_shapes"
    value {
      list {
        shape {
          unknown_rank: true
        }
        shape {
          unknown_rank: true
        }
      }
    }
  }
  attr {
    key: "component_types"
    value {
      list {
        type: DT_STRING
        type: DT_STRING
      }
    }
  }
  attr {
    key: "timeout_ms"
    value {
      i: -1
    }
  }
}
node {
  name: "train_input_fn/parallel_read_1/filenames/Const"
  op: "Const"
  attr {
    key: "_output_shapes"
    value {
      list {
        shape {
          dim {
            size: 1
          }
        }
      }
    }
  }
  attr {
    key: "dtype"
    value {
      type: DT_STRING
    }
  }
  attr {
    key: "value"
    value {
      tensor {
        dtype: DT_STRING
        tensor_shape {
          dim {
            size: 1
          }
        }
        string_val: "../pa-smp-java-50-00/train/rhs.txt"
      }
    }
  }
}
node {
  name: "train_input_fn/parallel_read_1/filenames/Size"
  op: "Const"
  attr {
    key: "_output_shapes"
    value {
      list {
        shape {
        }
      }
    }
  }
  attr {
    key: "dtype"
    value {
      type: DT_INT32
    }
  }
  attr {
    key: "value"
    value {
      tensor {
        dtype: DT_INT32
        tensor_shape {
        }
        int_val: 1
      }
    }
  }
}
node {
  name: "train_input_fn/parallel_read_1/filenames/Greater/y"
  op: "Const"
  attr {
    key: "_output_shapes"
    value {
      list {
        shape {
        }
      }
    }
  }
  attr {
    key: "dtype"
    value {
      type: DT_INT32
    }
  }
  attr {
    key: "value"
    value {
      tensor {
        dtype: DT_INT32
        tensor_shape {
        }
        int_val: 0
      }
    }
  }
}
node {
  name: "train_input_fn/parallel_read_1/filenames/Greater"
  op: "Greater"
  input: "train_input_fn/parallel_read_1/filenames/Size"
  input: "train_input_fn/parallel_read_1/filenames/Greater/y"
  attr {
    key: "T"
    value {
      type: DT_INT32
    }
  }
  attr {
    key: "_output_shapes"
    value {
      list {
        shape {
        }
      }
    }
  }
}
node {
  name: "train_input_fn/parallel_read_1/filenames/Assert/Const"
  op: "Const"
  attr {
    key: "_output_shapes"
    value {
      list {
        shape {
        }
      }
    }
  }
  attr {
    key: "dtype"
    value {
      type: DT_STRING
    }
  }
  attr {
    key: "value"
    value {
      tensor {
        dtype: DT_STRING
        tensor_shape {
        }
        string_val: "string_input_producer requires a non-null input tensor"
      }
    }
  }
}
node {
  name: "train_input_fn/parallel_read_1/filenames/Assert/Assert/data_0"
  op: "Const"
  attr {
    key: "_output_shapes"
    value {
      list {
        shape {
        }
      }
    }
  }
  attr {
    key: "dtype"
    value {
      type: DT_STRING
    }
  }
  attr {
    key: "value"
    value {
      tensor {
        dtype: DT_STRING
        tensor_shape {
        }
        string_val: "string_input_producer requires a non-null input tensor"
      }
    }
  }
}
node {
  name: "train_input_fn/parallel_read_1/filenames/Assert/Assert"
  op: "Assert"
  input: "train_input_fn/parallel_read_1/filenames/Greater"
  input: "train_input_fn/parallel_read_1/filenames/Assert/Assert/data_0"
  attr {
    key: "T"
    value {
      list {
        type: DT_STRING
      }
    }
  }
  attr {
    key: "summarize"
    value {
      i: 3
    }
  }
}
node {
  name: "train_input_fn/parallel_read_1/filenames/Identity"
  op: "Identity"
  input: "train_input_fn/parallel_read_1/filenames/Const"
  input: "^train_input_fn/parallel_read_1/filenames/Assert/Assert"
  attr {
    key: "T"
    value {
      type: DT_STRING
    }
  }
  attr {
    key: "_output_shapes"
    value {
      list {
        shape {
          dim {
            size: 1
          }
        }
      }
    }
  }
}
node {
  name: "train_input_fn/parallel_read_1/filenames"
  op: "FIFOQueueV2"
  attr {
    key: "_output_shapes"
    value {
      list {
        shape {
        }
      }
    }
  }
  attr {
    key: "capacity"
    value {
      i: 32
    }
  }
  attr {
    key: "component_types"
    value {
      list {
        type: DT_STRING
      }
    }
  }
  attr {
    key: "container"
    value {
      s: ""
    }
  }
  attr {
    key: "shapes"
    value {
      list {
        shape {
        }
      }
    }
  }
  attr {
    key: "shared_name"
    value {
      s: ""
    }
  }
}
node {
  name: "train_input_fn/parallel_read_1/filenames/filenames_EnqueueMany"
  op: "QueueEnqueueManyV2"
  input: "train_input_fn/parallel_read_1/filenames"
  input: "train_input_fn/parallel_read_1/filenames/Identity"
  attr {
    key: "Tcomponents"
    value {
      list {
        type: DT_STRING
      }
    }
  }
  attr {
    key: "timeout_ms"
    value {
      i: -1
    }
  }
}
node {
  name: "train_input_fn/parallel_read_1/filenames/filenames_Close"
  op: "QueueCloseV2"
  input: "train_input_fn/parallel_read_1/filenames"
  attr {
    key: "cancel_pending_enqueues"
    value {
      b: false
    }
  }
}
node {
  name: "train_input_fn/parallel_read_1/filenames/filenames_Close_1"
  op: "QueueCloseV2"
  input: "train_input_fn/parallel_read_1/filenames"
  attr {
    key: "cancel_pending_enqueues"
    value {
      b: true
    }
  }
}
node {
  name: "train_input_fn/parallel_read_1/filenames/filenames_Size"
  op: "QueueSizeV2"
  input: "train_input_fn/parallel_read_1/filenames"
  attr {
    key: "_output_shapes"
    value {
      list {
        shape {
        }
      }
    }
  }
}
node {
  name: "train_input_fn/parallel_read_1/filenames/ToFloat"
  op: "Cast"
  input: "train_input_fn/parallel_read_1/filenames/filenames_Size"
  attr {
    key: "DstT"
    value {
      type: DT_FLOAT
    }
  }
  attr {
    key: "SrcT"
    value {
      type: DT_INT32
    }
  }
  attr {
    key: "_output_shapes"
    value {
      list {
        shape {
        }
      }
    }
  }
}
node {
  name: "train_input_fn/parallel_read_1/filenames/mul/y"
  op: "Const"
  attr {
    key: "_output_shapes"
    value {
      list {
        shape {
        }
      }
    }
  }
  attr {
    key: "dtype"
    value {
      type: DT_FLOAT
    }
  }
  attr {
    key: "value"
    value {
      tensor {
        dtype: DT_FLOAT
        tensor_shape {
        }
        float_val: 0.03125
      }
    }
  }
}
node {
  name: "train_input_fn/parallel_read_1/filenames/mul"
  op: "Mul"
  input: "train_input_fn/parallel_read_1/filenames/ToFloat"
  input: "train_input_fn/parallel_read_1/filenames/mul/y"
  attr {
    key: "T"
    value {
      type: DT_FLOAT
    }
  }
  attr {
    key: "_output_shapes"
    value {
      list {
        shape {
        }
      }
    }
  }
}
node {
  name: "train_input_fn/parallel_read_1/filenames/fraction_of_32_full/tags"
  op: "Const"
  attr {
    key: "_output_shapes"
    value {
      list {
        shape {
        }
      }
    }
  }
  attr {
    key: "dtype"
    value {
      type: DT_STRING
    }
  }
  attr {
    key: "value"
    value {
      tensor {
        dtype: DT_STRING
        tensor_shape {
        }
        string_val: "train_input_fn/parallel_read_1/filenames/fraction_of_32_full"
      }
    }
  }
}
node {
  name: "train_input_fn/parallel_read_1/filenames/fraction_of_32_full"
  op: "ScalarSummary"
  input: "train_input_fn/parallel_read_1/filenames/fraction_of_32_full/tags"
  input: "train_input_fn/parallel_read_1/filenames/mul"
  attr {
    key: "T"
    value {
      type: DT_FLOAT
    }
  }
  attr {
    key: "_output_shapes"
    value {
      list {
        shape {
        }
      }
    }
  }
}
node {
  name: "train_input_fn/parallel_read_1/common_queue"
  op: "FIFOQueueV2"
  attr {
    key: "_output_shapes"
    value {
      list {
        shape {
        }
      }
    }
  }
  attr {
    key: "capacity"
    value {
      i: 4096
    }
  }
  attr {
    key: "component_types"
    value {
      list {
        type: DT_STRING
        type: DT_STRING
      }
    }
  }
  attr {
    key: "container"
    value {
      s: ""
    }
  }
  attr {
    key: "shapes"
    value {
      list {
      }
    }
  }
  attr {
    key: "shared_name"
    value {
      s: ""
    }
  }
}
node {
  name: "train_input_fn/parallel_read_1/common_queue_Size"
  op: "QueueSizeV2"
  input: "train_input_fn/parallel_read_1/common_queue"
  attr {
    key: "_output_shapes"
    value {
      list {
        shape {
        }
      }
    }
  }
}
node {
  name: "train_input_fn/parallel_read_1/ToFloat"
  op: "Cast"
  input: "train_input_fn/parallel_read_1/common_queue_Size"
  attr {
    key: "DstT"
    value {
      type: DT_FLOAT
    }
  }
  attr {
    key: "SrcT"
    value {
      type: DT_INT32
    }
  }
  attr {
    key: "_output_shapes"
    value {
      list {
        shape {
        }
      }
    }
  }
}
node {
  name: "train_input_fn/parallel_read_1/mul/y"
  op: "Const"
  attr {
    key: "_output_shapes"
    value {
      list {
        shape {
        }
      }
    }
  }
  attr {
    key: "dtype"
    value {
      type: DT_FLOAT
    }
  }
  attr {
    key: "value"
    value {
      tensor {
        dtype: DT_FLOAT
        tensor_shape {
        }
        float_val: 0.000244140625
      }
    }
  }
}
node {
  name: "train_input_fn/parallel_read_1/mul"
  op: "Mul"
  input: "train_input_fn/parallel_read_1/ToFloat"
  input: "train_input_fn/parallel_read_1/mul/y"
  attr {
    key: "T"
    value {
      type: DT_FLOAT
    }
  }
  attr {
    key: "_output_shapes"
    value {
      list {
        shape {
        }
      }
    }
  }
}
node {
  name: "train_input_fn/parallel_read_1/fraction_of_4096_full/tags"
  op: "Const"
  attr {
    key: "_output_shapes"
    value {
      list {
        shape {
        }
      }
    }
  }
  attr {
    key: "dtype"
    value {
      type: DT_STRING
    }
  }
  attr {
    key: "value"
    value {
      tensor {
        dtype: DT_STRING
        tensor_shape {
        }
        string_val: "train_input_fn/parallel_read_1/fraction_of_4096_full"
      }
    }
  }
}
node {
  name: "train_input_fn/parallel_read_1/fraction_of_4096_full"
  op: "ScalarSummary"
  input: "train_input_fn/parallel_read_1/fraction_of_4096_full/tags"
  input: "train_input_fn/parallel_read_1/mul"
  attr {
    key: "T"
    value {
      type: DT_FLOAT
    }
  }
  attr {
    key: "_output_shapes"
    value {
      list {
        shape {
        }
      }
    }
  }
}
node {
  name: "train_input_fn/parallel_read_1/TextLineReaderV2"
  op: "TextLineReaderV2"
  attr {
    key: "_output_shapes"
    value {
      list {
        shape {
        }
      }
    }
  }
  attr {
    key: "container"
    value {
      s: ""
    }
  }
  attr {
    key: "shared_name"
    value {
      s: ""
    }
  }
  attr {
    key: "skip_header_lines"
    value {
      i: 0
    }
  }
}
node {
  name: "train_input_fn/parallel_read_1/ReaderReadV2"
  op: "ReaderReadV2"
  input: "train_input_fn/parallel_read_1/TextLineReaderV2"
  input: "train_input_fn/parallel_read_1/filenames"
  attr {
    key: "_output_shapes"
    value {
      list {
        shape {
        }
        shape {
        }
      }
    }
  }
}
node {
  name: "train_input_fn/parallel_read_1/common_queue_enqueue"
  op: "QueueEnqueueV2"
  input: "train_input_fn/parallel_read_1/common_queue"
  input: "train_input_fn/parallel_read_1/ReaderReadV2"
  input: "train_input_fn/parallel_read_1/ReaderReadV2:1"
  attr {
    key: "Tcomponents"
    value {
      list {
        type: DT_STRING
        type: DT_STRING
      }
    }
  }
  attr {
    key: "timeout_ms"
    value {
      i: -1
    }
  }
}
node {
  name: "train_input_fn/parallel_read_1/common_queue_Close"
  op: "QueueCloseV2"
  input: "train_input_fn/parallel_read_1/common_queue"
  attr {
    key: "cancel_pending_enqueues"
    value {
      b: false
    }
  }
}
node {
  name: "train_input_fn/parallel_read_1/common_queue_Close_1"
  op: "QueueCloseV2"
  input: "train_input_fn/parallel_read_1/common_queue"
  attr {
    key: "cancel_pending_enqueues"
    value {
      b: true
    }
  }
}
node {
  name: "train_input_fn/parallel_read_1/common_queue_Dequeue"
  op: "QueueDequeueV2"
  input: "train_input_fn/parallel_read_1/common_queue"
  attr {
    key: "_output_shapes"
    value {
      list {
        shape {
          unknown_rank: true
        }
        shape {
          unknown_rank: true
        }
      }
    }
  }
  attr {
    key: "component_types"
    value {
      list {
        type: DT_STRING
        type: DT_STRING
      }
    }
  }
  attr {
    key: "timeout_ms"
    value {
      i: -1
    }
  }
}
node {
  name: "train_input_fn/random_shuffle_queue"
  op: "RandomShuffleQueueV2"
  attr {
    key: "_output_shapes"
    value {
      list {
        shape {
        }
      }
    }
  }
  attr {
    key: "capacity"
    value {
      i: 4096
    }
  }
  attr {
    key: "component_types"
    value {
      list {
        type: DT_STRING
        type: DT_STRING
      }
    }
  }
  attr {
    key: "container"
    value {
      s: ""
    }
  }
  attr {
    key: "min_after_dequeue"
    value {
      i: 1024
    }
  }
  attr {
    key: "seed"
    value {
      i: 87654321
    }
  }
  attr {
    key: "seed2"
    value {
      i: 188800252
    }
  }
  attr {
    key: "shapes"
    value {
      list {
      }
    }
  }
  attr {
    key: "shared_name"
    value {
      s: ""
    }
  }
}
node {
  name: "train_input_fn/random_shuffle_queue_enqueue"
  op: "QueueEnqueueV2"
  input: "train_input_fn/random_shuffle_queue"
  input: "train_input_fn/parallel_read/common_queue_Dequeue:1"
  input: "train_input_fn/parallel_read_1/common_queue_Dequeue:1"
  attr {
    key: "Tcomponents"
    value {
      list {
        type: DT_STRING
        type: DT_STRING
      }
    }
  }
  attr {
    key: "timeout_ms"
    value {
      i: -1
    }
  }
}
node {
  name: "train_input_fn/random_shuffle_queue_Close"
  op: "QueueCloseV2"
  input: "train_input_fn/random_shuffle_queue"
  attr {
    key: "cancel_pending_enqueues"
    value {
      b: false
    }
  }
}
node {
  name: "train_input_fn/random_shuffle_queue_Close_1"
  op: "QueueCloseV2"
  input: "train_input_fn/random_shuffle_queue"
  attr {
    key: "cancel_pending_enqueues"
    value {
      b: true
    }
  }
}
node {
  name: "train_input_fn/random_shuffle_queue_Dequeue"
  op: "QueueDequeueV2"
  input: "train_input_fn/random_shuffle_queue"
  attr {
    key: "_output_shapes"
    value {
      list {
        shape {
          unknown_rank: true
        }
        shape {
          unknown_rank: true
        }
      }
    }
  }
  attr {
    key: "component_types"
    value {
      list {
        type: DT_STRING
        type: DT_STRING
      }
    }
  }
  attr {
    key: "timeout_ms"
    value {
      i: -1
    }
  }
}
node {
  name: "train_input_fn/Const"
  op: "Const"
  attr {
    key: "_output_shapes"
    value {
      list {
        shape {
        }
      }
    }
  }
  attr {
    key: "dtype"
    value {
      type: DT_STRING
    }
  }
  attr {
    key: "value"
    value {
      tensor {
        dtype: DT_STRING
        tensor_shape {
        }
        string_val: " "
      }
    }
  }
}
node {
  name: "train_input_fn/packed"
  op: "Pack"
  input: "train_input_fn/random_shuffle_queue_Dequeue"
  attr {
    key: "N"
    value {
      i: 1
    }
  }
  attr {
    key: "T"
    value {
      type: DT_STRING
    }
  }
  attr {
    key: "_output_shapes"
    value {
      list {
        shape {
          unknown_rank: true
        }
      }
    }
  }
  attr {
    key: "axis"
    value {
      i: 0
    }
  }
}
node {
  name: "train_input_fn/StringSplit"
  op: "StringSplit"
  input: "train_input_fn/packed"
  input: "train_input_fn/Const"
  attr {
    key: "_output_shapes"
    value {
      list {
        shape {
          dim {
            size: -1
          }
          dim {
            size: 2
          }
        }
        shape {
          dim {
            size: -1
          }
        }
        shape {
          dim {
            size: 2
          }
        }
      }
    }
  }
  attr {
    key: "skip_empty"
    value {
      b: true
    }
  }
}
node {
  name: "train_input_fn/concat/values_1"
  op: "Const"
  attr {
    key: "_output_shapes"
    value {
      list {
        shape {
          dim {
            size: 1
          }
        }
      }
    }
  }
  attr {
    key: "dtype"
    value {
      type: DT_STRING
    }
  }
  attr {
    key: "value"
    value {
      tensor {
        dtype: DT_STRING
        tensor_shape {
          dim {
            size: 1
          }
        }
        string_val: "SEQUENCE_END"
      }
    }
  }
}
node {
  name: "train_input_fn/concat/axis"
  op: "Const"
  attr {
    key: "_output_shapes"
    value {
      list {
        shape {
        }
      }
    }
  }
  attr {
    key: "dtype"
    value {
      type: DT_INT32
    }
  }
  attr {
    key: "value"
    value {
      tensor {
        dtype: DT_INT32
        tensor_shape {
        }
        int_val: 0
      }
    }
  }
}
node {
  name: "train_input_fn/concat"
  op: "ConcatV2"
  input: "train_input_fn/StringSplit:1"
  input: "train_input_fn/concat/values_1"
  input: "train_input_fn/concat/axis"
  attr {
    key: "N"
    value {
      i: 2
    }
  }
  attr {
    key: "T"
    value {
      type: DT_STRING
    }
  }
  attr {
    key: "Tidx"
    value {
      type: DT_INT32
    }
  }
  attr {
    key: "_output_shapes"
    value {
      list {
        shape {
          dim {
            size: -1
          }
        }
      }
    }
  }
}
node {
  name: "train_input_fn/Size"
  op: "Size"
  input: "train_input_fn/concat"
  attr {
    key: "T"
    value {
      type: DT_STRING
    }
  }
  attr {
    key: "_output_shapes"
    value {
      list {
        shape {
        }
      }
    }
  }
  attr {
    key: "out_type"
    value {
      type: DT_INT32
    }
  }
}
node {
  name: "train_input_fn/Const_1"
  op: "Const"
  attr {
    key: "_output_shapes"
    value {
      list {
        shape {
        }
      }
    }
  }
  attr {
    key: "dtype"
    value {
      type: DT_STRING
    }
  }
  attr {
    key: "value"
    value {
      tensor {
        dtype: DT_STRING
        tensor_shape {
        }
        string_val: " "
      }
    }
  }
}
node {
  name: "train_input_fn/packed_1"
  op: "Pack"
  input: "train_input_fn/random_shuffle_queue_Dequeue:1"
  attr {
    key: "N"
    value {
      i: 1
    }
  }
  attr {
    key: "T"
    value {
      type: DT_STRING
    }
  }
  attr {
    key: "_output_shapes"
    value {
      list {
        shape {
          unknown_rank: true
        }
      }
    }
  }
  attr {
    key: "axis"
    value {
      i: 0
    }
  }
}
node {
  name: "train_input_fn/StringSplit_1"
  op: "StringSplit"
  input: "train_input_fn/packed_1"
  input: "train_input_fn/Const_1"
  attr {
    key: "_output_shapes"
    value {
      list {
        shape {
          dim {
            size: -1
          }
          dim {
            size: 2
          }
        }
        shape {
          dim {
            size: -1
          }
        }
        shape {
          dim {
            size: 2
          }
        }
      }
    }
  }
  attr {
    key: "skip_empty"
    value {
      b: true
    }
  }
}
node {
  name: "train_input_fn/concat_1/values_0"
  op: "Const"
  attr {
    key: "_output_shapes"
    value {
      list {
        shape {
          dim {
            size: 1
          }
        }
      }
    }
  }
  attr {
    key: "dtype"
    value {
      type: DT_STRING
    }
  }
  attr {
    key: "value"
    value {
      tensor {
        dtype: DT_STRING
        tensor_shape {
          dim {
            size: 1
          }
        }
        string_val: "SEQUENCE_START"
      }
    }
  }
}
node {
  name: "train_input_fn/concat_1/axis"
  op: "Const"
  attr {
    key: "_output_shapes"
    value {
      list {
        shape {
        }
      }
    }
  }
  attr {
    key: "dtype"
    value {
      type: DT_INT32
    }
  }
  attr {
    key: "value"
    value {
      tensor {
        dtype: DT_INT32
        tensor_shape {
        }
        int_val: 0
      }
    }
  }
}
node {
  name: "train_input_fn/concat_1"
  op: "ConcatV2"
  input: "train_input_fn/concat_1/values_0"
  input: "train_input_fn/StringSplit_1:1"
  input: "train_input_fn/concat_1/axis"
  attr {
    key: "N"
    value {
      i: 2
    }
  }
  attr {
    key: "T"
    value {
      type: DT_STRING
    }
  }
  attr {
    key: "Tidx"
    value {
      type: DT_INT32
    }
  }
  attr {
    key: "_output_shapes"
    value {
      list {
        shape {
          dim {
            size: -1
          }
        }
      }
    }
  }
}
node {
  name: "train_input_fn/concat_2/values_1"
  op: "Const"
  attr {
    key: "_output_shapes"
    value {
      list {
        shape {
          dim {
            size: 1
          }
        }
      }
    }
  }
  attr {
    key: "dtype"
    value {
      type: DT_STRING
    }
  }
  attr {
    key: "value"
    value {
      tensor {
        dtype: DT_STRING
        tensor_shape {
          dim {
            size: 1
          }
        }
        string_val: "SEQUENCE_END"
      }
    }
  }
}
node {
  name: "train_input_fn/concat_2/axis"
  op: "Const"
  attr {
    key: "_output_shapes"
    value {
      list {
        shape {
        }
      }
    }
  }
  attr {
    key: "dtype"
    value {
      type: DT_INT32
    }
  }
  attr {
    key: "value"
    value {
      tensor {
        dtype: DT_INT32
        tensor_shape {
        }
        int_val: 0
      }
    }
  }
}
node {
  name: "train_input_fn/concat_2"
  op: "ConcatV2"
  input: "train_input_fn/concat_1"
  input: "train_input_fn/concat_2/values_1"
  input: "train_input_fn/concat_2/axis"
  attr {
    key: "N"
    value {
      i: 2
    }
  }
  attr {
    key: "T"
    value {
      type: DT_STRING
    }
  }
  attr {
    key: "Tidx"
    value {
      type: DT_INT32
    }
  }
  attr {
    key: "_output_shapes"
    value {
      list {
        shape {
          dim {
            size: -1
          }
        }
      }
    }
  }
}
node {
  name: "train_input_fn/Size_1"
  op: "Size"
  input: "train_input_fn/concat_2"
  attr {
    key: "T"
    value {
      type: DT_STRING
    }
  }
  attr {
    key: "_output_shapes"
    value {
      list {
        shape {
        }
      }
    }
  }
  attr {
    key: "out_type"
    value {
      type: DT_INT32
    }
  }
}
node {
  name: "train_input_fn/GreaterEqual/y"
  op: "Const"
  attr {
    key: "_output_shapes"
    value {
      list {
        shape {
        }
      }
    }
  }
  attr {
    key: "dtype"
    value {
      type: DT_INT32
    }
  }
  attr {
    key: "value"
    value {
      tensor {
        dtype: DT_INT32
        tensor_shape {
        }
        int_val: 1
      }
    }
  }
}
node {
  name: "train_input_fn/GreaterEqual"
  op: "GreaterEqual"
  input: "train_input_fn/Size"
  input: "train_input_fn/GreaterEqual/y"
  attr {
    key: "T"
    value {
      type: DT_INT32
    }
  }
  attr {
    key: "_output_shapes"
    value {
      list {
        shape {
        }
      }
    }
  }
}
node {
  name: "train_input_fn/bucket_queue/LessEqual/x"
  op: "Const"
  attr {
    key: "_output_shapes"
    value {
      list {
        shape {
          dim {
            size: 5
          }
        }
      }
    }
  }
  attr {
    key: "dtype"
    value {
      type: DT_INT32
    }
  }
  attr {
    key: "value"
    value {
      tensor {
        dtype: DT_INT32
        tensor_shape {
          dim {
            size: 5
          }
        }
        tensor_content: "\000\000\000\200\n\000\000\000\024\000\000\000\036\000\000\000(\000\000\000"
      }
    }
  }
}
node {
  name: "train_input_fn/bucket_queue/LessEqual"
  op: "LessEqual"
  input: "train_input_fn/bucket_queue/LessEqual/x"
  input: "train_input_fn/Size"
  attr {
    key: "T"
    value {
      type: DT_INT32
    }
  }
  attr {
    key: "_output_shapes"
    value {
      list {
        shape {
          dim {
            size: 5
          }
        }
      }
    }
  }
}
node {
  name: "train_input_fn/bucket_queue/Less/y"
  op: "Const"
  attr {
    key: "_output_shapes"
    value {
      list {
        shape {
          dim {
            size: 5
          }
        }
      }
    }
  }
  attr {
    key: "dtype"
    value {
      type: DT_INT32
    }
  }
  attr {
    key: "value"
    value {
      tensor {
        dtype: DT_INT32
        tensor_shape {
          dim {
            size: 5
          }
        }
        tensor_content: "\n\000\000\000\024\000\000\000\036\000\000\000(\000\000\000\377\377\377\177"
      }
    }
  }
}
node {
  name: "train_input_fn/bucket_queue/Less"
  op: "Less"
  input: "train_input_fn/Size"
  input: "train_input_fn/bucket_queue/Less/y"
  attr {
    key: "T"
    value {
      type: DT_INT32
    }
  }
  attr {
    key: "_output_shapes"
    value {
      list {
        shape {
          dim {
            size: 5
          }
        }
      }
    }
  }
}
node {
  name: "train_input_fn/bucket_queue/LogicalAnd"
  op: "LogicalAnd"
  input: "train_input_fn/bucket_queue/LessEqual"
  input: "train_input_fn/bucket_queue/Less"
  attr {
    key: "_output_shapes"
    value {
      list {
        shape {
          dim {
            size: 5
          }
        }
      }
    }
  }
}
node {
  name: "train_input_fn/bucket_queue/Where"
  op: "Where"
  input: "train_input_fn/bucket_queue/LogicalAnd"
  attr {
    key: "T"
    value {
      type: DT_BOOL
    }
  }
  attr {
    key: "_output_shapes"
    value {
      list {
        shape {
          dim {
            size: -1
          }
          dim {
            size: 1
          }
        }
      }
    }
  }
}
node {
  name: "train_input_fn/bucket_queue/Const"
  op: "Const"
  attr {
    key: "_output_shapes"
    value {
      list {
        shape {
          dim {
            size: 2
          }
        }
      }
    }
  }
  attr {
    key: "dtype"
    value {
      type: DT_INT32
    }
  }
  attr {
    key: "value"
    value {
      tensor {
        dtype: DT_INT32
        tensor_shape {
          dim {
            size: 2
          }
        }
        tensor_content: "\000\000\000\000\001\000\000\000"
      }
    }
  }
}
node {
  name: "train_input_fn/bucket_queue/Min"
  op: "Min"
  input: "train_input_fn/bucket_queue/Where"
  input: "train_input_fn/bucket_queue/Const"
  attr {
    key: "T"
    value {
      type: DT_INT64
    }
  }
  attr {
    key: "Tidx"
    value {
      type: DT_INT32
    }
  }
  attr {
    key: "_output_shapes"
    value {
      list {
        shape {
        }
      }
    }
  }
  attr {
    key: "keep_dims"
    value {
      b: false
    }
  }
}
node {
  name: "train_input_fn/bucket_queue/ToInt32"
  op: "Cast"
  input: "train_input_fn/bucket_queue/Min"
  attr {
    key: "DstT"
    value {
      type: DT_INT32
    }
  }
  attr {
    key: "SrcT"
    value {
      type: DT_INT64
    }
  }
  attr {
    key: "_output_shapes"
    value {
      list {
        shape {
        }
      }
    }
  }
}
node {
  name: "train_input_fn/bucket_queue/bucket/batch_size"
  op: "Const"
  attr {
    key: "_output_shapes"
    value {
      list {
        shape {
        }
      }
    }
  }
  attr {
    key: "dtype"
    value {
      type: DT_INT32
    }
  }
  attr {
    key: "value"
    value {
      tensor {
        dtype: DT_INT32
        tensor_shape {
        }
        int_val: 1
      }
    }
  }
}
node {
  name: "train_input_fn/bucket_queue/bucket/batch_size_1"
  op: "Const"
  attr {
    key: "_output_shapes"
    value {
      list {
        shape {
        }
      }
    }
  }
  attr {
    key: "dtype"
    value {
      type: DT_INT32
    }
  }
  attr {
    key: "value"
    value {
      tensor {
        dtype: DT_INT32
        tensor_shape {
        }
        int_val: 1
      }
    }
  }
}
node {
  name: "train_input_fn/bucket_queue/bucket/batch_size_2"
  op: "Const"
  attr {
    key: "_output_shapes"
    value {
      list {
        shape {
        }
      }
    }
  }
  attr {
    key: "dtype"
    value {
      type: DT_INT32
    }
  }
  attr {
    key: "value"
    value {
      tensor {
        dtype: DT_INT32
        tensor_shape {
        }
        int_val: 1
      }
    }
  }
}
node {
  name: "train_input_fn/bucket_queue/bucket/batch_size_3"
  op: "Const"
  attr {
    key: "_output_shapes"
    value {
      list {
        shape {
        }
      }
    }
  }
  attr {
    key: "dtype"
    value {
      type: DT_INT32
    }
  }
  attr {
    key: "value"
    value {
      tensor {
        dtype: DT_INT32
        tensor_shape {
        }
        int_val: 1
      }
    }
  }
}
node {
  name: "train_input_fn/bucket_queue/bucket/batch_size_4"
  op: "Const"
  attr {
    key: "_output_shapes"
    value {
      list {
        shape {
        }
      }
    }
  }
  attr {
    key: "dtype"
    value {
      type: DT_INT32
    }
  }
  attr {
    key: "value"
    value {
      tensor {
        dtype: DT_INT32
        tensor_shape {
        }
        int_val: 1
      }
    }
  }
}
node {
  name: "train_input_fn/bucket_queue/bucket/bucket_queue_0"
  op: "PaddingFIFOQueueV2"
  attr {
    key: "_output_shapes"
    value {
      list {
        shape {
        }
      }
    }
  }
  attr {
    key: "capacity"
    value {
      i: 5016
    }
  }
  attr {
    key: "component_types"
    value {
      list {
        type: DT_INT32
        type: DT_INT32
        type: DT_STRING
        type: DT_INT32
        type: DT_STRING
      }
    }
  }
  attr {
    key: "container"
    value {
      s: ""
    }
  }
  attr {
    key: "shapes"
    value {
      list {
        shape {
        }
        shape {
        }
        shape {
          dim {
            size: -1
          }
        }
        shape {
        }
        shape {
          dim {
            size: -1
          }
        }
      }
    }
  }
  attr {
    key: "shared_name"
    value {
      s: ""
    }
  }
}
node {
  name: "train_input_fn/bucket_queue/bucket/bucket_queue_1"
  op: "PaddingFIFOQueueV2"
  attr {
    key: "_output_shapes"
    value {
      list {
        shape {
        }
      }
    }
  }
  attr {
    key: "capacity"
    value {
      i: 5016
    }
  }
  attr {
    key: "component_types"
    value {
      list {
        type: DT_INT32
        type: DT_INT32
        type: DT_STRING
        type: DT_INT32
        type: DT_STRING
      }
    }
  }
  attr {
    key: "container"
    value {
      s: ""
    }
  }
  attr {
    key: "shapes"
    value {
      list {
        shape {
        }
        shape {
        }
        shape {
          dim {
            size: -1
          }
        }
        shape {
        }
        shape {
          dim {
            size: -1
          }
        }
      }
    }
  }
  attr {
    key: "shared_name"
    value {
      s: ""
    }
  }
}
node {
  name: "train_input_fn/bucket_queue/bucket/bucket_queue_2"
  op: "PaddingFIFOQueueV2"
  attr {
    key: "_output_shapes"
    value {
      list {
        shape {
        }
      }
    }
  }
  attr {
    key: "capacity"
    value {
      i: 5016
    }
  }
  attr {
    key: "component_types"
    value {
      list {
        type: DT_INT32
        type: DT_INT32
        type: DT_STRING
        type: DT_INT32
        type: DT_STRING
      }
    }
  }
  attr {
    key: "container"
    value {
      s: ""
    }
  }
  attr {
    key: "shapes"
    value {
      list {
        shape {
        }
        shape {
        }
        shape {
          dim {
            size: -1
          }
        }
        shape {
        }
        shape {
          dim {
            size: -1
          }
        }
      }
    }
  }
  attr {
    key: "shared_name"
    value {
      s: ""
    }
  }
}
node {
  name: "train_input_fn/bucket_queue/bucket/bucket_queue_3"
  op: "PaddingFIFOQueueV2"
  attr {
    key: "_output_shapes"
    value {
      list {
        shape {
        }
      }
    }
  }
  attr {
    key: "capacity"
    value {
      i: 5016
    }
  }
  attr {
    key: "component_types"
    value {
      list {
        type: DT_INT32
        type: DT_INT32
        type: DT_STRING
        type: DT_INT32
        type: DT_STRING
      }
    }
  }
  attr {
    key: "container"
    value {
      s: ""
    }
  }
  attr {
    key: "shapes"
    value {
      list {
        shape {
        }
        shape {
        }
        shape {
          dim {
            size: -1
          }
        }
        shape {
        }
        shape {
          dim {
            size: -1
          }
        }
      }
    }
  }
  attr {
    key: "shared_name"
    value {
      s: ""
    }
  }
}
node {
  name: "train_input_fn/bucket_queue/bucket/bucket_queue_4"
  op: "PaddingFIFOQueueV2"
  attr {
    key: "_output_shapes"
    value {
      list {
        shape {
        }
      }
    }
  }
  attr {
    key: "capacity"
    value {
      i: 5016
    }
  }
  attr {
    key: "component_types"
    value {
      list {
        type: DT_INT32
        type: DT_INT32
        type: DT_STRING
        type: DT_INT32
        type: DT_STRING
      }
    }
  }
  attr {
    key: "container"
    value {
      s: ""
    }
  }
  attr {
    key: "shapes"
    value {
      list {
        shape {
        }
        shape {
        }
        shape {
          dim {
            size: -1
          }
        }
        shape {
        }
        shape {
          dim {
            size: -1
          }
        }
      }
    }
  }
  attr {
    key: "shared_name"
    value {
      s: ""
    }
  }
}
node {
  name: "train_input_fn/bucket_queue/bucket/top_queue"
  op: "PaddingFIFOQueueV2"
  attr {
    key: "_output_shapes"
    value {
      list {
        shape {
        }
      }
    }
  }
  attr {
    key: "capacity"
    value {
      i: 5016
    }
  }
  attr {
    key: "component_types"
    value {
      list {
        type: DT_INT32
        type: DT_INT32
        type: DT_INT32
        type: DT_STRING
        type: DT_INT32
        type: DT_STRING
      }
    }
  }
  attr {
    key: "container"
    value {
      s: ""
    }
  }
  attr {
    key: "shapes"
    value {
      list {
        shape {
        }
        shape {
          dim {
            size: 1
          }
        }
        shape {
          dim {
            size: 1
          }
        }
        shape {
          dim {
            size: 1
          }
          dim {
            size: -1
          }
        }
        shape {
          dim {
            size: 1
          }
        }
        shape {
          dim {
            size: 1
          }
          dim {
            size: -1
          }
        }
      }
    }
  }
  attr {
    key: "shared_name"
    value {
      s: ""
    }
  }
}
node {
  name: "train_input_fn/bucket_queue/bucket/cond/Switch"
  op: "Switch"
  input: "train_input_fn/GreaterEqual"
  input: "train_input_fn/GreaterEqual"
  attr {
    key: "T"
    value {
      type: DT_BOOL
    }
  }
  attr {
    key: "_output_shapes"
    value {
      list {
        shape {
        }
        shape {
        }
      }
    }
  }
}
node {
  name: "train_input_fn/bucket_queue/bucket/cond/switch_t"
  op: "Identity"
  input: "train_input_fn/bucket_queue/bucket/cond/Switch:1"
  attr {
    key: "T"
    value {
      type: DT_BOOL
    }
  }
  attr {
    key: "_output_shapes"
    value {
      list {
        shape {
        }
      }
    }
  }
}
node {
  name: "train_input_fn/bucket_queue/bucket/cond/switch_f"
  op: "Identity"
  input: "train_input_fn/bucket_queue/bucket/cond/Switch"
  attr {
    key: "T"
    value {
      type: DT_BOOL
    }
  }
  attr {
    key: "_output_shapes"
    value {
      list {
        shape {
        }
      }
    }
  }
}
node {
  name: "train_input_fn/bucket_queue/bucket/cond/pred_id"
  op: "Identity"
  input: "train_input_fn/GreaterEqual"
  attr {
    key: "T"
    value {
      type: DT_BOOL
    }
  }
  attr {
    key: "_output_shapes"
    value {
      list {
        shape {
        }
      }
    }
  }
}
node {
  name: "train_input_fn/bucket_queue/bucket/cond/Equal/y"
  op: "Const"
  input: "^train_input_fn/bucket_queue/bucket/cond/switch_t"
  attr {
    key: "_output_shapes"
    value {
      list {
        shape {
        }
      }
    }
  }
  attr {
    key: "dtype"
    value {
      type: DT_INT32
    }
  }
  attr {
    key: "value"
    value {
      tensor {
        dtype: DT_INT32
        tensor_shape {
        }
        int_val: 0
      }
    }
  }
}
node {
  name: "train_input_fn/bucket_queue/bucket/cond/Equal"
  op: "Equal"
  input: "train_input_fn/bucket_queue/bucket/cond/Equal/Switch:1"
  input: "train_input_fn/bucket_queue/bucket/cond/Equal/y"
  attr {
    key: "T"
    value {
      type: DT_INT32
    }
  }
  attr {
    key: "_output_shapes"
    value {
      list {
        shape {
        }
      }
    }
  }
}
node {
  name: "train_input_fn/bucket_queue/bucket/cond/Equal/Switch"
  op: "Switch"
  input: "train_input_fn/bucket_queue/ToInt32"
  input: "train_input_fn/bucket_queue/bucket/cond/pred_id"
  attr {
    key: "T"
    value {
      type: DT_INT32
    }
  }
  attr {
    key: "_class"
    value {
      list {
        s: "loc:@train_input_fn/bucket_queue/ToInt32"
      }
    }
  }
  attr {
    key: "_output_shapes"
    value {
      list {
        shape {
        }
        shape {
        }
      }
    }
  }
}
node {
  name: "train_input_fn/bucket_queue/bucket/cond/cond/Switch"
  op: "Switch"
  input: "train_input_fn/bucket_queue/bucket/cond/Equal"
  input: "train_input_fn/bucket_queue/bucket/cond/Equal"
  attr {
    key: "T"
    value {
      type: DT_BOOL
    }
  }
  attr {
    key: "_output_shapes"
    value {
      list {
        shape {
        }
        shape {
        }
      }
    }
  }
}
node {
  name: "train_input_fn/bucket_queue/bucket/cond/cond/switch_t"
  op: "Identity"
  input: "train_input_fn/bucket_queue/bucket/cond/cond/Switch:1"
  attr {
    key: "T"
    value {
      type: DT_BOOL
    }
  }
  attr {
    key: "_output_shapes"
    value {
      list {
        shape {
        }
      }
    }
  }
}
node {
  name: "train_input_fn/bucket_queue/bucket/cond/cond/switch_f"
  op: "Identity"
  input: "train_input_fn/bucket_queue/bucket/cond/cond/Switch"
  attr {
    key: "T"
    value {
      type: DT_BOOL
    }
  }
  attr {
    key: "_output_shapes"
    value {
      list {
        shape {
        }
      }
    }
  }
}
node {
  name: "train_input_fn/bucket_queue/bucket/cond/cond/pred_id"
  op: "Identity"
  input: "train_input_fn/bucket_queue/bucket/cond/Equal"
  attr {
    key: "T"
    value {
      type: DT_BOOL
    }
  }
  attr {
    key: "_output_shapes"
    value {
      list {
        shape {
        }
      }
    }
  }
}
node {
  name: "train_input_fn/bucket_queue/bucket/cond/cond/bucket_queue_0_enqueue"
  op: "QueueEnqueueV2"
  input: "train_input_fn/bucket_queue/bucket/cond/cond/bucket_queue_0_enqueue/Switch_1:1"
  input: "train_input_fn/bucket_queue/bucket/cond/cond/bucket_queue_0_enqueue/Switch_3:1"
  input: "train_input_fn/bucket_queue/bucket/cond/cond/bucket_queue_0_enqueue/Switch_3:1"
  input: "train_input_fn/bucket_queue/bucket/cond/cond/bucket_queue_0_enqueue/Switch_5:1"
  input: "train_input_fn/bucket_queue/bucket/cond/cond/bucket_queue_0_enqueue/Switch_7:1"
  input: "train_input_fn/bucket_queue/bucket/cond/cond/bucket_queue_0_enqueue/Switch_9:1"
  attr {
    key: "Tcomponents"
    value {
      list {
        type: DT_INT32
        type: DT_INT32
        type: DT_STRING
        type: DT_INT32
        type: DT_STRING
      }
    }
  }
  attr {
    key: "timeout_ms"
    value {
      i: -1
    }
  }
}
node {
  name: "train_input_fn/bucket_queue/bucket/cond/cond/bucket_queue_0_enqueue/Switch"
  op: "Switch"
  input: "train_input_fn/bucket_queue/bucket/bucket_queue_0"
  input: "train_input_fn/bucket_queue/bucket/cond/pred_id"
  attr {
    key: "T"
    value {
      type: DT_RESOURCE
    }
  }
  attr {
    key: "_class"
    value {
      list {
        s: "loc:@train_input_fn/bucket_queue/bucket/bucket_queue_0"
      }
    }
  }
  attr {
    key: "_output_shapes"
    value {
      list {
        shape {
        }
        shape {
        }
      }
    }
  }
}
node {
  name: "train_input_fn/bucket_queue/bucket/cond/cond/bucket_queue_0_enqueue/Switch_1"
  op: "Switch"
  input: "train_input_fn/bucket_queue/bucket/cond/cond/bucket_queue_0_enqueue/Switch:1"
  input: "train_input_fn/bucket_queue/bucket/cond/cond/pred_id"
  attr {
    key: "T"
    value {
      type: DT_RESOURCE
    }
  }
  attr {
    key: "_class"
    value {
      list {
        s: "loc:@train_input_fn/bucket_queue/bucket/bucket_queue_0"
      }
    }
  }
  attr {
    key: "_output_shapes"
    value {
      list {
        shape {
        }
        shape {
        }
      }
    }
  }
}
node {
  name: "train_input_fn/bucket_queue/bucket/cond/cond/bucket_queue_0_enqueue/Switch_2"
  op: "Switch"
  input: "train_input_fn/Size"
  input: "train_input_fn/bucket_queue/bucket/cond/pred_id"
  attr {
    key: "T"
    value {
      type: DT_INT32
    }
  }
  attr {
    key: "_class"
    value {
      list {
        s: "loc:@train_input_fn/Size"
      }
    }
  }
  attr {
    key: "_output_shapes"
    value {
      list {
        shape {
        }
        shape {
        }
      }
    }
  }
}
node {
  name: "train_input_fn/bucket_queue/bucket/cond/cond/bucket_queue_0_enqueue/Switch_3"
  op: "Switch"
  input: "train_input_fn/bucket_queue/bucket/cond/cond/bucket_queue_0_enqueue/Switch_2:1"
  input: "train_input_fn/bucket_queue/bucket/cond/cond/pred_id"
  attr {
    key: "T"
    value {
      type: DT_INT32
    }
  }
  attr {
    key: "_class"
    value {
      list {
        s: "loc:@train_input_fn/Size"
      }
    }
  }
  attr {
    key: "_output_shapes"
    value {
      list {
        shape {
        }
        shape {
        }
      }
    }
  }
}
node {
  name: "train_input_fn/bucket_queue/bucket/cond/cond/bucket_queue_0_enqueue/Switch_4"
  op: "Switch"
  input: "train_input_fn/concat"
  input: "train_input_fn/bucket_queue/bucket/cond/pred_id"
  attr {
    key: "T"
    value {
      type: DT_STRING
    }
  }
  attr {
    key: "_class"
    value {
      list {
        s: "loc:@train_input_fn/concat"
      }
    }
  }
  attr {
    key: "_output_shapes"
    value {
      list {
        shape {
          dim {
            size: -1
          }
        }
        shape {
          dim {
            size: -1
          }
        }
      }
    }
  }
}
node {
  name: "train_input_fn/bucket_queue/bucket/cond/cond/bucket_queue_0_enqueue/Switch_5"
  op: "Switch"
  input: "train_input_fn/bucket_queue/bucket/cond/cond/bucket_queue_0_enqueue/Switch_4:1"
  input: "train_input_fn/bucket_queue/bucket/cond/cond/pred_id"
  attr {
    key: "T"
    value {
      type: DT_STRING
    }
  }
  attr {
    key: "_class"
    value {
      list {
        s: "loc:@train_input_fn/concat"
      }
    }
  }
  attr {
    key: "_output_shapes"
    value {
      list {
        shape {
          dim {
            size: -1
          }
        }
        shape {
          dim {
            size: -1
          }
        }
      }
    }
  }
}
node {
  name: "train_input_fn/bucket_queue/bucket/cond/cond/bucket_queue_0_enqueue/Switch_6"
  op: "Switch"
  input: "train_input_fn/Size_1"
  input: "train_input_fn/bucket_queue/bucket/cond/pred_id"
  attr {
    key: "T"
    value {
      type: DT_INT32
    }
  }
  attr {
    key: "_class"
    value {
      list {
        s: "loc:@train_input_fn/Size_1"
      }
    }
  }
  attr {
    key: "_output_shapes"
    value {
      list {
        shape {
        }
        shape {
        }
      }
    }
  }
}
node {
  name: "train_input_fn/bucket_queue/bucket/cond/cond/bucket_queue_0_enqueue/Switch_7"
  op: "Switch"
  input: "train_input_fn/bucket_queue/bucket/cond/cond/bucket_queue_0_enqueue/Switch_6:1"
  input: "train_input_fn/bucket_queue/bucket/cond/cond/pred_id"
  attr {
    key: "T"
    value {
      type: DT_INT32
    }
  }
  attr {
    key: "_class"
    value {
      list {
        s: "loc:@train_input_fn/Size_1"
      }
    }
  }
  attr {
    key: "_output_shapes"
    value {
      list {
        shape {
        }
        shape {
        }
      }
    }
  }
}
node {
  name: "train_input_fn/bucket_queue/bucket/cond/cond/bucket_queue_0_enqueue/Switch_8"
  op: "Switch"
  input: "train_input_fn/concat_2"
  input: "train_input_fn/bucket_queue/bucket/cond/pred_id"
  attr {
    key: "T"
    value {
      type: DT_STRING
    }
  }
  attr {
    key: "_class"
    value {
      list {
        s: "loc:@train_input_fn/concat_2"
      }
    }
  }
  attr {
    key: "_output_shapes"
    value {
      list {
        shape {
          dim {
            size: -1
          }
        }
        shape {
          dim {
            size: -1
          }
        }
      }
    }
  }
}
node {
  name: "train_input_fn/bucket_queue/bucket/cond/cond/bucket_queue_0_enqueue/Switch_9"
  op: "Switch"
  input: "train_input_fn/bucket_queue/bucket/cond/cond/bucket_queue_0_enqueue/Switch_8:1"
  input: "train_input_fn/bucket_queue/bucket/cond/cond/pred_id"
  attr {
    key: "T"
    value {
      type: DT_STRING
    }
  }
  attr {
    key: "_class"
    value {
      list {
        s: "loc:@train_input_fn/concat_2"
      }
    }
  }
  attr {
    key: "_output_shapes"
    value {
      list {
        shape {
          dim {
            size: -1
          }
        }
        shape {
          dim {
            size: -1
          }
        }
      }
    }
  }
}
node {
  name: "train_input_fn/bucket_queue/bucket/cond/cond/control_dependency"
  op: "Identity"
  input: "train_input_fn/bucket_queue/bucket/cond/cond/switch_t"
  input: "^train_input_fn/bucket_queue/bucket/cond/cond/bucket_queue_0_enqueue"
  attr {
    key: "T"
    value {
      type: DT_BOOL
    }
  }
  attr {
    key: "_class"
    value {
      list {
        s: "loc:@train_input_fn/bucket_queue/bucket/cond/cond/switch_t"
      }
    }
  }
  attr {
    key: "_output_shapes"
    value {
      list {
        shape {
        }
      }
    }
  }
}
node {
  name: "train_input_fn/bucket_queue/bucket/cond/cond/NoOp"
  op: "NoOp"
  input: "^train_input_fn/bucket_queue/bucket/cond/cond/switch_f"
}
node {
  name: "train_input_fn/bucket_queue/bucket/cond/cond/control_dependency_1"
  op: "Identity"
  input: "train_input_fn/bucket_queue/bucket/cond/cond/switch_f"
  input: "^train_input_fn/bucket_queue/bucket/cond/cond/NoOp"
  attr {
    key: "T"
    value {
      type: DT_BOOL
    }
  }
  attr {
    key: "_class"
    value {
      list {
        s: "loc:@train_input_fn/bucket_queue/bucket/cond/cond/switch_f"
      }
    }
  }
  attr {
    key: "_output_shapes"
    value {
      list {
        shape {
        }
      }
    }
  }
}
node {
  name: "train_input_fn/bucket_queue/bucket/cond/cond/Merge"
  op: "Merge"
  input: "train_input_fn/bucket_queue/bucket/cond/cond/control_dependency_1"
  input: "train_input_fn/bucket_queue/bucket/cond/cond/control_dependency"
  attr {
    key: "N"
    value {
      i: 2
    }
  }
  attr {
    key: "T"
    value {
      type: DT_BOOL
    }
  }
  attr {
    key: "_output_shapes"
    value {
      list {
        shape {
        }
        shape {
        }
      }
    }
  }
}
node {
  name: "train_input_fn/bucket_queue/bucket/cond/Equal_1/y"
  op: "Const"
  input: "^train_input_fn/bucket_queue/bucket/cond/switch_t"
  attr {
    key: "_output_shapes"
    value {
      list {
        shape {
        }
      }
    }
  }
  attr {
    key: "dtype"
    value {
      type: DT_INT32
    }
  }
  attr {
    key: "value"
    value {
      tensor {
        dtype: DT_INT32
        tensor_shape {
        }
        int_val: 1
      }
    }
  }
}
node {
  name: "train_input_fn/bucket_queue/bucket/cond/Equal_1"
  op: "Equal"
  input: "train_input_fn/bucket_queue/bucket/cond/Equal/Switch:1"
  input: "train_input_fn/bucket_queue/bucket/cond/Equal_1/y"
  attr {
    key: "T"
    value {
      type: DT_INT32
    }
  }
  attr {
    key: "_output_shapes"
    value {
      list {
        shape {
        }
      }
    }
  }
}
node {
  name: "train_input_fn/bucket_queue/bucket/cond/cond_1/Switch"
  op: "Switch"
  input: "train_input_fn/bucket_queue/bucket/cond/Equal_1"
  input: "train_input_fn/bucket_queue/bucket/cond/Equal_1"
  attr {
    key: "T"
    value {
      type: DT_BOOL
    }
  }
  attr {
    key: "_output_shapes"
    value {
      list {
        shape {
        }
        shape {
        }
      }
    }
  }
}
node {
  name: "train_input_fn/bucket_queue/bucket/cond/cond_1/switch_t"
  op: "Identity"
  input: "train_input_fn/bucket_queue/bucket/cond/cond_1/Switch:1"
  attr {
    key: "T"
    value {
      type: DT_BOOL
    }
  }
  attr {
    key: "_output_shapes"
    value {
      list {
        shape {
        }
      }
    }
  }
}
node {
  name: "train_input_fn/bucket_queue/bucket/cond/cond_1/switch_f"
  op: "Identity"
  input: "train_input_fn/bucket_queue/bucket/cond/cond_1/Switch"
  attr {
    key: "T"
    value {
      type: DT_BOOL
    }
  }
  attr {
    key: "_output_shapes"
    value {
      list {
        shape {
        }
      }
    }
  }
}
node {
  name: "train_input_fn/bucket_queue/bucket/cond/cond_1/pred_id"
  op: "Identity"
  input: "train_input_fn/bucket_queue/bucket/cond/Equal_1"
  attr {
    key: "T"
    value {
      type: DT_BOOL
    }
  }
  attr {
    key: "_output_shapes"
    value {
      list {
        shape {
        }
      }
    }
  }
}
node {
  name: "train_input_fn/bucket_queue/bucket/cond/cond_1/bucket_queue_1_enqueue"
  op: "QueueEnqueueV2"
  input: "train_input_fn/bucket_queue/bucket/cond/cond_1/bucket_queue_1_enqueue/Switch_1:1"
  input: "train_input_fn/bucket_queue/bucket/cond/cond_1/bucket_queue_1_enqueue/Switch_2:1"
  input: "train_input_fn/bucket_queue/bucket/cond/cond_1/bucket_queue_1_enqueue/Switch_2:1"
  input: "train_input_fn/bucket_queue/bucket/cond/cond_1/bucket_queue_1_enqueue/Switch_3:1"
  input: "train_input_fn/bucket_queue/bucket/cond/cond_1/bucket_queue_1_enqueue/Switch_4:1"
  input: "train_input_fn/bucket_queue/bucket/cond/cond_1/bucket_queue_1_enqueue/Switch_5:1"
  attr {
    key: "Tcomponents"
    value {
      list {
        type: DT_INT32
        type: DT_INT32
        type: DT_STRING
        type: DT_INT32
        type: DT_STRING
      }
    }
  }
  attr {
    key: "timeout_ms"
    value {
      i: -1
    }
  }
}
node {
  name: "train_input_fn/bucket_queue/bucket/cond/cond_1/bucket_queue_1_enqueue/Switch"
  op: "Switch"
  input: "train_input_fn/bucket_queue/bucket/bucket_queue_1"
  input: "train_input_fn/bucket_queue/bucket/cond/pred_id"
  attr {
    key: "T"
    value {
      type: DT_RESOURCE
    }
  }
  attr {
    key: "_class"
    value {
      list {
        s: "loc:@train_input_fn/bucket_queue/bucket/bucket_queue_1"
      }
    }
  }
  attr {
    key: "_output_shapes"
    value {
      list {
        shape {
        }
        shape {
        }
      }
    }
  }
}
node {
  name: "train_input_fn/bucket_queue/bucket/cond/cond_1/bucket_queue_1_enqueue/Switch_1"
  op: "Switch"
  input: "train_input_fn/bucket_queue/bucket/cond/cond_1/bucket_queue_1_enqueue/Switch:1"
  input: "train_input_fn/bucket_queue/bucket/cond/cond_1/pred_id"
  attr {
    key: "T"
    value {
      type: DT_RESOURCE
    }
  }
  attr {
    key: "_class"
    value {
      list {
        s: "loc:@train_input_fn/bucket_queue/bucket/bucket_queue_1"
      }
    }
  }
  attr {
    key: "_output_shapes"
    value {
      list {
        shape {
        }
        shape {
        }
      }
    }
  }
}
node {
  name: "train_input_fn/bucket_queue/bucket/cond/cond_1/bucket_queue_1_enqueue/Switch_2"
  op: "Switch"
  input: "train_input_fn/bucket_queue/bucket/cond/cond/bucket_queue_0_enqueue/Switch_2:1"
  input: "train_input_fn/bucket_queue/bucket/cond/cond_1/pred_id"
  attr {
    key: "T"
    value {
      type: DT_INT32
    }
  }
  attr {
    key: "_class"
    value {
      list {
        s: "loc:@train_input_fn/Size"
      }
    }
  }
  attr {
    key: "_output_shapes"
    value {
      list {
        shape {
        }
        shape {
        }
      }
    }
  }
}
node {
  name: "train_input_fn/bucket_queue/bucket/cond/cond_1/bucket_queue_1_enqueue/Switch_3"
  op: "Switch"
  input: "train_input_fn/bucket_queue/bucket/cond/cond/bucket_queue_0_enqueue/Switch_4:1"
  input: "train_input_fn/bucket_queue/bucket/cond/cond_1/pred_id"
  attr {
    key: "T"
    value {
      type: DT_STRING
    }
  }
  attr {
    key: "_class"
    value {
      list {
        s: "loc:@train_input_fn/concat"
      }
    }
  }
  attr {
    key: "_output_shapes"
    value {
      list {
        shape {
          dim {
            size: -1
          }
        }
        shape {
          dim {
            size: -1
          }
        }
      }
    }
  }
}
node {
  name: "train_input_fn/bucket_queue/bucket/cond/cond_1/bucket_queue_1_enqueue/Switch_4"
  op: "Switch"
  input: "train_input_fn/bucket_queue/bucket/cond/cond/bucket_queue_0_enqueue/Switch_6:1"
  input: "train_input_fn/bucket_queue/bucket/cond/cond_1/pred_id"
  attr {
    key: "T"
    value {
      type: DT_INT32
    }
  }
  attr {
    key: "_class"
    value {
      list {
        s: "loc:@train_input_fn/Size_1"
      }
    }
  }
  attr {
    key: "_output_shapes"
    value {
      list {
        shape {
        }
        shape {
        }
      }
    }
  }
}
node {
  name: "train_input_fn/bucket_queue/bucket/cond/cond_1/bucket_queue_1_enqueue/Switch_5"
  op: "Switch"
  input: "train_input_fn/bucket_queue/bucket/cond/cond/bucket_queue_0_enqueue/Switch_8:1"
  input: "train_input_fn/bucket_queue/bucket/cond/cond_1/pred_id"
  attr {
    key: "T"
    value {
      type: DT_STRING
    }
  }
  attr {
    key: "_class"
    value {
      list {
        s: "loc:@train_input_fn/concat_2"
      }
    }
  }
  attr {
    key: "_output_shapes"
    value {
      list {
        shape {
          dim {
            size: -1
          }
        }
        shape {
          dim {
            size: -1
          }
        }
      }
    }
  }
}
node {
  name: "train_input_fn/bucket_queue/bucket/cond/cond_1/control_dependency"
  op: "Identity"
  input: "train_input_fn/bucket_queue/bucket/cond/cond_1/switch_t"
  input: "^train_input_fn/bucket_queue/bucket/cond/cond_1/bucket_queue_1_enqueue"
  attr {
    key: "T"
    value {
      type: DT_BOOL
    }
  }
  attr {
    key: "_class"
    value {
      list {
        s: "loc:@train_input_fn/bucket_queue/bucket/cond/cond_1/switch_t"
      }
    }
  }
  attr {
    key: "_output_shapes"
    value {
      list {
        shape {
        }
      }
    }
  }
}
node {
  name: "train_input_fn/bucket_queue/bucket/cond/cond_1/NoOp"
  op: "NoOp"
  input: "^train_input_fn/bucket_queue/bucket/cond/cond_1/switch_f"
}
node {
  name: "train_input_fn/bucket_queue/bucket/cond/cond_1/control_dependency_1"
  op: "Identity"
  input: "train_input_fn/bucket_queue/bucket/cond/cond_1/switch_f"
  input: "^train_input_fn/bucket_queue/bucket/cond/cond_1/NoOp"
  attr {
    key: "T"
    value {
      type: DT_BOOL
    }
  }
  attr {
    key: "_class"
    value {
      list {
        s: "loc:@train_input_fn/bucket_queue/bucket/cond/cond_1/switch_f"
      }
    }
  }
  attr {
    key: "_output_shapes"
    value {
      list {
        shape {
        }
      }
    }
  }
}
node {
  name: "train_input_fn/bucket_queue/bucket/cond/cond_1/Merge"
  op: "Merge"
  input: "train_input_fn/bucket_queue/bucket/cond/cond_1/control_dependency_1"
  input: "train_input_fn/bucket_queue/bucket/cond/cond_1/control_dependency"
  attr {
    key: "N"
    value {
      i: 2
    }
  }
  attr {
    key: "T"
    value {
      type: DT_BOOL
    }
  }
  attr {
    key: "_output_shapes"
    value {
      list {
        shape {
        }
        shape {
        }
      }
    }
  }
}
node {
  name: "train_input_fn/bucket_queue/bucket/cond/Equal_2/y"
  op: "Const"
  input: "^train_input_fn/bucket_queue/bucket/cond/switch_t"
  attr {
    key: "_output_shapes"
    value {
      list {
        shape {
        }
      }
    }
  }
  attr {
    key: "dtype"
    value {
      type: DT_INT32
    }
  }
  attr {
    key: "value"
    value {
      tensor {
        dtype: DT_INT32
        tensor_shape {
        }
        int_val: 2
      }
    }
  }
}
node {
  name: "train_input_fn/bucket_queue/bucket/cond/Equal_2"
  op: "Equal"
  input: "train_input_fn/bucket_queue/bucket/cond/Equal/Switch:1"
  input: "train_input_fn/bucket_queue/bucket/cond/Equal_2/y"
  attr {
    key: "T"
    value {
      type: DT_INT32
    }
  }
  attr {
    key: "_output_shapes"
    value {
      list {
        shape {
        }
      }
    }
  }
}
node {
  name: "train_input_fn/bucket_queue/bucket/cond/cond_2/Switch"
  op: "Switch"
  input: "train_input_fn/bucket_queue/bucket/cond/Equal_2"
  input: "train_input_fn/bucket_queue/bucket/cond/Equal_2"
  attr {
    key: "T"
    value {
      type: DT_BOOL
    }
  }
  attr {
    key: "_output_shapes"
    value {
      list {
        shape {
        }
        shape {
        }
      }
    }
  }
}
node {
  name: "train_input_fn/bucket_queue/bucket/cond/cond_2/switch_t"
  op: "Identity"
  input: "train_input_fn/bucket_queue/bucket/cond/cond_2/Switch:1"
  attr {
    key: "T"
    value {
      type: DT_BOOL
    }
  }
  attr {
    key: "_output_shapes"
    value {
      list {
        shape {
        }
      }
    }
  }
}
node {
  name: "train_input_fn/bucket_queue/bucket/cond/cond_2/switch_f"
  op: "Identity"
  input: "train_input_fn/bucket_queue/bucket/cond/cond_2/Switch"
  attr {
    key: "T"
    value {
      type: DT_BOOL
    }
  }
  attr {
    key: "_output_shapes"
    value {
      list {
        shape {
        }
      }
    }
  }
}
node {
  name: "train_input_fn/bucket_queue/bucket/cond/cond_2/pred_id"
  op: "Identity"
  input: "train_input_fn/bucket_queue/bucket/cond/Equal_2"
  attr {
    key: "T"
    value {
      type: DT_BOOL
    }
  }
  attr {
    key: "_output_shapes"
    value {
      list {
        shape {
        }
      }
    }
  }
}
node {
  name: "train_input_fn/bucket_queue/bucket/cond/cond_2/bucket_queue_2_enqueue"
  op: "QueueEnqueueV2"
  input: "train_input_fn/bucket_queue/bucket/cond/cond_2/bucket_queue_2_enqueue/Switch_1:1"
  input: "train_input_fn/bucket_queue/bucket/cond/cond_2/bucket_queue_2_enqueue/Switch_2:1"
  input: "train_input_fn/bucket_queue/bucket/cond/cond_2/bucket_queue_2_enqueue/Switch_2:1"
  input: "train_input_fn/bucket_queue/bucket/cond/cond_2/bucket_queue_2_enqueue/Switch_3:1"
  input: "train_input_fn/bucket_queue/bucket/cond/cond_2/bucket_queue_2_enqueue/Switch_4:1"
  input: "train_input_fn/bucket_queue/bucket/cond/cond_2/bucket_queue_2_enqueue/Switch_5:1"
  attr {
    key: "Tcomponents"
    value {
      list {
        type: DT_INT32
        type: DT_INT32
        type: DT_STRING
        type: DT_INT32
        type: DT_STRING
      }
    }
  }
  attr {
    key: "timeout_ms"
    value {
      i: -1
    }
  }
}
node {
  name: "train_input_fn/bucket_queue/bucket/cond/cond_2/bucket_queue_2_enqueue/Switch"
  op: "Switch"
  input: "train_input_fn/bucket_queue/bucket/bucket_queue_2"
  input: "train_input_fn/bucket_queue/bucket/cond/pred_id"
  attr {
    key: "T"
    value {
      type: DT_RESOURCE
    }
  }
  attr {
    key: "_class"
    value {
      list {
        s: "loc:@train_input_fn/bucket_queue/bucket/bucket_queue_2"
      }
    }
  }
  attr {
    key: "_output_shapes"
    value {
      list {
        shape {
        }
        shape {
        }
      }
    }
  }
}
node {
  name: "train_input_fn/bucket_queue/bucket/cond/cond_2/bucket_queue_2_enqueue/Switch_1"
  op: "Switch"
  input: "train_input_fn/bucket_queue/bucket/cond/cond_2/bucket_queue_2_enqueue/Switch:1"
  input: "train_input_fn/bucket_queue/bucket/cond/cond_2/pred_id"
  attr {
    key: "T"
    value {
      type: DT_RESOURCE
    }
  }
  attr {
    key: "_class"
    value {
      list {
        s: "loc:@train_input_fn/bucket_queue/bucket/bucket_queue_2"
      }
    }
  }
  attr {
    key: "_output_shapes"
    value {
      list {
        shape {
        }
        shape {
        }
      }
    }
  }
}
node {
  name: "train_input_fn/bucket_queue/bucket/cond/cond_2/bucket_queue_2_enqueue/Switch_2"
  op: "Switch"
  input: "train_input_fn/bucket_queue/bucket/cond/cond/bucket_queue_0_enqueue/Switch_2:1"
  input: "train_input_fn/bucket_queue/bucket/cond/cond_2/pred_id"
  attr {
    key: "T"
    value {
      type: DT_INT32
    }
  }
  attr {
    key: "_class"
    value {
      list {
        s: "loc:@train_input_fn/Size"
      }
    }
  }
  attr {
    key: "_output_shapes"
    value {
      list {
        shape {
        }
        shape {
        }
      }
    }
  }
}
node {
  name: "train_input_fn/bucket_queue/bucket/cond/cond_2/bucket_queue_2_enqueue/Switch_3"
  op: "Switch"
  input: "train_input_fn/bucket_queue/bucket/cond/cond/bucket_queue_0_enqueue/Switch_4:1"
  input: "train_input_fn/bucket_queue/bucket/cond/cond_2/pred_id"
  attr {
    key: "T"
    value {
      type: DT_STRING
    }
  }
  attr {
    key: "_class"
    value {
      list {
        s: "loc:@train_input_fn/concat"
      }
    }
  }
  attr {
    key: "_output_shapes"
    value {
      list {
        shape {
          dim {
            size: -1
          }
        }
        shape {
          dim {
            size: -1
          }
        }
      }
    }
  }
}
node {
  name: "train_input_fn/bucket_queue/bucket/cond/cond_2/bucket_queue_2_enqueue/Switch_4"
  op: "Switch"
  input: "train_input_fn/bucket_queue/bucket/cond/cond/bucket_queue_0_enqueue/Switch_6:1"
  input: "train_input_fn/bucket_queue/bucket/cond/cond_2/pred_id"
  attr {
    key: "T"
    value {
      type: DT_INT32
    }
  }
  attr {
    key: "_class"
    value {
      list {
        s: "loc:@train_input_fn/Size_1"
      }
    }
  }
  attr {
    key: "_output_shapes"
    value {
      list {
        shape {
        }
        shape {
        }
      }
    }
  }
}
node {
  name: "train_input_fn/bucket_queue/bucket/cond/cond_2/bucket_queue_2_enqueue/Switch_5"
  op: "Switch"
  input: "train_input_fn/bucket_queue/bucket/cond/cond/bucket_queue_0_enqueue/Switch_8:1"
  input: "train_input_fn/bucket_queue/bucket/cond/cond_2/pred_id"
  attr {
    key: "T"
    value {
      type: DT_STRING
    }
  }
  attr {
    key: "_class"
    value {
      list {
        s: "loc:@train_input_fn/concat_2"
      }
    }
  }
  attr {
    key: "_output_shapes"
    value {
      list {
        shape {
          dim {
            size: -1
          }
        }
        shape {
          dim {
            size: -1
          }
        }
      }
    }
  }
}
node {
  name: "train_input_fn/bucket_queue/bucket/cond/cond_2/control_dependency"
  op: "Identity"
  input: "train_input_fn/bucket_queue/bucket/cond/cond_2/switch_t"
  input: "^train_input_fn/bucket_queue/bucket/cond/cond_2/bucket_queue_2_enqueue"
  attr {
    key: "T"
    value {
      type: DT_BOOL
    }
  }
  attr {
    key: "_class"
    value {
      list {
        s: "loc:@train_input_fn/bucket_queue/bucket/cond/cond_2/switch_t"
      }
    }
  }
  attr {
    key: "_output_shapes"
    value {
      list {
        shape {
        }
      }
    }
  }
}
node {
  name: "train_input_fn/bucket_queue/bucket/cond/cond_2/NoOp"
  op: "NoOp"
  input: "^train_input_fn/bucket_queue/bucket/cond/cond_2/switch_f"
}
node {
  name: "train_input_fn/bucket_queue/bucket/cond/cond_2/control_dependency_1"
  op: "Identity"
  input: "train_input_fn/bucket_queue/bucket/cond/cond_2/switch_f"
  input: "^train_input_fn/bucket_queue/bucket/cond/cond_2/NoOp"
  attr {
    key: "T"
    value {
      type: DT_BOOL
    }
  }
  attr {
    key: "_class"
    value {
      list {
        s: "loc:@train_input_fn/bucket_queue/bucket/cond/cond_2/switch_f"
      }
    }
  }
  attr {
    key: "_output_shapes"
    value {
      list {
        shape {
        }
      }
    }
  }
}
node {
  name: "train_input_fn/bucket_queue/bucket/cond/cond_2/Merge"
  op: "Merge"
  input: "train_input_fn/bucket_queue/bucket/cond/cond_2/control_dependency_1"
  input: "train_input_fn/bucket_queue/bucket/cond/cond_2/control_dependency"
  attr {
    key: "N"
    value {
      i: 2
    }
  }
  attr {
    key: "T"
    value {
      type: DT_BOOL
    }
  }
  attr {
    key: "_output_shapes"
    value {
      list {
        shape {
        }
        shape {
        }
      }
    }
  }
}
node {
  name: "train_input_fn/bucket_queue/bucket/cond/Equal_3/y"
  op: "Const"
  input: "^train_input_fn/bucket_queue/bucket/cond/switch_t"
  attr {
    key: "_output_shapes"
    value {
      list {
        shape {
        }
      }
    }
  }
  attr {
    key: "dtype"
    value {
      type: DT_INT32
    }
  }
  attr {
    key: "value"
    value {
      tensor {
        dtype: DT_INT32
        tensor_shape {
        }
        int_val: 3
      }
    }
  }
}
node {
  name: "train_input_fn/bucket_queue/bucket/cond/Equal_3"
  op: "Equal"
  input: "train_input_fn/bucket_queue/bucket/cond/Equal/Switch:1"
  input: "train_input_fn/bucket_queue/bucket/cond/Equal_3/y"
  attr {
    key: "T"
    value {
      type: DT_INT32
    }
  }
  attr {
    key: "_output_shapes"
    value {
      list {
        shape {
        }
      }
    }
  }
}
node {
  name: "train_input_fn/bucket_queue/bucket/cond/cond_3/Switch"
  op: "Switch"
  input: "train_input_fn/bucket_queue/bucket/cond/Equal_3"
  input: "train_input_fn/bucket_queue/bucket/cond/Equal_3"
  attr {
    key: "T"
    value {
      type: DT_BOOL
    }
  }
  attr {
    key: "_output_shapes"
    value {
      list {
        shape {
        }
        shape {
        }
      }
    }
  }
}
node {
  name: "train_input_fn/bucket_queue/bucket/cond/cond_3/switch_t"
  op: "Identity"
  input: "train_input_fn/bucket_queue/bucket/cond/cond_3/Switch:1"
  attr {
    key: "T"
    value {
      type: DT_BOOL
    }
  }
  attr {
    key: "_output_shapes"
    value {
      list {
        shape {
        }
      }
    }
  }
}
node {
  name: "train_input_fn/bucket_queue/bucket/cond/cond_3/switch_f"
  op: "Identity"
  input: "train_input_fn/bucket_queue/bucket/cond/cond_3/Switch"
  attr {
    key: "T"
    value {
      type: DT_BOOL
    }
  }
  attr {
    key: "_output_shapes"
    value {
      list {
        shape {
        }
      }
    }
  }
}
node {
  name: "train_input_fn/bucket_queue/bucket/cond/cond_3/pred_id"
  op: "Identity"
  input: "train_input_fn/bucket_queue/bucket/cond/Equal_3"
  attr {
    key: "T"
    value {
      type: DT_BOOL
    }
  }
  attr {
    key: "_output_shapes"
    value {
      list {
        shape {
        }
      }
    }
  }
}
node {
  name: "train_input_fn/bucket_queue/bucket/cond/cond_3/bucket_queue_3_enqueue"
  op: "QueueEnqueueV2"
  input: "train_input_fn/bucket_queue/bucket/cond/cond_3/bucket_queue_3_enqueue/Switch_1:1"
  input: "train_input_fn/bucket_queue/bucket/cond/cond_3/bucket_queue_3_enqueue/Switch_2:1"
  input: "train_input_fn/bucket_queue/bucket/cond/cond_3/bucket_queue_3_enqueue/Switch_2:1"
  input: "train_input_fn/bucket_queue/bucket/cond/cond_3/bucket_queue_3_enqueue/Switch_3:1"
  input: "train_input_fn/bucket_queue/bucket/cond/cond_3/bucket_queue_3_enqueue/Switch_4:1"
  input: "train_input_fn/bucket_queue/bucket/cond/cond_3/bucket_queue_3_enqueue/Switch_5:1"
  attr {
    key: "Tcomponents"
    value {
      list {
        type: DT_INT32
        type: DT_INT32
        type: DT_STRING
        type: DT_INT32
        type: DT_STRING
      }
    }
  }
  attr {
    key: "timeout_ms"
    value {
      i: -1
    }
  }
}
node {
  name: "train_input_fn/bucket_queue/bucket/cond/cond_3/bucket_queue_3_enqueue/Switch"
  op: "Switch"
  input: "train_input_fn/bucket_queue/bucket/bucket_queue_3"
  input: "train_input_fn/bucket_queue/bucket/cond/pred_id"
  attr {
    key: "T"
    value {
      type: DT_RESOURCE
    }
  }
  attr {
    key: "_class"
    value {
      list {
        s: "loc:@train_input_fn/bucket_queue/bucket/bucket_queue_3"
      }
    }
  }
  attr {
    key: "_output_shapes"
    value {
      list {
        shape {
        }
        shape {
        }
      }
    }
  }
}
node {
  name: "train_input_fn/bucket_queue/bucket/cond/cond_3/bucket_queue_3_enqueue/Switch_1"
  op: "Switch"
  input: "train_input_fn/bucket_queue/bucket/cond/cond_3/bucket_queue_3_enqueue/Switch:1"
  input: "train_input_fn/bucket_queue/bucket/cond/cond_3/pred_id"
  attr {
    key: "T"
    value {
      type: DT_RESOURCE
    }
  }
  attr {
    key: "_class"
    value {
      list {
        s: "loc:@train_input_fn/bucket_queue/bucket/bucket_queue_3"
      }
    }
  }
  attr {
    key: "_output_shapes"
    value {
      list {
        shape {
        }
        shape {
        }
      }
    }
  }
}
node {
  name: "train_input_fn/bucket_queue/bucket/cond/cond_3/bucket_queue_3_enqueue/Switch_2"
  op: "Switch"
  input: "train_input_fn/bucket_queue/bucket/cond/cond/bucket_queue_0_enqueue/Switch_2:1"
  input: "train_input_fn/bucket_queue/bucket/cond/cond_3/pred_id"
  attr {
    key: "T"
    value {
      type: DT_INT32
    }
  }
  attr {
    key: "_class"
    value {
      list {
        s: "loc:@train_input_fn/Size"
      }
    }
  }
  attr {
    key: "_output_shapes"
    value {
      list {
        shape {
        }
        shape {
        }
      }
    }
  }
}
node {
  name: "train_input_fn/bucket_queue/bucket/cond/cond_3/bucket_queue_3_enqueue/Switch_3"
  op: "Switch"
  input: "train_input_fn/bucket_queue/bucket/cond/cond/bucket_queue_0_enqueue/Switch_4:1"
  input: "train_input_fn/bucket_queue/bucket/cond/cond_3/pred_id"
  attr {
    key: "T"
    value {
      type: DT_STRING
    }
  }
  attr {
    key: "_class"
    value {
      list {
        s: "loc:@train_input_fn/concat"
      }
    }
  }
  attr {
    key: "_output_shapes"
    value {
      list {
        shape {
          dim {
            size: -1
          }
        }
        shape {
          dim {
            size: -1
          }
        }
      }
    }
  }
}
node {
  name: "train_input_fn/bucket_queue/bucket/cond/cond_3/bucket_queue_3_enqueue/Switch_4"
  op: "Switch"
  input: "train_input_fn/bucket_queue/bucket/cond/cond/bucket_queue_0_enqueue/Switch_6:1"
  input: "train_input_fn/bucket_queue/bucket/cond/cond_3/pred_id"
  attr {
    key: "T"
    value {
      type: DT_INT32
    }
  }
  attr {
    key: "_class"
    value {
      list {
        s: "loc:@train_input_fn/Size_1"
      }
    }
  }
  attr {
    key: "_output_shapes"
    value {
      list {
        shape {
        }
        shape {
        }
      }
    }
  }
}
node {
  name: "train_input_fn/bucket_queue/bucket/cond/cond_3/bucket_queue_3_enqueue/Switch_5"
  op: "Switch"
  input: "train_input_fn/bucket_queue/bucket/cond/cond/bucket_queue_0_enqueue/Switch_8:1"
  input: "train_input_fn/bucket_queue/bucket/cond/cond_3/pred_id"
  attr {
    key: "T"
    value {
      type: DT_STRING
    }
  }
  attr {
    key: "_class"
    value {
      list {
        s: "loc:@train_input_fn/concat_2"
      }
    }
  }
  attr {
    key: "_output_shapes"
    value {
      list {
        shape {
          dim {
            size: -1
          }
        }
        shape {
          dim {
            size: -1
          }
        }
      }
    }
  }
}
node {
  name: "train_input_fn/bucket_queue/bucket/cond/cond_3/control_dependency"
  op: "Identity"
  input: "train_input_fn/bucket_queue/bucket/cond/cond_3/switch_t"
  input: "^train_input_fn/bucket_queue/bucket/cond/cond_3/bucket_queue_3_enqueue"
  attr {
    key: "T"
    value {
      type: DT_BOOL
    }
  }
  attr {
    key: "_class"
    value {
      list {
        s: "loc:@train_input_fn/bucket_queue/bucket/cond/cond_3/switch_t"
      }
    }
  }
  attr {
    key: "_output_shapes"
    value {
      list {
        shape {
        }
      }
    }
  }
}
node {
  name: "train_input_fn/bucket_queue/bucket/cond/cond_3/NoOp"
  op: "NoOp"
  input: "^train_input_fn/bucket_queue/bucket/cond/cond_3/switch_f"
}
node {
  name: "train_input_fn/bucket_queue/bucket/cond/cond_3/control_dependency_1"
  op: "Identity"
  input: "train_input_fn/bucket_queue/bucket/cond/cond_3/switch_f"
  input: "^train_input_fn/bucket_queue/bucket/cond/cond_3/NoOp"
  attr {
    key: "T"
    value {
      type: DT_BOOL
    }
  }
  attr {
    key: "_class"
    value {
      list {
        s: "loc:@train_input_fn/bucket_queue/bucket/cond/cond_3/switch_f"
      }
    }
  }
  attr {
    key: "_output_shapes"
    value {
      list {
        shape {
        }
      }
    }
  }
}
node {
  name: "train_input_fn/bucket_queue/bucket/cond/cond_3/Merge"
  op: "Merge"
  input: "train_input_fn/bucket_queue/bucket/cond/cond_3/control_dependency_1"
  input: "train_input_fn/bucket_queue/bucket/cond/cond_3/control_dependency"
  attr {
    key: "N"
    value {
      i: 2
    }
  }
  attr {
    key: "T"
    value {
      type: DT_BOOL
    }
  }
  attr {
    key: "_output_shapes"
    value {
      list {
        shape {
        }
        shape {
        }
      }
    }
  }
}
node {
  name: "train_input_fn/bucket_queue/bucket/cond/Equal_4/y"
  op: "Const"
  input: "^train_input_fn/bucket_queue/bucket/cond/switch_t"
  attr {
    key: "_output_shapes"
    value {
      list {
        shape {
        }
      }
    }
  }
  attr {
    key: "dtype"
    value {
      type: DT_INT32
    }
  }
  attr {
    key: "value"
    value {
      tensor {
        dtype: DT_INT32
        tensor_shape {
        }
        int_val: 4
      }
    }
  }
}
node {
  name: "train_input_fn/bucket_queue/bucket/cond/Equal_4"
  op: "Equal"
  input: "train_input_fn/bucket_queue/bucket/cond/Equal/Switch:1"
  input: "train_input_fn/bucket_queue/bucket/cond/Equal_4/y"
  attr {
    key: "T"
    value {
      type: DT_INT32
    }
  }
  attr {
    key: "_output_shapes"
    value {
      list {
        shape {
        }
      }
    }
  }
}
node {
  name: "train_input_fn/bucket_queue/bucket/cond/cond_4/Switch"
  op: "Switch"
  input: "train_input_fn/bucket_queue/bucket/cond/Equal_4"
  input: "train_input_fn/bucket_queue/bucket/cond/Equal_4"
  attr {
    key: "T"
    value {
      type: DT_BOOL
    }
  }
  attr {
    key: "_output_shapes"
    value {
      list {
        shape {
        }
        shape {
        }
      }
    }
  }
}
node {
  name: "train_input_fn/bucket_queue/bucket/cond/cond_4/switch_t"
  op: "Identity"
  input: "train_input_fn/bucket_queue/bucket/cond/cond_4/Switch:1"
  attr {
    key: "T"
    value {
      type: DT_BOOL
    }
  }
  attr {
    key: "_output_shapes"
    value {
      list {
        shape {
        }
      }
    }
  }
}
node {
  name: "train_input_fn/bucket_queue/bucket/cond/cond_4/switch_f"
  op: "Identity"
  input: "train_input_fn/bucket_queue/bucket/cond/cond_4/Switch"
  attr {
    key: "T"
    value {
      type: DT_BOOL
    }
  }
  attr {
    key: "_output_shapes"
    value {
      list {
        shape {
        }
      }
    }
  }
}
node {
  name: "train_input_fn/bucket_queue/bucket/cond/cond_4/pred_id"
  op: "Identity"
  input: "train_input_fn/bucket_queue/bucket/cond/Equal_4"
  attr {
    key: "T"
    value {
      type: DT_BOOL
    }
  }
  attr {
    key: "_output_shapes"
    value {
      list {
        shape {
        }
      }
    }
  }
}
node {
  name: "train_input_fn/bucket_queue/bucket/cond/cond_4/bucket_queue_4_enqueue"
  op: "QueueEnqueueV2"
  input: "train_input_fn/bucket_queue/bucket/cond/cond_4/bucket_queue_4_enqueue/Switch_1:1"
  input: "train_input_fn/bucket_queue/bucket/cond/cond_4/bucket_queue_4_enqueue/Switch_2:1"
  input: "train_input_fn/bucket_queue/bucket/cond/cond_4/bucket_queue_4_enqueue/Switch_2:1"
  input: "train_input_fn/bucket_queue/bucket/cond/cond_4/bucket_queue_4_enqueue/Switch_3:1"
  input: "train_input_fn/bucket_queue/bucket/cond/cond_4/bucket_queue_4_enqueue/Switch_4:1"
  input: "train_input_fn/bucket_queue/bucket/cond/cond_4/bucket_queue_4_enqueue/Switch_5:1"
  attr {
    key: "Tcomponents"
    value {
      list {
        type: DT_INT32
        type: DT_INT32
        type: DT_STRING
        type: DT_INT32
        type: DT_STRING
      }
    }
  }
  attr {
    key: "timeout_ms"
    value {
      i: -1
    }
  }
}
node {
  name: "train_input_fn/bucket_queue/bucket/cond/cond_4/bucket_queue_4_enqueue/Switch"
  op: "Switch"
  input: "train_input_fn/bucket_queue/bucket/bucket_queue_4"
  input: "train_input_fn/bucket_queue/bucket/cond/pred_id"
  attr {
    key: "T"
    value {
      type: DT_RESOURCE
    }
  }
  attr {
    key: "_class"
    value {
      list {
        s: "loc:@train_input_fn/bucket_queue/bucket/bucket_queue_4"
      }
    }
  }
  attr {
    key: "_output_shapes"
    value {
      list {
        shape {
        }
        shape {
        }
      }
    }
  }
}
node {
  name: "train_input_fn/bucket_queue/bucket/cond/cond_4/bucket_queue_4_enqueue/Switch_1"
  op: "Switch"
  input: "train_input_fn/bucket_queue/bucket/cond/cond_4/bucket_queue_4_enqueue/Switch:1"
  input: "train_input_fn/bucket_queue/bucket/cond/cond_4/pred_id"
  attr {
    key: "T"
    value {
      type: DT_RESOURCE
    }
  }
  attr {
    key: "_class"
    value {
      list {
        s: "loc:@train_input_fn/bucket_queue/bucket/bucket_queue_4"
      }
    }
  }
  attr {
    key: "_output_shapes"
    value {
      list {
        shape {
        }
        shape {
        }
      }
    }
  }
}
node {
  name: "train_input_fn/bucket_queue/bucket/cond/cond_4/bucket_queue_4_enqueue/Switch_2"
  op: "Switch"
  input: "train_input_fn/bucket_queue/bucket/cond/cond/bucket_queue_0_enqueue/Switch_2:1"
  input: "train_input_fn/bucket_queue/bucket/cond/cond_4/pred_id"
  attr {
    key: "T"
    value {
      type: DT_INT32
    }
  }
  attr {
    key: "_class"
    value {
      list {
        s: "loc:@train_input_fn/Size"
      }
    }
  }
  attr {
    key: "_output_shapes"
    value {
      list {
        shape {
        }
        shape {
        }
      }
    }
  }
}
node {
  name: "train_input_fn/bucket_queue/bucket/cond/cond_4/bucket_queue_4_enqueue/Switch_3"
  op: "Switch"
  input: "train_input_fn/bucket_queue/bucket/cond/cond/bucket_queue_0_enqueue/Switch_4:1"
  input: "train_input_fn/bucket_queue/bucket/cond/cond_4/pred_id"
  attr {
    key: "T"
    value {
      type: DT_STRING
    }
  }
  attr {
    key: "_class"
    value {
      list {
        s: "loc:@train_input_fn/concat"
      }
    }
  }
  attr {
    key: "_output_shapes"
    value {
      list {
        shape {
          dim {
            size: -1
          }
        }
        shape {
          dim {
            size: -1
          }
        }
      }
    }
  }
}
node {
  name: "train_input_fn/bucket_queue/bucket/cond/cond_4/bucket_queue_4_enqueue/Switch_4"
  op: "Switch"
  input: "train_input_fn/bucket_queue/bucket/cond/cond/bucket_queue_0_enqueue/Switch_6:1"
  input: "train_input_fn/bucket_queue/bucket/cond/cond_4/pred_id"
  attr {
    key: "T"
    value {
      type: DT_INT32
    }
  }
  attr {
    key: "_class"
    value {
      list {
        s: "loc:@train_input_fn/Size_1"
      }
    }
  }
  attr {
    key: "_output_shapes"
    value {
      list {
        shape {
        }
        shape {
        }
      }
    }
  }
}
node {
  name: "train_input_fn/bucket_queue/bucket/cond/cond_4/bucket_queue_4_enqueue/Switch_5"
  op: "Switch"
  input: "train_input_fn/bucket_queue/bucket/cond/cond/bucket_queue_0_enqueue/Switch_8:1"
  input: "train_input_fn/bucket_queue/bucket/cond/cond_4/pred_id"
  attr {
    key: "T"
    value {
      type: DT_STRING
    }
  }
  attr {
    key: "_class"
    value {
      list {
        s: "loc:@train_input_fn/concat_2"
      }
    }
  }
  attr {
    key: "_output_shapes"
    value {
      list {
        shape {
          dim {
            size: -1
          }
        }
        shape {
          dim {
            size: -1
          }
        }
      }
    }
  }
}
node {
  name: "train_input_fn/bucket_queue/bucket/cond/cond_4/control_dependency"
  op: "Identity"
  input: "train_input_fn/bucket_queue/bucket/cond/cond_4/switch_t"
  input: "^train_input_fn/bucket_queue/bucket/cond/cond_4/bucket_queue_4_enqueue"
  attr {
    key: "T"
    value {
      type: DT_BOOL
    }
  }
  attr {
    key: "_class"
    value {
      list {
        s: "loc:@train_input_fn/bucket_queue/bucket/cond/cond_4/switch_t"
      }
    }
  }
  attr {
    key: "_output_shapes"
    value {
      list {
        shape {
        }
      }
    }
  }
}
node {
  name: "train_input_fn/bucket_queue/bucket/cond/cond_4/NoOp"
  op: "NoOp"
  input: "^train_input_fn/bucket_queue/bucket/cond/cond_4/switch_f"
}
node {
  name: "train_input_fn/bucket_queue/bucket/cond/cond_4/control_dependency_1"
  op: "Identity"
  input: "train_input_fn/bucket_queue/bucket/cond/cond_4/switch_f"
  input: "^train_input_fn/bucket_queue/bucket/cond/cond_4/NoOp"
  attr {
    key: "T"
    value {
      type: DT_BOOL
    }
  }
  attr {
    key: "_class"
    value {
      list {
        s: "loc:@train_input_fn/bucket_queue/bucket/cond/cond_4/switch_f"
      }
    }
  }
  attr {
    key: "_output_shapes"
    value {
      list {
        shape {
        }
      }
    }
  }
}
node {
  name: "train_input_fn/bucket_queue/bucket/cond/cond_4/Merge"
  op: "Merge"
  input: "train_input_fn/bucket_queue/bucket/cond/cond_4/control_dependency_1"
  input: "train_input_fn/bucket_queue/bucket/cond/cond_4/control_dependency"
  attr {
    key: "N"
    value {
      i: 2
    }
  }
  attr {
    key: "T"
    value {
      type: DT_BOOL
    }
  }
  attr {
    key: "_output_shapes"
    value {
      list {
        shape {
        }
        shape {
        }
      }
    }
  }
}
node {
  name: "train_input_fn/bucket_queue/bucket/cond/group_enqueues"
  op: "NoOp"
  input: "^train_input_fn/bucket_queue/bucket/cond/cond/Merge"
  input: "^train_input_fn/bucket_queue/bucket/cond/cond_1/Merge"
  input: "^train_input_fn/bucket_queue/bucket/cond/cond_2/Merge"
  input: "^train_input_fn/bucket_queue/bucket/cond/cond_3/Merge"
  input: "^train_input_fn/bucket_queue/bucket/cond/cond_4/Merge"
  input: "^train_input_fn/bucket_queue/bucket/cond/switch_t"
}
node {
  name: "train_input_fn/bucket_queue/bucket/cond/control_dependency"
  op: "Identity"
  input: "train_input_fn/bucket_queue/bucket/cond/switch_t"
  input: "^train_input_fn/bucket_queue/bucket/cond/group_enqueues"
  attr {
    key: "T"
    value {
      type: DT_BOOL
    }
  }
  attr {
    key: "_class"
    value {
      list {
        s: "loc:@train_input_fn/bucket_queue/bucket/cond/switch_t"
      }
    }
  }
  attr {
    key: "_output_shapes"
    value {
      list {
        shape {
        }
      }
    }
  }
}
node {
  name: "train_input_fn/bucket_queue/bucket/cond/NoOp"
  op: "NoOp"
  input: "^train_input_fn/bucket_queue/bucket/cond/switch_f"
}
node {
  name: "train_input_fn/bucket_queue/bucket/cond/control_dependency_1"
  op: "Identity"
  input: "train_input_fn/bucket_queue/bucket/cond/switch_f"
  input: "^train_input_fn/bucket_queue/bucket/cond/NoOp"
  attr {
    key: "T"
    value {
      type: DT_BOOL
    }
  }
  attr {
    key: "_class"
    value {
      list {
        s: "loc:@train_input_fn/bucket_queue/bucket/cond/switch_f"
      }
    }
  }
  attr {
    key: "_output_shapes"
    value {
      list {
        shape {
        }
      }
    }
  }
}
node {
  name: "train_input_fn/bucket_queue/bucket/cond/Merge"
  op: "Merge"
  input: "train_input_fn/bucket_queue/bucket/cond/control_dependency_1"
  input: "train_input_fn/bucket_queue/bucket/cond/control_dependency"
  attr {
    key: "N"
    value {
      i: 2
    }
  }
  attr {
    key: "T"
    value {
      type: DT_BOOL
    }
  }
  attr {
    key: "_output_shapes"
    value {
      list {
        shape {
        }
        shape {
        }
      }
    }
  }
}
node {
  name: "train_input_fn/bucket_queue/bucket/Const"
  op: "Const"
  attr {
    key: "_output_shapes"
    value {
      list {
        shape {
        }
      }
    }
  }
  attr {
    key: "dtype"
    value {
      type: DT_INT32
    }
  }
  attr {
    key: "value"
    value {
      tensor {
        dtype: DT_INT32
        tensor_shape {
        }
        int_val: 0
      }
    }
  }
}
node {
  name: "train_input_fn/bucket_queue/bucket/read_bucket_0/n"
  op: "Const"
  attr {
    key: "_output_shapes"
    value {
      list {
        shape {
        }
      }
    }
  }
  attr {
    key: "dtype"
    value {
      type: DT_INT32
    }
  }
  attr {
    key: "value"
    value {
      tensor {
        dtype: DT_INT32
        tensor_shape {
        }
        int_val: 1
      }
    }
  }
}
node {
  name: "train_input_fn/bucket_queue/bucket/read_bucket_0"
  op: "QueueDequeueManyV2"
  input: "train_input_fn/bucket_queue/bucket/bucket_queue_0"
  input: "train_input_fn/bucket_queue/bucket/read_bucket_0/n"
  attr {
    key: "_output_shapes"
    value {
      list {
        shape {
          dim {
            size: 1
          }
        }
        shape {
          dim {
            size: 1
          }
        }
        shape {
          dim {
            size: 1
          }
          dim {
            size: -1
          }
        }
        shape {
          dim {
            size: 1
          }
        }
        shape {
          dim {
            size: 1
          }
          dim {
            size: -1
          }
        }
      }
    }
  }
  attr {
    key: "component_types"
    value {
      list {
        type: DT_INT32
        type: DT_INT32
        type: DT_STRING
        type: DT_INT32
        type: DT_STRING
      }
    }
  }
  attr {
    key: "timeout_ms"
    value {
      i: -1
    }
  }
}
node {
  name: "train_input_fn/bucket_queue/bucket/enqueue_from_bucket_0"
  op: "QueueEnqueueV2"
  input: "train_input_fn/bucket_queue/bucket/top_queue"
  input: "train_input_fn/bucket_queue/bucket/Const"
  input: "train_input_fn/bucket_queue/bucket/read_bucket_0"
  input: "train_input_fn/bucket_queue/bucket/read_bucket_0:1"
  input: "train_input_fn/bucket_queue/bucket/read_bucket_0:2"
  input: "train_input_fn/bucket_queue/bucket/read_bucket_0:3"
  input: "train_input_fn/bucket_queue/bucket/read_bucket_0:4"
  attr {
    key: "Tcomponents"
    value {
      list {
        type: DT_INT32
        type: DT_INT32
        type: DT_INT32
        type: DT_STRING
        type: DT_INT32
        type: DT_STRING
      }
    }
  }
  attr {
    key: "timeout_ms"
    value {
      i: -1
    }
  }
}
node {
  name: "train_input_fn/bucket_queue/bucket/Const_1"
  op: "Const"
  attr {
    key: "_output_shapes"
    value {
      list {
        shape {
        }
      }
    }
  }
  attr {
    key: "dtype"
    value {
      type: DT_INT32
    }
  }
  attr {
    key: "value"
    value {
      tensor {
        dtype: DT_INT32
        tensor_shape {
        }
        int_val: 1
      }
    }
  }
}
node {
  name: "train_input_fn/bucket_queue/bucket/read_bucket_1/n"
  op: "Const"
  attr {
    key: "_output_shapes"
    value {
      list {
        shape {
        }
      }
    }
  }
  attr {
    key: "dtype"
    value {
      type: DT_INT32
    }
  }
  attr {
    key: "value"
    value {
      tensor {
        dtype: DT_INT32
        tensor_shape {
        }
        int_val: 1
      }
    }
  }
}
node {
  name: "train_input_fn/bucket_queue/bucket/read_bucket_1"
  op: "QueueDequeueManyV2"
  input: "train_input_fn/bucket_queue/bucket/bucket_queue_1"
  input: "train_input_fn/bucket_queue/bucket/read_bucket_1/n"
  attr {
    key: "_output_shapes"
    value {
      list {
        shape {
          dim {
            size: 1
          }
        }
        shape {
          dim {
            size: 1
          }
        }
        shape {
          dim {
            size: 1
          }
          dim {
            size: -1
          }
        }
        shape {
          dim {
            size: 1
          }
        }
        shape {
          dim {
            size: 1
          }
          dim {
            size: -1
          }
        }
      }
    }
  }
  attr {
    key: "component_types"
    value {
      list {
        type: DT_INT32
        type: DT_INT32
        type: DT_STRING
        type: DT_INT32
        type: DT_STRING
      }
    }
  }
  attr {
    key: "timeout_ms"
    value {
      i: -1
    }
  }
}
node {
  name: "train_input_fn/bucket_queue/bucket/enqueue_from_bucket_1"
  op: "QueueEnqueueV2"
  input: "train_input_fn/bucket_queue/bucket/top_queue"
  input: "train_input_fn/bucket_queue/bucket/Const_1"
  input: "train_input_fn/bucket_queue/bucket/read_bucket_1"
  input: "train_input_fn/bucket_queue/bucket/read_bucket_1:1"
  input: "train_input_fn/bucket_queue/bucket/read_bucket_1:2"
  input: "train_input_fn/bucket_queue/bucket/read_bucket_1:3"
  input: "train_input_fn/bucket_queue/bucket/read_bucket_1:4"
  attr {
    key: "Tcomponents"
    value {
      list {
        type: DT_INT32
        type: DT_INT32
        type: DT_INT32
        type: DT_STRING
        type: DT_INT32
        type: DT_STRING
      }
    }
  }
  attr {
    key: "timeout_ms"
    value {
      i: -1
    }
  }
}
node {
  name: "train_input_fn/bucket_queue/bucket/Const_2"
  op: "Const"
  attr {
    key: "_output_shapes"
    value {
      list {
        shape {
        }
      }
    }
  }
  attr {
    key: "dtype"
    value {
      type: DT_INT32
    }
  }
  attr {
    key: "value"
    value {
      tensor {
        dtype: DT_INT32
        tensor_shape {
        }
        int_val: 2
      }
    }
  }
}
node {
  name: "train_input_fn/bucket_queue/bucket/read_bucket_2/n"
  op: "Const"
  attr {
    key: "_output_shapes"
    value {
      list {
        shape {
        }
      }
    }
  }
  attr {
    key: "dtype"
    value {
      type: DT_INT32
    }
  }
  attr {
    key: "value"
    value {
      tensor {
        dtype: DT_INT32
        tensor_shape {
        }
        int_val: 1
      }
    }
  }
}
node {
  name: "train_input_fn/bucket_queue/bucket/read_bucket_2"
  op: "QueueDequeueManyV2"
  input: "train_input_fn/bucket_queue/bucket/bucket_queue_2"
  input: "train_input_fn/bucket_queue/bucket/read_bucket_2/n"
  attr {
    key: "_output_shapes"
    value {
      list {
        shape {
          dim {
            size: 1
          }
        }
        shape {
          dim {
            size: 1
          }
        }
        shape {
          dim {
            size: 1
          }
          dim {
            size: -1
          }
        }
        shape {
          dim {
            size: 1
          }
        }
        shape {
          dim {
            size: 1
          }
          dim {
            size: -1
          }
        }
      }
    }
  }
  attr {
    key: "component_types"
    value {
      list {
        type: DT_INT32
        type: DT_INT32
        type: DT_STRING
        type: DT_INT32
        type: DT_STRING
      }
    }
  }
  attr {
    key: "timeout_ms"
    value {
      i: -1
    }
  }
}
node {
  name: "train_input_fn/bucket_queue/bucket/enqueue_from_bucket_2"
  op: "QueueEnqueueV2"
  input: "train_input_fn/bucket_queue/bucket/top_queue"
  input: "train_input_fn/bucket_queue/bucket/Const_2"
  input: "train_input_fn/bucket_queue/bucket/read_bucket_2"
  input: "train_input_fn/bucket_queue/bucket/read_bucket_2:1"
  input: "train_input_fn/bucket_queue/bucket/read_bucket_2:2"
  input: "train_input_fn/bucket_queue/bucket/read_bucket_2:3"
  input: "train_input_fn/bucket_queue/bucket/read_bucket_2:4"
  attr {
    key: "Tcomponents"
    value {
      list {
        type: DT_INT32
        type: DT_INT32
        type: DT_INT32
        type: DT_STRING
        type: DT_INT32
        type: DT_STRING
      }
    }
  }
  attr {
    key: "timeout_ms"
    value {
      i: -1
    }
  }
}
node {
  name: "train_input_fn/bucket_queue/bucket/Const_3"
  op: "Const"
  attr {
    key: "_output_shapes"
    value {
      list {
        shape {
        }
      }
    }
  }
  attr {
    key: "dtype"
    value {
      type: DT_INT32
    }
  }
  attr {
    key: "value"
    value {
      tensor {
        dtype: DT_INT32
        tensor_shape {
        }
        int_val: 3
      }
    }
  }
}
node {
  name: "train_input_fn/bucket_queue/bucket/read_bucket_3/n"
  op: "Const"
  attr {
    key: "_output_shapes"
    value {
      list {
        shape {
        }
      }
    }
  }
  attr {
    key: "dtype"
    value {
      type: DT_INT32
    }
  }
  attr {
    key: "value"
    value {
      tensor {
        dtype: DT_INT32
        tensor_shape {
        }
        int_val: 1
      }
    }
  }
}
node {
  name: "train_input_fn/bucket_queue/bucket/read_bucket_3"
  op: "QueueDequeueManyV2"
  input: "train_input_fn/bucket_queue/bucket/bucket_queue_3"
  input: "train_input_fn/bucket_queue/bucket/read_bucket_3/n"
  attr {
    key: "_output_shapes"
    value {
      list {
        shape {
          dim {
            size: 1
          }
        }
        shape {
          dim {
            size: 1
          }
        }
        shape {
          dim {
            size: 1
          }
          dim {
            size: -1
          }
        }
        shape {
          dim {
            size: 1
          }
        }
        shape {
          dim {
            size: 1
          }
          dim {
            size: -1
          }
        }
      }
    }
  }
  attr {
    key: "component_types"
    value {
      list {
        type: DT_INT32
        type: DT_INT32
        type: DT_STRING
        type: DT_INT32
        type: DT_STRING
      }
    }
  }
  attr {
    key: "timeout_ms"
    value {
      i: -1
    }
  }
}
node {
  name: "train_input_fn/bucket_queue/bucket/enqueue_from_bucket_3"
  op: "QueueEnqueueV2"
  input: "train_input_fn/bucket_queue/bucket/top_queue"
  input: "train_input_fn/bucket_queue/bucket/Const_3"
  input: "train_input_fn/bucket_queue/bucket/read_bucket_3"
  input: "train_input_fn/bucket_queue/bucket/read_bucket_3:1"
  input: "train_input_fn/bucket_queue/bucket/read_bucket_3:2"
  input: "train_input_fn/bucket_queue/bucket/read_bucket_3:3"
  input: "train_input_fn/bucket_queue/bucket/read_bucket_3:4"
  attr {
    key: "Tcomponents"
    value {
      list {
        type: DT_INT32
        type: DT_INT32
        type: DT_INT32
        type: DT_STRING
        type: DT_INT32
        type: DT_STRING
      }
    }
  }
  attr {
    key: "timeout_ms"
    value {
      i: -1
    }
  }
}
node {
  name: "train_input_fn/bucket_queue/bucket/Const_4"
  op: "Const"
  attr {
    key: "_output_shapes"
    value {
      list {
        shape {
        }
      }
    }
  }
  attr {
    key: "dtype"
    value {
      type: DT_INT32
    }
  }
  attr {
    key: "value"
    value {
      tensor {
        dtype: DT_INT32
        tensor_shape {
        }
        int_val: 4
      }
    }
  }
}
node {
  name: "train_input_fn/bucket_queue/bucket/read_bucket_4/n"
  op: "Const"
  attr {
    key: "_output_shapes"
    value {
      list {
        shape {
        }
      }
    }
  }
  attr {
    key: "dtype"
    value {
      type: DT_INT32
    }
  }
  attr {
    key: "value"
    value {
      tensor {
        dtype: DT_INT32
        tensor_shape {
        }
        int_val: 1
      }
    }
  }
}
node {
  name: "train_input_fn/bucket_queue/bucket/read_bucket_4"
  op: "QueueDequeueManyV2"
  input: "train_input_fn/bucket_queue/bucket/bucket_queue_4"
  input: "train_input_fn/bucket_queue/bucket/read_bucket_4/n"
  attr {
    key: "_output_shapes"
    value {
      list {
        shape {
          dim {
            size: 1
          }
        }
        shape {
          dim {
            size: 1
          }
        }
        shape {
          dim {
            size: 1
          }
          dim {
            size: -1
          }
        }
        shape {
          dim {
            size: 1
          }
        }
        shape {
          dim {
            size: 1
          }
          dim {
            size: -1
          }
        }
      }
    }
  }
  attr {
    key: "component_types"
    value {
      list {
        type: DT_INT32
        type: DT_INT32
        type: DT_STRING
        type: DT_INT32
        type: DT_STRING
      }
    }
  }
  attr {
    key: "timeout_ms"
    value {
      i: -1
    }
  }
}
node {
  name: "train_input_fn/bucket_queue/bucket/enqueue_from_bucket_4"
  op: "QueueEnqueueV2"
  input: "train_input_fn/bucket_queue/bucket/top_queue"
  input: "train_input_fn/bucket_queue/bucket/Const_4"
  input: "train_input_fn/bucket_queue/bucket/read_bucket_4"
  input: "train_input_fn/bucket_queue/bucket/read_bucket_4:1"
  input: "train_input_fn/bucket_queue/bucket/read_bucket_4:2"
  input: "train_input_fn/bucket_queue/bucket/read_bucket_4:3"
  input: "train_input_fn/bucket_queue/bucket/read_bucket_4:4"
  attr {
    key: "Tcomponents"
    value {
      list {
        type: DT_INT32
        type: DT_INT32
        type: DT_INT32
        type: DT_STRING
        type: DT_INT32
        type: DT_STRING
      }
    }
  }
  attr {
    key: "timeout_ms"
    value {
      i: -1
    }
  }
}
node {
  name: "train_input_fn/bucket_queue/bucket/top_queue_Close"
  op: "QueueCloseV2"
  input: "train_input_fn/bucket_queue/bucket/top_queue"
  attr {
    key: "cancel_pending_enqueues"
    value {
      b: false
    }
  }
}
node {
  name: "train_input_fn/bucket_queue/bucket/top_queue_Close_1"
  op: "QueueCloseV2"
  input: "train_input_fn/bucket_queue/bucket/top_queue"
  attr {
    key: "cancel_pending_enqueues"
    value {
      b: true
    }
  }
}
node {
  name: "train_input_fn/bucket_queue/bucket/bucket_queue_0_Close"
  op: "QueueCloseV2"
  input: "train_input_fn/bucket_queue/bucket/bucket_queue_0"
  attr {
    key: "cancel_pending_enqueues"
    value {
      b: false
    }
  }
}
node {
  name: "train_input_fn/bucket_queue/bucket/bucket_queue_1_Close"
  op: "QueueCloseV2"
  input: "train_input_fn/bucket_queue/bucket/bucket_queue_1"
  attr {
    key: "cancel_pending_enqueues"
    value {
      b: false
    }
  }
}
node {
  name: "train_input_fn/bucket_queue/bucket/bucket_queue_2_Close"
  op: "QueueCloseV2"
  input: "train_input_fn/bucket_queue/bucket/bucket_queue_2"
  attr {
    key: "cancel_pending_enqueues"
    value {
      b: false
    }
  }
}
node {
  name: "train_input_fn/bucket_queue/bucket/bucket_queue_3_Close"
  op: "QueueCloseV2"
  input: "train_input_fn/bucket_queue/bucket/bucket_queue_3"
  attr {
    key: "cancel_pending_enqueues"
    value {
      b: false
    }
  }
}
node {
  name: "train_input_fn/bucket_queue/bucket/bucket_queue_4_Close"
  op: "QueueCloseV2"
  input: "train_input_fn/bucket_queue/bucket/bucket_queue_4"
  attr {
    key: "cancel_pending_enqueues"
    value {
      b: false
    }
  }
}
node {
  name: "train_input_fn/bucket_queue/bucket/group_deps"
  op: "NoOp"
  input: "^train_input_fn/bucket_queue/bucket/bucket_queue_0_Close"
  input: "^train_input_fn/bucket_queue/bucket/bucket_queue_1_Close"
  input: "^train_input_fn/bucket_queue/bucket/bucket_queue_2_Close"
  input: "^train_input_fn/bucket_queue/bucket/bucket_queue_3_Close"
  input: "^train_input_fn/bucket_queue/bucket/bucket_queue_4_Close"
}
node {
  name: "train_input_fn/bucket_queue/bucket/bucket_queue_0_Close_1"
  op: "QueueCloseV2"
  input: "train_input_fn/bucket_queue/bucket/bucket_queue_0"
  attr {
    key: "cancel_pending_enqueues"
    value {
      b: true
    }
  }
}
node {
  name: "train_input_fn/bucket_queue/bucket/bucket_queue_1_Close_1"
  op: "QueueCloseV2"
  input: "train_input_fn/bucket_queue/bucket/bucket_queue_1"
  attr {
    key: "cancel_pending_enqueues"
    value {
      b: true
    }
  }
}
node {
  name: "train_input_fn/bucket_queue/bucket/bucket_queue_2_Close_1"
  op: "QueueCloseV2"
  input: "train_input_fn/bucket_queue/bucket/bucket_queue_2"
  attr {
    key: "cancel_pending_enqueues"
    value {
      b: true
    }
  }
}
node {
  name: "train_input_fn/bucket_queue/bucket/bucket_queue_3_Close_1"
  op: "QueueCloseV2"
  input: "train_input_fn/bucket_queue/bucket/bucket_queue_3"
  attr {
    key: "cancel_pending_enqueues"
    value {
      b: true
    }
  }
}
node {
  name: "train_input_fn/bucket_queue/bucket/bucket_queue_4_Close_1"
  op: "QueueCloseV2"
  input: "train_input_fn/bucket_queue/bucket/bucket_queue_4"
  attr {
    key: "cancel_pending_enqueues"
    value {
      b: true
    }
  }
}
node {
  name: "train_input_fn/bucket_queue/bucket/group_deps_1"
  op: "NoOp"
  input: "^train_input_fn/bucket_queue/bucket/bucket_queue_0_Close_1"
  input: "^train_input_fn/bucket_queue/bucket/bucket_queue_1_Close_1"
  input: "^train_input_fn/bucket_queue/bucket/bucket_queue_2_Close_1"
  input: "^train_input_fn/bucket_queue/bucket/bucket_queue_3_Close_1"
  input: "^train_input_fn/bucket_queue/bucket/bucket_queue_4_Close_1"
}
node {
  name: "train_input_fn/bucket_queue/bucket/top_queue_Size"
  op: "QueueSizeV2"
  input: "train_input_fn/bucket_queue/bucket/top_queue"
  attr {
    key: "_output_shapes"
    value {
      list {
        shape {
        }
      }
    }
  }
}
node {
  name: "train_input_fn/bucket_queue/bucket/Cast"
  op: "Cast"
  input: "train_input_fn/bucket_queue/bucket/top_queue_Size"
  attr {
    key: "DstT"
    value {
      type: DT_FLOAT
    }
  }
  attr {
    key: "SrcT"
    value {
      type: DT_INT32
    }
  }
  attr {
    key: "_output_shapes"
    value {
      list {
        shape {
        }
      }
    }
  }
}
node {
  name: "train_input_fn/bucket_queue/bucket/bucket/train_input_fn/bucket_queue/bucket/bucket_queue_0/size/tags"
  op: "Const"
  attr {
    key: "_output_shapes"
    value {
      list {
        shape {
        }
      }
    }
  }
  attr {
    key: "dtype"
    value {
      type: DT_STRING
    }
  }
  attr {
    key: "value"
    value {
      tensor {
        dtype: DT_STRING
        tensor_shape {
        }
        string_val: "train_input_fn/bucket_queue/bucket/bucket/train_input_fn/bucket_queue/bucket/bucket_queue_0/size"
      }
    }
  }
}
node {
  name: "train_input_fn/bucket_queue/bucket/bucket/train_input_fn/bucket_queue/bucket/bucket_queue_0/size"
  op: "ScalarSummary"
  input: "train_input_fn/bucket_queue/bucket/bucket/train_input_fn/bucket_queue/bucket/bucket_queue_0/size/tags"
  input: "train_input_fn/bucket_queue/bucket/Cast"
  attr {
    key: "T"
    value {
      type: DT_FLOAT
    }
  }
  attr {
    key: "_output_shapes"
    value {
      list {
        shape {
        }
      }
    }
  }
}
node {
  name: "train_input_fn/bucket_queue/bucket/top_queue_Size_1"
  op: "QueueSizeV2"
  input: "train_input_fn/bucket_queue/bucket/top_queue"
  attr {
    key: "_output_shapes"
    value {
      list {
        shape {
        }
      }
    }
  }
}
node {
  name: "train_input_fn/bucket_queue/bucket/Cast_1"
  op: "Cast"
  input: "train_input_fn/bucket_queue/bucket/top_queue_Size_1"
  attr {
    key: "DstT"
    value {
      type: DT_FLOAT
    }
  }
  attr {
    key: "SrcT"
    value {
      type: DT_INT32
    }
  }
  attr {
    key: "_output_shapes"
    value {
      list {
        shape {
        }
      }
    }
  }
}
node {
  name: "train_input_fn/bucket_queue/bucket/bucket/train_input_fn/bucket_queue/bucket/bucket_queue_1/size/tags"
  op: "Const"
  attr {
    key: "_output_shapes"
    value {
      list {
        shape {
        }
      }
    }
  }
  attr {
    key: "dtype"
    value {
      type: DT_STRING
    }
  }
  attr {
    key: "value"
    value {
      tensor {
        dtype: DT_STRING
        tensor_shape {
        }
        string_val: "train_input_fn/bucket_queue/bucket/bucket/train_input_fn/bucket_queue/bucket/bucket_queue_1/size"
      }
    }
  }
}
node {
  name: "train_input_fn/bucket_queue/bucket/bucket/train_input_fn/bucket_queue/bucket/bucket_queue_1/size"
  op: "ScalarSummary"
  input: "train_input_fn/bucket_queue/bucket/bucket/train_input_fn/bucket_queue/bucket/bucket_queue_1/size/tags"
  input: "train_input_fn/bucket_queue/bucket/Cast_1"
  attr {
    key: "T"
    value {
      type: DT_FLOAT
    }
  }
  attr {
    key: "_output_shapes"
    value {
      list {
        shape {
        }
      }
    }
  }
}
node {
  name: "train_input_fn/bucket_queue/bucket/top_queue_Size_2"
  op: "QueueSizeV2"
  input: "train_input_fn/bucket_queue/bucket/top_queue"
  attr {
    key: "_output_shapes"
    value {
      list {
        shape {
        }
      }
    }
  }
}
node {
  name: "train_input_fn/bucket_queue/bucket/Cast_2"
  op: "Cast"
  input: "train_input_fn/bucket_queue/bucket/top_queue_Size_2"
  attr {
    key: "DstT"
    value {
      type: DT_FLOAT
    }
  }
  attr {
    key: "SrcT"
    value {
      type: DT_INT32
    }
  }
  attr {
    key: "_output_shapes"
    value {
      list {
        shape {
        }
      }
    }
  }
}
node {
  name: "train_input_fn/bucket_queue/bucket/bucket/train_input_fn/bucket_queue/bucket/bucket_queue_2/size/tags"
  op: "Const"
  attr {
    key: "_output_shapes"
    value {
      list {
        shape {
        }
      }
    }
  }
  attr {
    key: "dtype"
    value {
      type: DT_STRING
    }
  }
  attr {
    key: "value"
    value {
      tensor {
        dtype: DT_STRING
        tensor_shape {
        }
        string_val: "train_input_fn/bucket_queue/bucket/bucket/train_input_fn/bucket_queue/bucket/bucket_queue_2/size"
      }
    }
  }
}
node {
  name: "train_input_fn/bucket_queue/bucket/bucket/train_input_fn/bucket_queue/bucket/bucket_queue_2/size"
  op: "ScalarSummary"
  input: "train_input_fn/bucket_queue/bucket/bucket/train_input_fn/bucket_queue/bucket/bucket_queue_2/size/tags"
  input: "train_input_fn/bucket_queue/bucket/Cast_2"
  attr {
    key: "T"
    value {
      type: DT_FLOAT
    }
  }
  attr {
    key: "_output_shapes"
    value {
      list {
        shape {
        }
      }
    }
  }
}
node {
  name: "train_input_fn/bucket_queue/bucket/top_queue_Size_3"
  op: "QueueSizeV2"
  input: "train_input_fn/bucket_queue/bucket/top_queue"
  attr {
    key: "_output_shapes"
    value {
      list {
        shape {
        }
      }
    }
  }
}
node {
  name: "train_input_fn/bucket_queue/bucket/Cast_3"
  op: "Cast"
  input: "train_input_fn/bucket_queue/bucket/top_queue_Size_3"
  attr {
    key: "DstT"
    value {
      type: DT_FLOAT
    }
  }
  attr {
    key: "SrcT"
    value {
      type: DT_INT32
    }
  }
  attr {
    key: "_output_shapes"
    value {
      list {
        shape {
        }
      }
    }
  }
}
node {
  name: "train_input_fn/bucket_queue/bucket/bucket/train_input_fn/bucket_queue/bucket/bucket_queue_3/size/tags"
  op: "Const"
  attr {
    key: "_output_shapes"
    value {
      list {
        shape {
        }
      }
    }
  }
  attr {
    key: "dtype"
    value {
      type: DT_STRING
    }
  }
  attr {
    key: "value"
    value {
      tensor {
        dtype: DT_STRING
        tensor_shape {
        }
        string_val: "train_input_fn/bucket_queue/bucket/bucket/train_input_fn/bucket_queue/bucket/bucket_queue_3/size"
      }
    }
  }
}
node {
  name: "train_input_fn/bucket_queue/bucket/bucket/train_input_fn/bucket_queue/bucket/bucket_queue_3/size"
  op: "ScalarSummary"
  input: "train_input_fn/bucket_queue/bucket/bucket/train_input_fn/bucket_queue/bucket/bucket_queue_3/size/tags"
  input: "train_input_fn/bucket_queue/bucket/Cast_3"
  attr {
    key: "T"
    value {
      type: DT_FLOAT
    }
  }
  attr {
    key: "_output_shapes"
    value {
      list {
        shape {
        }
      }
    }
  }
}
node {
  name: "train_input_fn/bucket_queue/bucket/top_queue_Size_4"
  op: "QueueSizeV2"
  input: "train_input_fn/bucket_queue/bucket/top_queue"
  attr {
    key: "_output_shapes"
    value {
      list {
        shape {
        }
      }
    }
  }
}
node {
  name: "train_input_fn/bucket_queue/bucket/Cast_4"
  op: "Cast"
  input: "train_input_fn/bucket_queue/bucket/top_queue_Size_4"
  attr {
    key: "DstT"
    value {
      type: DT_FLOAT
    }
  }
  attr {
    key: "SrcT"
    value {
      type: DT_INT32
    }
  }
  attr {
    key: "_output_shapes"
    value {
      list {
        shape {
        }
      }
    }
  }
}
node {
  name: "train_input_fn/bucket_queue/bucket/bucket/train_input_fn/bucket_queue/bucket/bucket_queue_4/size/tags"
  op: "Const"
  attr {
    key: "_output_shapes"
    value {
      list {
        shape {
        }
      }
    }
  }
  attr {
    key: "dtype"
    value {
      type: DT_STRING
    }
  }
  attr {
    key: "value"
    value {
      tensor {
        dtype: DT_STRING
        tensor_shape {
        }
        string_val: "train_input_fn/bucket_queue/bucket/bucket/train_input_fn/bucket_queue/bucket/bucket_queue_4/size"
      }
    }
  }
}
node {
  name: "train_input_fn/bucket_queue/bucket/bucket/train_input_fn/bucket_queue/bucket/bucket_queue_4/size"
  op: "ScalarSummary"
  input: "train_input_fn/bucket_queue/bucket/bucket/train_input_fn/bucket_queue/bucket/bucket_queue_4/size/tags"
  input: "train_input_fn/bucket_queue/bucket/Cast_4"
  attr {
    key: "T"
    value {
      type: DT_FLOAT
    }
  }
  attr {
    key: "_output_shapes"
    value {
      list {
        shape {
        }
      }
    }
  }
}
node {
  name: "train_input_fn/bucket_queue/bucket/top_queue_Size_5"
  op: "QueueSizeV2"
  input: "train_input_fn/bucket_queue/bucket/top_queue"
  attr {
    key: "_output_shapes"
    value {
      list {
        shape {
        }
      }
    }
  }
}
node {
  name: "train_input_fn/bucket_queue/bucket/Cast_5"
  op: "Cast"
  input: "train_input_fn/bucket_queue/bucket/top_queue_Size_5"
  attr {
    key: "DstT"
    value {
      type: DT_FLOAT
    }
  }
  attr {
    key: "SrcT"
    value {
      type: DT_INT32
    }
  }
  attr {
    key: "_output_shapes"
    value {
      list {
        shape {
        }
      }
    }
  }
}
node {
  name: "train_input_fn/bucket_queue/bucket/mul/y"
  op: "Const"
  attr {
    key: "_output_shapes"
    value {
      list {
        shape {
        }
      }
    }
  }
  attr {
    key: "dtype"
    value {
      type: DT_FLOAT
    }
  }
  attr {
    key: "value"
    value {
      tensor {
        dtype: DT_FLOAT
        tensor_shape {
        }
        float_val: 0.00019936203898396343
      }
    }
  }
}
node {
  name: "train_input_fn/bucket_queue/bucket/mul"
  op: "Mul"
  input: "train_input_fn/bucket_queue/bucket/Cast_5"
  input: "train_input_fn/bucket_queue/bucket/mul/y"
  attr {
    key: "T"
    value {
      type: DT_FLOAT
    }
  }
  attr {
    key: "_output_shapes"
    value {
      list {
        shape {
        }
      }
    }
  }
}
node {
  name: "train_input_fn/bucket_queue/bucket/bucket/train_input_fn/bucket_queue/bucket/top_queue/fraction_of_5016_full/tags"
  op: "Const"
  attr {
    key: "_output_shapes"
    value {
      list {
        shape {
        }
      }
    }
  }
  attr {
    key: "dtype"
    value {
      type: DT_STRING
    }
  }
  attr {
    key: "value"
    value {
      tensor {
        dtype: DT_STRING
        tensor_shape {
        }
        string_val: "…"
      }
    }
  }
}
node {
  name: "train_input_fn/bucket_queue/bucket/bucket/train_input_fn/bucket_queue/bucket/top_queue/fraction_of_5016_full"
  op: "ScalarSummary"
  input: "train_input_fn/bucket_queue/bucket/bucket/train_input_fn/bucket_queue/bucket/top_queue/fraction_of_5016_full/tags"
  input: "train_input_fn/bucket_queue/bucket/mul"
  attr {
    key: "T"
    value {
      type: DT_FLOAT
    }
  }
  attr {
    key: "_output_shapes"
    value {
      list {
        shape {
        }
      }
    }
  }
}
node {
  name: "train_input_fn/bucket_queue/bucket/dequeue_top"
  op: "QueueDequeueV2"
  input: "train_input_fn/bucket_queue/bucket/top_queue"
  attr {
    key: "_output_shapes"
    value {
      list {
        shape {
        }
        shape {
          dim {
            size: 1
          }
        }
        shape {
          dim {
            size: 1
          }
        }
        shape {
          dim {
            size: 1
          }
          dim {
            size: -1
          }
        }
        shape {
          dim {
            size: 1
          }
        }
        shape {
          dim {
            size: 1
          }
          dim {
            size: -1
          }
        }
      }
    }
  }
  attr {
    key: "component_types"
    value {
      list {
        type: DT_INT32
        type: DT_INT32
        type: DT_INT32
        type: DT_STRING
        type: DT_INT32
        type: DT_STRING
      }
    }
  }
  attr {
    key: "timeout_ms"
    value {
      i: -1
    }
  }
}
node {
  name: "global_step/IsVariableInitialized"
  op: "IsVariableInitialized"
  input: "global_step"
  attr {
    key: "_class"
    value {
      list {
        s: "loc:@global_step"
      }
    }
  }
  attr {
    key: "_output_shapes"
    value {
      list {
        shape {
        }
      }
    }
  }
  attr {
    key: "dtype"
    value {
      type: DT_INT64
    }
  }
}
node {
  name: "global_step/cond/Switch"
  op: "Switch"
  input: "global_step/IsVariableInitialized"
  input: "global_step/IsVariableInitialized"
  attr {
    key: "T"
    value {
      type: DT_BOOL
    }
  }
  attr {
    key: "_output_shapes"
    value {
      list {
        shape {
        }
        shape {
        }
      }
    }
  }
}
node {
  name: "global_step/cond/switch_t"
  op: "Identity"
  input: "global_step/cond/Switch:1"
  attr {
    key: "T"
    value {
      type: DT_BOOL
    }
  }
  attr {
    key: "_output_shapes"
    value {
      list {
        shape {
        }
      }
    }
  }
}
node {
  name: "global_step/cond/switch_f"
  op: "Identity"
  input: "global_step/cond/Switch"
  attr {
    key: "T"
    value {
      type: DT_BOOL
    }
  }
  attr {
    key: "_output_shapes"
    value {
      list {
        shape {
        }
      }
    }
  }
}
node {
  name: "global_step/cond/pred_id"
  op: "Identity"
  input: "global_step/IsVariableInitialized"
  attr {
    key: "T"
    value {
      type: DT_BOOL
    }
  }
  attr {
    key: "_output_shapes"
    value {
      list {
        shape {
        }
      }
    }
  }
}
node {
  name: "global_step/cond/read"
  op: "Identity"
  input: "global_step/cond/read/Switch:1"
  attr {
    key: "T"
    value {
      type: DT_INT64
    }
  }
  attr {
    key: "_output_shapes"
    value {
      list {
        shape {
        }
      }
    }
  }
}
node {
  name: "global_step/cond/read/Switch"
  op: "RefSwitch"
  input: "global_step"
  input: "global_step/cond/pred_id"
  attr {
    key: "T"
    value {
      type: DT_INT64
    }
  }
  attr {
    key: "_class"
    value {
      list {
        s: "loc:@global_step"
      }
    }
  }
  attr {
    key: "_output_shapes"
    value {
      list {
        shape {
        }
        shape {
        }
      }
    }
  }
}
node {
  name: "global_step/cond/Switch_1"
  op: "Switch"
  input: "global_step/Initializer/zeros"
  input: "global_step/cond/pred_id"
  attr {
    key: "T"
    value {
      type: DT_INT64
    }
  }
  attr {
    key: "_class"
    value {
      list {
        s: "loc:@global_step"
      }
    }
  }
  attr {
    key: "_output_shapes"
    value {
      list {
        shape {
        }
        shape {
        }
      }
    }
  }
}
node {
  name: "global_step/cond/Merge"
  op: "Merge"
  input: "global_step/cond/Switch_1"
  input: "global_step/cond/read"
  attr {
    key: "N"
    value {
      i: 2
    }
  }
  attr {
    key: "T"
    value {
      type: DT_INT64
    }
  }
  attr {
    key: "_output_shapes"
    value {
      list {
        shape {
        }
        shape {
        }
      }
    }
  }
}
node {
  name: "global_step/add/y"
  op: "Const"
  attr {
    key: "_output_shapes"
    value {
      list {
        shape {
        }
      }
    }
  }
  attr {
    key: "dtype"
    value {
      type: DT_INT64
    }
  }
  attr {
    key: "value"
    value {
      tensor {
        dtype: DT_INT64
        tensor_shape {
        }
        int64_val: 0
      }
    }
  }
}
node {
  name: "global_step/add"
  op: "Add"
  input: "global_step/cond/Merge"
  input: "global_step/add/y"
  attr {
    key: "T"
    value {
      type: DT_INT64
    }
  }
  attr {
    key: "_output_shapes"
    value {
      list {
        shape {
        }
      }
    }
  }
}
node {
  name: "model/att_seq2seq/Const"
  op: "Const"
  attr {
    key: "_output_shapes"
    value {
      list {
        shape {
          dim {
            size: 7766
          }
        }
      }
    }
  }
  attr {
    key: "dtype"
    value {
      type: DT_STRING
    }
  }
  attr {
    key: "value"
    value {
      tensor {
        dtype: DT_STRING
        tensor_shape {
          dim {
            size: 7766
          }
        }
        string_val: ")"
        string_val: "("
        string_val: ";"
        string_val: "."
        string_val: "{"
        string_val: "}"
        string_val: ","
        string_val: "="
        string_val: "()"
        string_val: "final"
        string_val: "return"
        string_val: "if"
        string_val: "public"
        string_val: "int"
        string_val: "=="
        string_val: "0"
        string_val: "<"
        string_val: "]"
        string_val: "["
        string_val: ">"
        string_val: "+"
        string_val: "i"
        string_val: "null"
        string_val: "1"
        string_val: "String"
        string_val: "new"
        string_val: "@Override"
        string_val: "length"
        string_val: "&&"
        string_val: "boolean"
        string_val: "-"
        string_val: "?"
        string_val: ":"
        string_val: "static"
        string_val: "index"
        string_val: "!="
        string_val: "false"
        string_val: "value"
        string_val: "else"
        string_val: "throw"
        string_val: "void"
        string_val: "++"
        string_val: "||"
        string_val: "[]"
        string_val: "E"
        string_val: "this"
        string_val: "&"
        string_val: "size"
        string_val: "append"
        string_val: "2"
        string_val: "for"
        string_val: "true"
        string_val: "!"
        string_val: "c"
        string_val: "result"
        string_val: "throws"
        string_val: "private"
        string_val: "offset"
        string_val: "IOException"
        string_val: "key"
        string_val: "array"
        string_val: "long"
        string_val: "lr_1"
        string_val: "byte"
        string_val: "pos"
        string_val: "K"
        string_val: "V"
        string_val: "equals"
        string_val: "data"
        string_val: "Object"
        string_val: "buffer"
        string_val: "MST[NonVoidMethodCallMutator]MSP[]"
        string_val: "<<"
        string_val: "option"
        string_val: "str"
        string_val: "entry"
        string_val: ">="
        string_val: "buf"
        string_val: "iterator"
        string_val: "next"
        string_val: "case"
        string_val: "break;"
        string_val: "hashCode"
        string_val: "object"
        string_val: "while"
        string_val: "b"
        string_val: "ch"
        string_val: "lr_2"
        string_val: "+="
        string_val: "0xff"
        string_val: "args"
        string_val: "obj"
        string_val: "n"
        string_val: "file"
        string_val: "charAt"
        string_val: "char"
        string_val: "d"
        string_val: "get"
        string_val: "t"
        string_val: "j"
        string_val: "input"
        string_val: "k"
        string_val: "|"
        string_val: "add"
        string_val: "System"
        string_val: "len"
        string_val: "<="
        string_val: "hasNext"
        string_val: "4"
        string_val: "contains"
        string_val: "MST[rv.ABSMutator]MSP[]"
        string_val: "toString"
        string_val: "MST[rv.UOI3Mutator]MSP[]"
        string_val: "MST[rv.UOI1Mutator]MSP[]"
        string_val: ">>>"
        string_val: "type"
        string_val: "T"
        string_val: "MST[rv.UOI4Mutator]MSP[]"
        string_val: "super"
        string_val: "3"
        string_val: "MST[rv.UOI2Mutator]MSP[]"
        string_val: "map"
        string_val: "x"
        string_val: "instanceof"
        string_val: "MST[rv.CRCR5Mutator]MSP[]"
        string_val: "MST[rv.CRCR6Mutator]MSP[]"
        string_val: "MST[InlineConstantMutator]MSP[]"
        string_val: ">>"
        string_val: "8"
        string_val: "remove"
        string_val: "MST[rv.CRCR3Mutator]MSP[]"
        string_val: "token"
        string_val: "out"
        string_val: "h"
        string_val: "count"
        string_val: "*"
        string_val: "lr_3"
        string_val: "fileName"
        string_val: "MST[NegateConditionalsMutator]MSP[]"
        string_val: "MST[rv.ROR5Mutator]MSP[]"
        string_val: "IllegalArgumentException"
        string_val: "<>"
        string_val: "Map"
        string_val: "e"
        string_val: "--"
        string_val: "substring"
        string_val: "StringBuilder"
        string_val: "indexOf"
        string_val: "extends"
        string_val: "16"
        string_val: "File"
        string_val: "protected"
        string_val: "start"
        string_val: "/"
        string_val: "try"
        string_val: "bufPos"
        string_val: "Collection"
        string_val: "opt"
        string_val: "MST[ReturnValsMutator]MSP[]"
        string_val: "name"
        string_val: "MST[rv.CRCR1Mutator]MSP[]"
        string_val: "MST[RemoveConditionalMutator_EQUAL_ELSE]MSP[]"
        string_val: "MST[RemoveConditionalMutator_EQUAL_IF]MSP[]"
        string_val: "read"
        string_val: "lr_4"
        string_val: "Integer"
        string_val: "getKey"
        string_val: "group"
        string_val: "delta"
        string_val: "coll"
        string_val: "isEmpty"
        string_val: "parent"
        string_val: "MST[rv.CRCR4Mutator]MSP[]"
        string_val: "context"
        string_val: "numerator"
        string_val: "MST[rv.CRCR2Mutator]MSP[]"
        string_val: "Iterator"
        string_val: "denominator"
        string_val: "other"
        string_val: "MST[rv.ROR1Mutator]MSP[]"
        string_val: "MST[rv.ROR4Mutator]MSP[]"
        string_val: "set"
        string_val: "MST[rv.ROR2Mutator]MSP[]"
        string_val: "MST[rv.ROR3Mutator]MSP[]"
        string_val: "FTPFile"
        string_val: "bytes"
        string_val: "y"
        string_val: "decorated"
        string_val: "lr_5"
        string_val: "max"
        string_val: "List"
        string_val: "values"
        string_val: "key1"
        string_val: "end"
        string_val: "dataElement"
        string_val: "put"
        string_val: "it"
        string_val: "catch"
        string_val: "format"
        string_val: "chars"
        string_val: "in"
        string_val: "local"
        string_val: "key2"
        string_val: "lr_6"
        string_val: "Math"
        string_val: "write"
        string_val: "a"
        string_val: "vUp"
        string_val: "startsWith"
        string_val: "min"
        string_val: "^="
        string_val: "sb"
        string_val: "\'"
        string_val: "Type"
        string_val: "getValue"
        string_val: "current"
        string_val: "(byte)("
        string_val: "f"
        string_val: "prefix"
        string_val: "vDown"
        string_val: "left"
        string_val: "source"
        string_val: "list"
        string_val: "path"
        string_val: "lr_9"
        string_val: "lr_7"
        string_val: "options"
        string_val: "double"
        string_val: "results"
        string_val: "@SuppressWarnings"
        string_val: "right"
        string_val: "Whitelist"
        string_val: "element"
        string_val: "start1"
        string_val: "key3"
        string_val: "changed"
        string_val: "bitIndex"
        string_val: "%"
        string_val: "NOT_FOUND"
        string_val: "fraction"
        string_val: "charBuf"
        string_val: "m"
        string_val: "IllegalStateException"
        string_val: "Objects"
        string_val: "end1"
        string_val: "total"
        string_val: "line"
        string_val: "bomEnc"
        string_val: "println"
        string_val: "valueOf"
        string_val: "code"
        string_val: "Predicate"
        string_val: "node"
        string_val: "posWin"
        string_val: "posUnix"
        string_val: "matches"
        string_val: "s"
        string_val: "NoSuchElementException"
        string_val: "header"
        string_val: "predicate"
        string_val: "Fraction"
        string_val: "base"
        string_val: "requireNonNull"
        string_val: "clear"
        string_val: "..."
        string_val: "idx"
        string_val: "start2"
        string_val: "output"
        string_val: "octet"
        string_val: "address"
        string_val: "destDir"
        string_val: "lr_8"
        string_val: "sendCommand"
        string_val: "arraycopy"
        string_val: "end2"
        string_val: "switch"
        string_val: "hash"
        string_val: "MST[ConstructorCallMutator]MSP[]"
        string_val: "text"
        string_val: "Set"
        string_val: "addAttributes"
        string_val: "^"
        string_val: "Entry"
        string_val: "nextIndex"
        string_val: "item"
        string_val: "Class"
        string_val: "last"
        string_val: "filter"
        string_val: "return;"
        string_val: "xmlEnc"
        string_val: "previous"
        string_val: "encodeTable"
        string_val: "bufLength"
        string_val: "message"
        string_val: "encoding"
        string_val: "u"
        string_val: "iterable"
        string_val: "MST[MathMutator]MSP[]"
        string_val: "0x3f"
        string_val: "UnsupportedOperationException"
        string_val: "24"
        string_val: "MST[NullReturnValsMutator]MSP[]"
        string_val: "Character"
        string_val: "O"
        string_val: "MST[experimental.NakedReceiverMutator]MSP[]"
        string_val: "xmlGuessEnc"
        string_val: "Long"
        string_val: "string"
        string_val: "keys"
        string_val: "seq"
        string_val: "parts"
        string_val: "LENGTH"
        string_val: "(byte)"
        string_val: "synchronized"
        string_val: "MST[VoidMethodCallMutator]MSP[]"
        string_val: "SKB"
        string_val: "lr_27"
        string_val: "Option"
        string_val: "NumberFormatException"
        string_val: "msg"
        string_val: "value2"
        string_val: "5"
        string_val: "multi"
        string_val: "exists"
        string_val: "composite"
        string_val: "width"
        string_val: "arg"
        string_val: "port"
        string_val: "getClass"
        string_val: "HashEntry"
        string_val: "value1"
        string_val: "middle"
        string_val: "EOF"
        string_val: "binaryData"
        string_val: "6"
        string_val: "lastChar"
        string_val: "collection"
        string_val: "ArithmeticException"
        string_val: "old"
        string_val: "modCount"
        string_val: "default:"
        string_val: "answer"
        string_val: "lr_28"
        string_val: "Iterable"
        string_val: "pArray"
        string_val: "o"
        string_val: "host"
        string_val: "MST[ArgumentPropagationMutator]MSP[]"
        string_val: "directory"
        string_val: "-="
        string_val: "evaluate"
        string_val: "isDirectory"
        string_val: "getName"
        string_val: "toArray"
        string_val: "containsKey"
        string_val: "separator"
        string_val: "isVowel"
        string_val: "\'H\'"
        string_val: "client"
        string_val: "short"
        string_val: "value3"
        string_val: "|="
        string_val: "v"
        string_val: "lr_10"
        string_val: "\'.\'"
        string_val: "numberOfArgs"
        string_val: "comparator"
        string_val: "iter"
        string_val: "removed"
        string_val: "\'S\'"
        string_val: "lr_12"
        string_val: "MASK_6BITS"
        string_val: "encode"
        string_val: "BigInteger"
        string_val: "hasPrevious"
        string_val: "C"
        string_val: "ArrayList"
        string_val: "\'K\'"
        string_val: "command"
        string_val: "entrySet"
        string_val: "newCapacity"
        string_val: "float"
        string_val: "remaining"
        string_val: "err"
        string_val: "elements"
        string_val: "lineLength"
        string_val: "access"
        string_val: "lr_32"
        string_val: "curr"
        string_val: "IOFileFilter"
        string_val: "delegateMap"
        string_val: "lengthInBits"
        string_val: "ListIterator"
        string_val: "lr_38"
        string_val: "lr_11"
        string_val: "TimeStamp"
        string_val: "Calendar"
        string_val: "off"
        string_val: "Validate"
        string_val: "info"
        string_val: "hashIndex"
        string_val: "StringUtils"
        string_val: "currentIndex"
        string_val: "InetAddress"
        string_val: "transformer"
        string_val: "TypeVariable"
        string_val: "shape"
        string_val: "MST[rv.AOR1Mutator]MSP[]"
        string_val: "lr_36"
        string_val: "MST[rv.AOR3Mutator]MSP[]"
        string_val: "MST[rv.AOR4Mutator]MSP[]"
        string_val: "typeVarAssigns"
        string_val: "sum"
        string_val: "AbstractHashedMap"
        string_val: "MST[rv.AOR2Mutator]MSP[]"
        string_val: "MST[rv.AOD2Mutator]MSP[]"
        string_val: "codepoint"
        string_val: "MST[rv.AOD1Mutator]MSP[]"
        string_val: "pattern"
        string_val: "bufferUp"
        string_val: "addProtocols"
        string_val: "error"
        string_val: "Node"
        string_val: "MST[experimental.MemberVariableMutator]MSP[]"
        string_val: "ch0"
        string_val: "mut"
        string_val: "IndexOutOfBoundsException"
        string_val: "unprocessed"
        string_val: "unprocessedLength"
        string_val: "if("
        string_val: "prime"
        string_val: "ntpTime"
        string_val: "ui"
        string_val: "tokens"
        string_val: "localPort"
        string_val: "decode"
        string_val: "escape"
        string_val: "currentOption"
        string_val: "optionHandlers"
        string_val: "SPTRANS"
        string_val: "32"
        string_val: "child"
        string_val: "charSequence"
        string_val: "InputStream"
        string_val: "commentStart"
        string_val: "modulus"
        string_val: "ParameterizedType"
        string_val: "\'A\'"
        string_val: "Transformer"
        string_val: "inwd"
        string_val: "@Deprecated"
        string_val: "wdsz"
        string_val: "predicates"
        string_val: "first"
        string_val: "addTags"
        string_val: "Arrays"
        string_val: "keySet"
        string_val: "ParseException"
        string_val: "cTEnc"
        string_val: "validateArray"
        string_val: "compare"
        string_val: "arrayOctet"
        string_val: "endsWith"
        string_val: "matcher"
        string_val: "tb"
        string_val: "StrBuilder"
        string_val: "defaultValue"
        string_val: "_output_"
        string_val: "quoteChar"
        string_val: "eof"
        string_val: "7"
        string_val: "ex"
        string_val: "MultiKey"
        string_val: "getOption"
        string_val: "srcDir"
        string_val: "k1"
        string_val: "MST[ConditionalsBoundaryMutator]MSP[]"
        string_val: "prev"
        string_val: "MST[RemoveConditionalMutator_ORDER_ELSE]MSP[]"
        string_val: "lr_13"
        string_val: "StringBuffer"
        string_val: "MAX_VALUE"
        string_val: "container"
        string_val: "comparison"
        string_val: "WildcardType"
        string_val: "delimiter"
        string_val: "transform"
        string_val: "exit"
        string_val: "stopAtNonOption"
        string_val: "MST[RemoveConditionalMutator_ORDER_IF]MSP[]"
        string_val: "srcFile"
        string_val: "files"
        string_val: "l"
        string_val: "addAll"
        string_val: "accept"
        string_val: "mime"
        string_val: "isAssignable"
        string_val: "hasArg"
        string_val: "connect"
        string_val: "isEqualKey"
        string_val: "\'E\'"
        string_val: "allowSigns"
        string_val: "foundDigit"
        string_val: "IteratorUtils"
        string_val: "10"
        string_val: "0xFF"
        string_val: "inAvail"
        string_val: "toClass"
        string_val: "url"
        string_val: "permOp"
        string_val: "DecoderException"
        string_val: "DatagramPacket"
        string_val: "ul"
        string_val: "MIN_VALUE"
        string_val: "temp"
        string_val: "Closure"
        string_val: "lineSeparator"
        string_val: "lhs"
        string_val: "sub"
        string_val: "main"
        string_val: "key4"
        string_val: "_socket_"
        string_val: "MST[BooleanTrueReturnValsMutator]MSP[]"
        string_val: "FTPClientConfig"
        string_val: "31"
        string_val: "consumed"
        string_val: "doResponse"
        string_val: "ii"
        string_val: "flush"
        string_val: "UNIX_SEPARATOR"
        string_val: "replace"
        string_val: "datestr"
        string_val: "isLastChar"
        string_val: "root"
        string_val: "14"
        string_val: "\'X\'"
        string_val: "expPos"
        string_val: "subject"
        string_val: "buff"
        string_val: "timestamp"
        string_val: "timeout"
        string_val: "stringCache"
        string_val: "flags"
        string_val: "destFile"
        string_val: "OptionBuilder"
        string_val: "p"
        string_val: "CharSequence"
        string_val: "reset"
        string_val: "matchingOpts"
        string_val: "ibitWorkArea"
        string_val: "startIndex"
        string_val: "r"
        string_val: "seconds"
        string_val: "listener"
        string_val: "denom2"
        string_val: "setPermission"
        string_val: "encodeBase64"
        string_val: "bigInt"
        string_val: "getFraction"
        string_val: "from"
        string_val: "MST[EmptyObjectReturnValsMutator]MSP[]"
        string_val: "continue;"
        string_val: "currentLinePos"
        string_val: "file1"
        string_val: "numberOfBits"
        string_val: "0xffffffffL"
        string_val: "lr_15"
        string_val: "power"
        string_val: "file2"
        string_val: "copy"
        string_val: "NullPointerException"
        string_val: "I"
        string_val: "longOpt"
        string_val: "now"
        string_val: "lr_37"
        string_val: "direction"
        string_val: "wcsIdx"
        string_val: "isNextChar"
        string_val: "bom"
        string_val: "parseInt"
        string_val: "rhs"
        string_val: "getCount"
        string_val: "numberOfHashFunctions"
        string_val: "skipped"
        string_val: "DECODE_TABLE"
        string_val: "nCopies"
        string_val: "datagram"
        string_val: "lines"
        string_val: "indexOfLargestMobileInteger"
        string_val: "maxElements"
        string_val: "MessageFormat"
        string_val: "regionMatch"
        string_val: "bitlen"
        string_val: "Locale"
        string_val: "all"
        string_val: "NNTPCommand"
        string_val: "comments"
        string_val: "previousIndex"
        string_val: "octets"
        string_val: "insertOrder"
        string_val: "hasOption"
        string_val: "startPos"
        string_val: "trim"
        string_val: "unknownObjectBehavior"
        string_val: "close"
        string_val: "9"
        string_val: "print"
        string_val: "lr_14"
        string_val: "hash2"
        string_val: "converters"
        string_val: "caseSensitivity"
        string_val: "INSTANCE"
        string_val: "threadable"
        string_val: "EncoderException"
        string_val: "config"
        string_val: "setRawListing"
        string_val: "textIdx"
        string_val: "sz"
        string_val: "server"
        string_val: "tagName"
        string_val: "symb"
        string_val: "setTimestamp"
        string_val: "0x3"
        string_val: "retval"
        string_val: "chunkSize"
        string_val: "\'=\'"
        string_val: "MASK_8BITS"
        string_val: "split"
        string_val: "OutputStream"
        string_val: "slavoGermanic"
        string_val: "tmp"
        string_val: "lr_16"
        string_val: "hash3"
        string_val: "Double"
        string_val: "DoubleMetaphoneResult"
        string_val: "second"
        string_val: "currentNode"
        string_val: "httpContentType"
        string_val: "\'0\'"
        string_val: "ByteBuffer"
        string_val: "lr_35"
        string_val: "Number"
        string_val: "lr_34"
        string_val: "WINDOWS_SEPARATOR"
        string_val: "1000"
        string_val: "lr_17"
        string_val: "cmd"
        string_val: "offsetInBits"
        string_val: "baseTime"
        string_val: "xmlProlog"
        string_val: "lastReturnedIndex"
        string_val: "willResponse"
        string_val: "bound"
        string_val: "nextObjectSet"
        string_val: "for("
        string_val: "readLine"
        string_val: "builder"
        string_val: "to"
        string_val: "recordSeparator"
        string_val: "li"
        string_val: "hostname"
        string_val: "equalsIgnoreCase"
        string_val: "hash1"
        string_val: "REFERENCE_ID_INDEX"
        string_val: "Comparator"
        string_val: "cls"
        string_val: "setType"
        string_val: "HashFunctionIdentity"
        string_val: "lr_25"
        string_val: "script"
…
        s: "loc:@model/att_seq2seq/decode/attention_decoder/decoder/extended_multi_rnn_cell/cell_0/gru_cell/gates/kernel"
      }
    }
  }
  attr {
    key: "_output_shapes"
    value {
      list {
        shape {
          dim {
            size: 1280
          }
          dim {
            size: 512
          }
        }
      }
    }
  }
  attr {
    key: "use_locking"
    value {
      b: true
    }
  }
  attr {
    key: "validate_shape"
    value {
      b: true
    }
  }
}
node {
  name: "save/Assign_26"
  op: "Assign"
  input: "model/att_seq2seq/OptimizeLoss/model/att_seq2seq/decode/attention_decoder/decoder/extended_multi_rnn_cell/cell_1/gru_cell/candidate/bias/Adam"
  input: "save/RestoreV2:26"
  attr {
    key: "T"
    value {
      type: DT_FLOAT
    }
  }
  attr {
    key: "_class"
    value {
      list {
        s: "loc:@model/att_seq2seq/decode/attention_decoder/decoder/extended_multi_rnn_cell/cell_1/gru_cell/candidate/bias"
      }
    }
  }
  attr {
    key: "_output_shapes"
    value {
      list {
        shape {
          dim {
            size: 256
          }
        }
      }
    }
  }
  attr {
    key: "use_locking"
    value {
      b: true
    }
  }
  attr {
    key: "validate_shape"
    value {
      b: true
    }
  }
}
node {
  name: "save/Assign_27"
  op: "Assign"
  input: "model/att_seq2seq/OptimizeLoss/model/att_seq2seq/decode/attention_decoder/decoder/extended_multi_rnn_cell/cell_1/gru_cell/candidate/bias/Adam_1"
  input: "save/RestoreV2:27"
  attr {
    key: "T"
    value {
      type: DT_FLOAT
    }
  }
  attr {
    key: "_class"
    value {
      list {
        s: "loc:@model/att_seq2seq/decode/attention_decoder/decoder/extended_multi_rnn_cell/cell_1/gru_cell/candidate/bias"
      }
    }
  }
  attr {
    key: "_output_shapes"
    value {
      list {
        shape {
          dim {
            size: 256
          }
        }
      }
    }
  }
  attr {
    key: "use_locking"
    value {
      b: true
    }
  }
  attr {
    key: "validate_shape"
    value {
      b: true
    }
  }
}
node {
  name: "save/Assign_28"
  op: "Assign"
  input: "model/att_seq2seq/OptimizeLoss/model/att_seq2seq/decode/attention_decoder/decoder/extended_multi_rnn_cell/cell_1/gru_cell/candidate/kernel/Adam"
  input: "save/RestoreV2:28"
  attr {
    key: "T"
    value {
      type: DT_FLOAT
    }
  }
  attr {
    key: "_class"
    value {
      list {
        s: "loc:@model/att_seq2seq/decode/attention_decoder/decoder/extended_multi_rnn_cell/cell_1/gru_cell/candidate/kernel"
      }
    }
  }
  attr {
    key: "_output_shapes"
    value {
      list {
        shape {
          dim {
            size: 512
          }
          dim {
            size: 256
          }
        }
      }
    }
  }
  attr {
    key: "use_locking"
    value {
      b: true
    }
  }
  attr {
    key: "validate_shape"
    value {
      b: true
    }
  }
}
node {
  name: "save/Assign_29"
  op: "Assign"
  input: "model/att_seq2seq/OptimizeLoss/model/att_seq2seq/decode/attention_decoder/decoder/extended_multi_rnn_cell/cell_1/gru_cell/candidate/kernel/Adam_1"
  input: "save/RestoreV2:29"
  attr {
    key: "T"
    value {
      type: DT_FLOAT
    }
  }
  attr {
    key: "_class"
    value {
      list {
        s: "loc:@model/att_seq2seq/decode/attention_decoder/decoder/extended_multi_rnn_cell/cell_1/gru_cell/candidate/kernel"
      }
    }
  }
  attr {
    key: "_output_shapes"
    value {
      list {
        shape {
          dim {
            size: 512
          }
          dim {
            size: 256
          }
        }
      }
    }
  }
  attr {
    key: "use_locking"
    value {
      b: true
    }
  }
  attr {
    key: "validate_shape"
    value {
      b: true
    }
  }
}
node {
  name: "save/Assign_30"
  op: "Assign"
  input: "model/att_seq2seq/OptimizeLoss/model/att_seq2seq/decode/attention_decoder/decoder/extended_multi_rnn_cell/cell_1/gru_cell/gates/bias/Adam"
  input: "save/RestoreV2:30"
  attr {
    key: "T"
    value {
      type: DT_FLOAT
    }
  }
  attr {
    key: "_class"
    value {
      list {
        s: "loc:@model/att_seq2seq/decode/attention_decoder/decoder/extended_multi_rnn_cell/cell_1/gru_cell/gates/bias"
      }
    }
  }
  attr {
    key: "_output_shapes"
    value {
      list {
        shape {
          dim {
            size: 512
          }
        }
      }
    }
  }
  attr {
    key: "use_locking"
    value {
      b: true
    }
  }
  attr {
    key: "validate_shape"
    value {
      b: true
    }
  }
}
node {
  name: "save/Assign_31"
  op: "Assign"
  input: "model/att_seq2seq/OptimizeLoss/model/att_seq2seq/decode/attention_decoder/decoder/extended_multi_rnn_cell/cell_1/gru_cell/gates/bias/Adam_1"
  input: "save/RestoreV2:31"
  attr {
    key: "T"
    value {
      type: DT_FLOAT
    }
  }
  attr {
    key: "_class"
    value {
      list {
        s: "loc:@model/att_seq2seq/decode/attention_decoder/decoder/extended_multi_rnn_cell/cell_1/gru_cell/gates/bias"
      }
    }
  }
  attr {
    key: "_output_shapes"
    value {
      list {
        shape {
          dim {
            size: 512
          }
        }
      }
    }
  }
  attr {
    key: "use_locking"
    value {
      b: true
    }
  }
  attr {
    key: "validate_shape"
    value {
      b: true
    }
  }
}
node {
  name: "save/Assign_32"
  op: "Assign"
  input: "model/att_seq2seq/OptimizeLoss/model/att_seq2seq/decode/attention_decoder/decoder/extended_multi_rnn_cell/cell_1/gru_cell/gates/kernel/Adam"
  input: "save/RestoreV2:32"
  attr {
    key: "T"
    value {
      type: DT_FLOAT
    }
  }
  attr {
    key: "_class"
    value {
      list {
        s: "loc:@model/att_seq2seq/decode/attention_decoder/decoder/extended_multi_rnn_cell/cell_1/gru_cell/gates/kernel"
      }
    }
  }
  attr {
    key: "_output_shapes"
    value {
      list {
        shape {
          dim {
            size: 512
          }
          dim {
            size: 512
          }
        }
      }
    }
  }
  attr {
    key: "use_locking"
    value {
      b: true
    }
  }
  attr {
    key: "validate_shape"
    value {
      b: true
    }
  }
}
node {
  name: "save/Assign_33"
  op: "Assign"
  input: "model/att_seq2seq/OptimizeLoss/model/att_seq2seq/decode/attention_decoder/decoder/extended_multi_rnn_cell/cell_1/gru_cell/gates/kernel/Adam_1"
  input: "save/RestoreV2:33"
  attr {
    key: "T"
    value {
      type: DT_FLOAT
    }
  }
  attr {
    key: "_class"
    value {
      list {
        s: "loc:@model/att_seq2seq/decode/attention_decoder/decoder/extended_multi_rnn_cell/cell_1/gru_cell/gates/kernel"
      }
    }
  }
  attr {
    key: "_output_shapes"
    value {
      list {
        shape {
          dim {
            size: 512
          }
          dim {
            size: 512
          }
        }
      }
    }
  }
  attr {
    key: "use_locking"
    value {
      b: true
    }
  }
  attr {
    key: "validate_shape"
    value {
      b: true
    }
  }
}
node {
  name: "save/Assign_34"
  op: "Assign"
  input: "model/att_seq2seq/OptimizeLoss/model/att_seq2seq/decode/attention_decoder/decoder/logits/biases/Adam"
  input: "save/RestoreV2:34"
  attr {
    key: "T"
    value {
      type: DT_FLOAT
    }
  }
  attr {
    key: "_class"
    value {
      list {
        s: "loc:@model/att_seq2seq/decode/attention_decoder/decoder/logits/biases"
      }
    }
  }
  attr {
    key: "_output_shapes"
    value {
      list {
        shape {
          dim {
            size: 7825
          }
        }
      }
    }
  }
  attr {
    key: "use_locking"
    value {
      b: true
    }
  }
  attr {
    key: "validate_shape"
    value {
      b: true
    }
  }
}
node {
  name: "save/Assign_35"
  op: "Assign"
  input: "model/att_seq2seq/OptimizeLoss/model/att_seq2seq/decode/attention_decoder/decoder/logits/biases/Adam_1"
  input: "save/RestoreV2:35"
  attr {
    key: "T"
    value {
      type: DT_FLOAT
    }
  }
  attr {
    key: "_class"
    value {
      list {
        s: "loc:@model/att_seq2seq/decode/attention_decoder/decoder/logits/biases"
      }
    }
  }
  attr {
    key: "_output_shapes"
    value {
      list {
        shape {
          dim {
            size: 7825
          }
        }
      }
    }
  }
  attr {
    key: "use_locking"
    value {
      b: true
    }
  }
  attr {
    key: "validate_shape"
    value {
      b: true
    }
  }
}
node {
  name: "save/Assign_36"
  op: "Assign"
  input: "model/att_seq2seq/OptimizeLoss/model/att_seq2seq/decode/attention_decoder/decoder/logits/weights/Adam"
  input: "save/RestoreV2:36"
  attr {
    key: "T"
    value {
      type: DT_FLOAT
    }
  }
  attr {
    key: "_class"
    value {
      list {
        s: "loc:@model/att_seq2seq/decode/attention_decoder/decoder/logits/weights"
      }
    }
  }
  attr {
    key: "_output_shapes"
    value {
      list {
        shape {
          dim {
            size: 256
          }
          dim {
            size: 7825
          }
        }
      }
    }
  }
  attr {
    key: "use_locking"
    value {
      b: true
    }
  }
  attr {
    key: "validate_shape"
    value {
      b: true
    }
  }
}
node {
  name: "save/Assign_37"
  op: "Assign"
  input: "model/att_seq2seq/OptimizeLoss/model/att_seq2seq/decode/attention_decoder/decoder/logits/weights/Adam_1"
  input: "save/RestoreV2:37"
  attr {
    key: "T"
    value {
      type: DT_FLOAT
    }
  }
  attr {
    key: "_class"
    value {
      list {
        s: "loc:@model/att_seq2seq/decode/attention_decoder/decoder/logits/weights"
      }
    }
  }
  attr {
    key: "_output_shapes"
    value {
      list {
        shape {
          dim {
            size: 256
          }
          dim {
            size: 7825
          }
        }
      }
    }
  }
  attr {
    key: "use_locking"
    value {
      b: true
    }
  }
  attr {
    key: "validate_shape"
    value {
      b: true
    }
  }
}
node {
  name: "save/Assign_38"
  op: "Assign"
  input: "model/att_seq2seq/OptimizeLoss/model/att_seq2seq/decode/target_embedding/W/Adam"
  input: "save/RestoreV2:38"
  attr {
    key: "T"
    value {
      type: DT_FLOAT
    }
  }
  attr {
    key: "_class"
    value {
      list {
        s: "loc:@model/att_seq2seq/decode/target_embedding/W"
      }
    }
  }
  attr {
    key: "_output_shapes"
    value {
      list {
        shape {
          dim {
            size: 7825
          }
          dim {
            size: 512
          }
        }
      }
    }
  }
  attr {
    key: "use_locking"
    value {
      b: true
    }
  }
  attr {
    key: "validate_shape"
    value {
      b: true
    }
  }
}
node {
  name: "save/Assign_39"
  op: "Assign"
  input: "model/att_seq2seq/OptimizeLoss/model/att_seq2seq/decode/target_embedding/W/Adam_1"
  input: "save/RestoreV2:39"
  attr {
    key: "T"
    value {
      type: DT_FLOAT
    }
  }
  attr {
    key: "_class"
    value {
      list {
        s: "loc:@model/att_seq2seq/decode/target_embedding/W"
      }
    }
  }
  attr {
    key: "_output_shapes"
    value {
      list {
        shape {
          dim {
            size: 7825
          }
          dim {
            size: 512
          }
        }
      }
    }
  }
  attr {
    key: "use_locking"
    value {
      b: true
    }
  }
  attr {
    key: "validate_shape"
    value {
      b: true
    }
  }
}
node {
  name: "save/Assign_40"
  op: "Assign"
  input: "model/att_seq2seq/OptimizeLoss/model/att_seq2seq/encode/bidi_rnn_encoder/bidirectional_rnn/bw/gru_cell/candidate/bias/Adam"
  input: "save/RestoreV2:40"
  attr {
    key: "T"
    value {
      type: DT_FLOAT
    }
  }
  attr {
    key: "_class"
    value {
      list {
        s: "loc:@model/att_seq2seq/encode/bidi_rnn_encoder/bidirectional_rnn/bw/gru_cell/candidate/bias"
      }
    }
  }
  attr {
    key: "_output_shapes"
    value {
      list {
        shape {
          dim {
            size: 256
          }
        }
      }
    }
  }
  attr {
    key: "use_locking"
    value {
      b: true
    }
  }
  attr {
    key: "validate_shape"
    value {
      b: true
    }
  }
}
node {
  name: "save/Assign_41"
  op: "Assign"
  input: "model/att_seq2seq/OptimizeLoss/model/att_seq2seq/encode/bidi_rnn_encoder/bidirectional_rnn/bw/gru_cell/candidate/bias/Adam_1"
  input: "save/RestoreV2:41"
  attr {
    key: "T"
    value {
      type: DT_FLOAT
    }
  }
  attr {
    key: "_class"
    value {
      list {
        s: "loc:@model/att_seq2seq/encode/bidi_rnn_encoder/bidirectional_rnn/bw/gru_cell/candidate/bias"
      }
    }
  }
  attr {
    key: "_output_shapes"
    value {
      list {
        shape {
          dim {
            size: 256
          }
        }
      }
    }
  }
  attr {
    key: "use_locking"
    value {
      b: true
    }
  }
  attr {
    key: "validate_shape"
    value {
      b: true
    }
  }
}
node {
  name: "save/Assign_42"
  op: "Assign"
  input: "model/att_seq2seq/OptimizeLoss/model/att_seq2seq/encode/bidi_rnn_encoder/bidirectional_rnn/bw/gru_cell/candidate/kernel/Adam"
  input: "save/RestoreV2:42"
  attr {
    key: "T"
    value {
      type: DT_FLOAT
    }
  }
  attr {
    key: "_class"
    value {
      list {
        s: "loc:@model/att_seq2seq/encode/bidi_rnn_encoder/bidirectional_rnn/bw/gru_cell/candidate/kernel"
      }
    }
  }
  attr {
    key: "_output_shapes"
    value {
      list {
        shape {
          dim {
            size: 768
          }
          dim {
            size: 256
          }
        }
      }
    }
  }
  attr {
    key: "use_locking"
    value {
      b: true
    }
  }
  attr {
    key: "validate_shape"
    value {
      b: true
    }
  }
}
node {
  name: "save/Assign_43"
  op: "Assign"
  input: "model/att_seq2seq/OptimizeLoss/model/att_seq2seq/encode/bidi_rnn_encoder/bidirectional_rnn/bw/gru_cell/candidate/kernel/Adam_1"
  input: "save/RestoreV2:43"
  attr {
    key: "T"
    value {
      type: DT_FLOAT
    }
  }
  attr {
    key: "_class"
    value {
      list {
        s: "loc:@model/att_seq2seq/encode/bidi_rnn_encoder/bidirectional_rnn/bw/gru_cell/candidate/kernel"
      }
    }
  }
  attr {
    key: "_output_shapes"
    value {
      list {
        shape {
          dim {
            size: 768
          }
          dim {
            size: 256
          }
        }
      }
    }
  }
  attr {
    key: "use_locking"
    value {
      b: true
    }
  }
  attr {
    key: "validate_shape"
    value {
      b: true
    }
  }
}
node {
  name: "save/Assign_44"
  op: "Assign"
  input: "model/att_seq2seq/OptimizeLoss/model/att_seq2seq/encode/bidi_rnn_encoder/bidirectional_rnn/bw/gru_cell/gates/bias/Adam"
  input: "save/RestoreV2:44"
  attr {
    key: "T"
    value {
      type: DT_FLOAT
    }
  }
  attr {
    key: "_class"
    value {
      list {
        s: "loc:@model/att_seq2seq/encode/bidi_rnn_encoder/bidirectional_rnn/bw/gru_cell/gates/bias"
      }
    }
  }
  attr {
    key: "_output_shapes"
    value {
      list {
        shape {
          dim {
            size: 512
          }
        }
      }
    }
  }
  attr {
    key: "use_locking"
    value {
      b: true
    }
  }
  attr {
    key: "validate_shape"
    value {
      b: true
    }
  }
}
node {
  name: "save/Assign_45"
  op: "Assign"
  input: "model/att_seq2seq/OptimizeLoss/model/att_seq2seq/encode/bidi_rnn_encoder/bidirectional_rnn/bw/gru_cell/gates/bias/Adam_1"
  input: "save/RestoreV2:45"
  attr {
    key: "T"
    value {
      type: DT_FLOAT
    }
  }
  attr {
    key: "_class"
    value {
      list {
        s: "loc:@model/att_seq2seq/encode/bidi_rnn_encoder/bidirectional_rnn/bw/gru_cell/gates/bias"
      }
    }
  }
  attr {
    key: "_output_shapes"
    value {
      list {
        shape {
          dim {
            size: 512
          }
        }
      }
    }
  }
  attr {
    key: "use_locking"
    value {
      b: true
    }
  }
  attr {
    key: "validate_shape"
    value {
      b: true
    }
  }
}
node {
  name: "save/Assign_46"
  op: "Assign"
  input: "model/att_seq2seq/OptimizeLoss/model/att_seq2seq/encode/bidi_rnn_encoder/bidirectional_rnn/bw/gru_cell/gates/kernel/Adam"
  input: "save/RestoreV2:46"
  attr {
    key: "T"
    value {
      type: DT_FLOAT
    }
  }
  attr {
    key: "_class"
    value {
      list {
        s: "loc:@model/att_seq2seq/encode/bidi_rnn_encoder/bidirectional_rnn/bw/gru_cell/gates/kernel"
      }
    }
  }
  attr {
    key: "_output_shapes"
    value {
      list {
        shape {
          dim {
            size: 768
          }
          dim {
            size: 512
          }
        }
      }
    }
  }
  attr {
    key: "use_locking"
    value {
      b: true
    }
  }
  attr {
    key: "validate_shape"
    value {
      b: true
    }
  }
}
node {
  name: "save/Assign_47"
  op: "Assign"
  input: "model/att_seq2seq/OptimizeLoss/model/att_seq2seq/encode/bidi_rnn_encoder/bidirectional_rnn/bw/gru_cell/gates/kernel/Adam_1"
  input: "save/RestoreV2:47"
  attr {
    key: "T"
    value {
      type: DT_FLOAT
    }
  }
  attr {
    key: "_class"
    value {
      list {
        s: "loc:@model/att_seq2seq/encode/bidi_rnn_encoder/bidirectional_rnn/bw/gru_cell/gates/kernel"
      }
    }
  }
  attr {
    key: "_output_shapes"
    value {
      list {
        shape {
          dim {
            size: 768
          }
          dim {
            size: 512
          }
        }
      }
    }
  }
  attr {
    key: "use_locking"
    value {
      b: true
    }
  }
  attr {
    key: "validate_shape"
    value {
      b: true
    }
  }
}
node {
  name: "save/Assign_48"
  op: "Assign"
  input: "model/att_seq2seq/OptimizeLoss/model/att_seq2seq/encode/bidi_rnn_encoder/bidirectional_rnn/fw/gru_cell/candidate/bias/Adam"
  input: "save/RestoreV2:48"
  attr {
    key: "T"
    value {
      type: DT_FLOAT
    }
  }
  attr {
    key: "_class"
    value {
      list {
        s: "loc:@model/att_seq2seq/encode/bidi_rnn_encoder/bidirectional_rnn/fw/gru_cell/candidate/bias"
      }
    }
  }
  attr {
    key: "_output_shapes"
    value {
      list {
        shape {
          dim {
            size: 256
          }
        }
      }
    }
  }
  attr {
    key: "use_locking"
    value {
      b: true
    }
  }
  attr {
    key: "validate_shape"
    value {
      b: true
    }
  }
}
node {
  name: "save/Assign_49"
  op: "Assign"
  input: "model/att_seq2seq/OptimizeLoss/model/att_seq2seq/encode/bidi_rnn_encoder/bidirectional_rnn/fw/gru_cell/candidate/bias/Adam_1"
  input: "save/RestoreV2:49"
  attr {
    key: "T"
    value {
      type: DT_FLOAT
    }
  }
  attr {
    key: "_class"
    value {
      list {
        s: "loc:@model/att_seq2seq/encode/bidi_rnn_encoder/bidirectional_rnn/fw/gru_cell/candidate/bias"
      }
    }
  }
  attr {
    key: "_output_shapes"
    value {
      list {
        shape {
          dim {
            size: 256
          }
        }
      }
    }
  }
  attr {
    key: "use_locking"
    value {
      b: true
    }
  }
  attr {
    key: "validate_shape"
    value {
      b: true
    }
  }
}
node {
  name: "save/Assign_50"
  op: "Assign"
  input: "model/att_seq2seq/OptimizeLoss/model/att_seq2seq/encode/bidi_rnn_encoder/bidirectional_rnn/fw/gru_cell/candidate/kernel/Adam"
  input: "save/RestoreV2:50"
  attr {
    key: "T"
    value {
      type: DT_FLOAT
    }
  }
  attr {
    key: "_class"
    value {
      list {
        s: "loc:@model/att_seq2seq/encode/bidi_rnn_encoder/bidirectional_rnn/fw/gru_cell/candidate/kernel"
      }
    }
  }
  attr {
    key: "_output_shapes"
    value {
      list {
        shape {
          dim {
            size: 768
          }
          dim {
            size: 256
          }
        }
      }
    }
  }
  attr {
    key: "use_locking"
    value {
      b: true
    }
  }
  attr {
    key: "validate_shape"
    value {
      b: true
    }
  }
}
node {
  name: "save/Assign_51"
  op: "Assign"
  input: "model/att_seq2seq/OptimizeLoss/model/att_seq2seq/encode/bidi_rnn_encoder/bidirectional_rnn/fw/gru_cell/candidate/kernel/Adam_1"
  input: "save/RestoreV2:51"
  attr {
    key: "T"
    value {
      type: DT_FLOAT
    }
  }
  attr {
    key: "_class"
    value {
      list {
        s: "loc:@model/att_seq2seq/encode/bidi_rnn_encoder/bidirectional_rnn/fw/gru_cell/candidate/kernel"
      }
    }
  }
  attr {
    key: "_output_shapes"
    value {
      list {
        shape {
          dim {
            size: 768
          }
          dim {
            size: 256
          }
        }
      }
    }
  }
  attr {
    key: "use_locking"
    value {
      b: true
    }
  }
  attr {
    key: "validate_shape"
    value {
      b: true
    }
  }
}
node {
  name: "save/Assign_52"
  op: "Assign"
  input: "model/att_seq2seq/OptimizeLoss/model/att_seq2seq/encode/bidi_rnn_encoder/bidirectional_rnn/fw/gru_cell/gates/bias/Adam"
  input: "save/RestoreV2:52"
  attr {
    key: "T"
    value {
      type: DT_FLOAT
    }
  }
  attr {
    key: "_class"
    value {
      list {
        s: "loc:@model/att_seq2seq/encode/bidi_rnn_encoder/bidirectional_rnn/fw/gru_cell/gates/bias"
      }
    }
  }
  attr {
    key: "_output_shapes"
    value {
      list {
        shape {
          dim {
            size: 512
          }
        }
      }
    }
  }
  attr {
    key: "use_locking"
    value {
      b: true
    }
  }
  attr {
    key: "validate_shape"
    value {
      b: true
    }
  }
}
node {
  name: "save/Assign_53"
  op: "Assign"
  input: "model/att_seq2seq/OptimizeLoss/model/att_seq2seq/encode/bidi_rnn_encoder/bidirectional_rnn/fw/gru_cell/gates/bias/Adam_1"
  input: "save/RestoreV2:53"
  attr {
    key: "T"
    value {
      type: DT_FLOAT
    }
  }
  attr {
    key: "_class"
    value {
      list {
        s: "loc:@model/att_seq2seq/encode/bidi_rnn_encoder/bidirectional_rnn/fw/gru_cell/gates/bias"
      }
    }
  }
  attr {
    key: "_output_shapes"
    value {
      list {
        shape {
          dim {
            size: 512
          }
        }
      }
    }
  }
  attr {
    key: "use_locking"
    value {
      b: true
    }
  }
  attr {
    key: "validate_shape"
    value {
      b: true
    }
  }
}
node {
  name: "save/Assign_54"
  op: "Assign"
  input: "model/att_seq2seq/OptimizeLoss/model/att_seq2seq/encode/bidi_rnn_encoder/bidirectional_rnn/fw/gru_cell/gates/kernel/Adam"
  input: "save/RestoreV2:54"
  attr {
    key: "T"
    value {
      type: DT_FLOAT
    }
  }
  attr {
    key: "_class"
    value {
      list {
        s: "loc:@model/att_seq2seq/encode/bidi_rnn_encoder/bidirectional_rnn/fw/gru_cell/gates/kernel"
      }
    }
  }
  attr {
    key: "_output_shapes"
    value {
      list {
        shape {
          dim {
            size: 768
          }
          dim {
            size: 512
          }
        }
      }
    }
  }
  attr {
    key: "use_locking"
    value {
      b: true
    }
  }
  attr {
    key: "validate_shape"
    value {
      b: true
    }
  }
}
node {
  name: "save/Assign_55"
  op: "Assign"
  input: "model/att_seq2seq/OptimizeLoss/model/att_seq2seq/encode/bidi_rnn_encoder/bidirectional_rnn/fw/gru_cell/gates/kernel/Adam_1"
  input: "save/RestoreV2:55"
  attr {
    key: "T"
    value {
      type: DT_FLOAT
    }
  }
  attr {
    key: "_class"
    value {
      list {
        s: "loc:@model/att_seq2seq/encode/bidi_rnn_encoder/bidirectional_rnn/fw/gru_cell/gates/kernel"
      }
    }
  }
  attr {
    key: "_output_shapes"
    value {
      list {
        shape {
          dim {
            size: 768
          }
          dim {
            size: 512
          }
        }
      }
    }
  }
  attr {
    key: "use_locking"
    value {
      b: true
    }
  }
  attr {
    key: "validate_shape"
    value {
      b: true
    }
  }
}
node {
  name: "save/Assign_56"
  op: "Assign"
  input: "model/att_seq2seq/OptimizeLoss/model/att_seq2seq/encode/source_embedding/W/Adam"
  input: "save/RestoreV2:56"
  attr {
    key: "T"
    value {
      type: DT_FLOAT
    }
  }
  attr {
    key: "_class"
    value {
      list {
        s: "loc:@model/att_seq2seq/encode/source_embedding/W"
      }
    }
  }
  attr {
    key: "_output_shapes"
    value {
      list {
        shape {
          dim {
            size: 7766
          }
          dim {
            size: 512
          }
        }
      }
    }
  }
  attr {
    key: "use_locking"
    value {
      b: true
    }
  }
  attr {
    key: "validate_shape"
    value {
      b: true
    }
  }
}
node {
  name: "save/Assign_57"
  op: "Assign"
  input: "model/att_seq2seq/OptimizeLoss/model/att_seq2seq/encode/source_embedding/W/Adam_1"
  input: "save/RestoreV2:57"
  attr {
    key: "T"
    value {
      type: DT_FLOAT
    }
  }
  attr {
    key: "_class"
    value {
      list {
        s: "loc:@model/att_seq2seq/encode/source_embedding/W"
      }
    }
  }
  attr {
    key: "_output_shapes"
    value {
      list {
        shape {
          dim {
            size: 7766
          }
          dim {
            size: 512
          }
        }
      }
    }
  }
  attr {
    key: "use_locking"
    value {
      b: true
    }
  }
  attr {
    key: "validate_shape"
    value {
      b: true
    }
  }
}
node {
  name: "save/Assign_58"
  op: "Assign"
  input: "model/att_seq2seq/Variable"
  input: "save/RestoreV2:58"
  attr {
    key: "T"
    value {
      type: DT_INT32
    }
  }
  attr {
    key: "_class"
    value {
      list {
        s: "loc:@model/att_seq2seq/Variable"
      }
    }
  }
  attr {
    key: "_output_shapes"
    value {
      list {
        shape {
        }
      }
    }
  }
  attr {
    key: "use_locking"
    value {
      b: true
    }
  }
  attr {
    key: "validate_shape"
    value {
      b: true
    }
  }
}
node {
  name: "save/Assign_59"
  op: "Assign"
  input: "model/att_seq2seq/decode/attention/att_keys/biases"
  input: "save/RestoreV2:59"
  attr {
    key: "T"
    value {
      type: DT_FLOAT
    }
  }
  attr {
    key: "_class"
    value {
      list {
        s: "loc:@model/att_seq2seq/decode/attention/att_keys/biases"
      }
    }
  }
  attr {
    key: "_output_shapes"
    value {
      list {
        shape {
          dim {
            size: 512
          }
        }
      }
    }
  }
  attr {
    key: "use_locking"
    value {
      b: true
    }
  }
  attr {
    key: "validate_shape"
    value {
      b: true
    }
  }
}
node {
  name: "save/Assign_60"
  op: "Assign"
  input: "model/att_seq2seq/decode/attention/att_keys/weights"
  input: "save/RestoreV2:60"
  attr {
    key: "T"
    value {
      type: DT_FLOAT
    }
  }
  attr {
    key: "_class"
    value {
      list {
        s: "loc:@model/att_seq2seq/decode/attention/att_keys/weights"
      }
    }
  }
  attr {
    key: "_output_shapes"
    value {
      list {
        shape {
          dim {
            size: 512
          }
          dim {
            size: 512
          }
        }
      }
    }
  }
  attr {
    key: "use_locking"
    value {
      b: true
    }
  }
  attr {
    key: "validate_shape"
    value {
      b: true
    }
  }
}
node {
  name: "save/Assign_61"
  op: "Assign"
  input: "model/att_seq2seq/decode/attention/att_query/biases"
  input: "save/RestoreV2:61"
  attr {
    key: "T"
    value {
      type: DT_FLOAT
    }
  }
  attr {
    key: "_class"
    value {
      list {
        s: "loc:@model/att_seq2seq/decode/attention/att_query/biases"
      }
    }
  }
  attr {
    key: "_output_shapes"
    value {
      list {
        shape {
          dim {
            size: 512
          }
        }
      }
    }
  }
  attr {
    key: "use_locking"
    value {
      b: true
    }
  }
  attr {
    key: "validate_shape"
    value {
      b: true
    }
  }
}
node {
  name: "save/Assign_62"
  op: "Assign"
  input: "model/att_seq2seq/decode/attention/att_query/weights"
  input: "save/RestoreV2:62"
  attr {
    key: "T"
    value {
      type: DT_FLOAT
    }
  }
  attr {
    key: "_class"
    value {
      list {
        s: "loc:@model/att_seq2seq/decode/attention/att_query/weights"
      }
    }
  }
  attr {
    key: "_output_shapes"
    value {
      list {
        shape {
          dim {
            size: 256
          }
          dim {
            size: 512
          }
        }
      }
    }
  }
  attr {
    key: "use_locking"
    value {
      b: true
    }
  }
  attr {
    key: "validate_shape"
    value {
      b: true
    }
  }
}
node {
  name: "save/Assign_63"
  op: "Assign"
  input: "model/att_seq2seq/decode/attention/v_att"
  input: "save/RestoreV2:63"
  attr {
    key: "T"
    value {
      type: DT_FLOAT
    }
  }
  attr {
    key: "_class"
    value {
      list {
        s: "loc:@model/att_seq2seq/decode/attention/v_att"
      }
    }
  }
  attr {
    key: "_output_shapes"
    value {
      list {
        shape {
          dim {
            size: 512
          }
        }
      }
    }
  }
  attr {
    key: "use_locking"
    value {
      b: true
    }
  }
  attr {
    key: "validate_shape"
    value {
      b: true
    }
  }
}
node {
  name: "save/Assign_64"
  op: "Assign"
  input: "model/att_seq2seq/decode/attention_decoder/decoder/attention_mix/biases"
  input: "save/RestoreV2:64"
  attr {
    key: "T"
    value {
      type: DT_FLOAT
    }
  }
  attr {
    key: "_class"
    value {
      list {
        s: "loc:@model/att_seq2seq/decode/attention_decoder/decoder/attention_mix/biases"
      }
    }
  }
  attr {
    key: "_output_shapes"
    value {
      list {
        shape {
          dim {
            size: 256
          }
        }
      }
    }
  }
  attr {
    key: "use_locking"
    value {
      b: true
    }
  }
  attr {
    key: "validate_shape"
    value {
      b: true
    }
  }
}
node {
  name: "save/Assign_65"
  op: "Assign"
  input: "model/att_seq2seq/decode/attention_decoder/decoder/attention_mix/weights"
  input: "save/RestoreV2:65"
  attr {
    key: "T"
    value {
      type: DT_FLOAT
    }
  }
  attr {
    key: "_class"
    value {
      list {
        s: "loc:@model/att_seq2seq/decode/attention_decoder/decoder/attention_mix/weights"
      }
    }
  }
  attr {
    key: "_output_shapes"
    value {
      list {
        shape {
          dim {
            size: 768
          }
          dim {
            size: 256
          }
        }
      }
    }
  }
  attr {
    key: "use_locking"
    value {
      b: true
    }
  }
  attr {
    key: "validate_shape"
    value {
      b: true
    }
  }
}
node {
  name: "save/Assign_66"
  op: "Assign"
  input: "model/att_seq2seq/decode/attention_decoder/decoder/extended_multi_rnn_cell/cell_0/gru_cell/candidate/bias"
  input: "save/RestoreV2:66"
  attr {
    key: "T"
    value {
      type: DT_FLOAT
    }
  }
  attr {
    key: "_class"
    value {
      list {
        s: "loc:@model/att_seq2seq/decode/attention_decoder/decoder/extended_multi_rnn_cell/cell_0/gru_cell/candidate/bias"
      }
    }
  }
  attr {
    key: "_output_shapes"
    value {
      list {
        shape {
          dim {
            size: 256
          }
        }
      }
    }
  }
  attr {
    key: "use_locking"
    value {
      b: true
    }
  }
  attr {
    key: "validate_shape"
    value {
      b: true
    }
  }
}
node {
  name: "save/Assign_67"
  op: "Assign"
  input: "model/att_seq2seq/decode/attention_decoder/decoder/extended_multi_rnn_cell/cell_0/gru_cell/candidate/kernel"
  input: "save/RestoreV2:67"
  attr {
    key: "T"
    value {
      type: DT_FLOAT
    }
  }
  attr {
    key: "_class"
    value {
      list {
        s: "loc:@model/att_seq2seq/decode/attention_decoder/decoder/extended_multi_rnn_cell/cell_0/gru_cell/candidate/kernel"
      }
    }
  }
  attr {
    key: "_output_shapes"
    value {
      list {
        shape {
          dim {
            size: 1280
          }
          dim {
            size: 256
          }
        }
      }
    }
  }
  attr {
    key: "use_locking"
    value {
      b: true
    }
  }
  attr {
    key: "validate_shape"
    value {
      b: true
    }
  }
}
node {
  name: "save/Assign_68"
  op: "Assign"
  input: "model/att_seq2seq/decode/attention_decoder/decoder/extended_multi_rnn_cell/cell_0/gru_cell/gates/bias"
  input: "save/RestoreV2:68"
  attr {
    key: "T"
    value {
      type: DT_FLOAT
    }
  }
  attr {
    key: "_class"
    value {
      list {
        s: "loc:@model/att_seq2seq/decode/attention_decoder/decoder/extended_multi_rnn_cell/cell_0/gru_cell/gates/bias"
      }
    }
  }
  attr {
    key: "_output_shapes"
    value {
      list {
        shape {
          dim {
            size: 512
          }
        }
      }
    }
  }
  attr {
    key: "use_locking"
    value {
      b: true
    }
  }
  attr {
    key: "validate_shape"
    value {
      b: true
    }
  }
}
node {
  name: "save/Assign_69"
  op: "Assign"
  input: "model/att_seq2seq/decode/attention_decoder/decoder/extended_multi_rnn_cell/cell_0/gru_cell/gates/kernel"
  input: "save/RestoreV2:69"
  attr {
    key: "T"
    value {
      type: DT_FLOAT
    }
  }
  attr {
    key: "_class"
    value {
      list {
        s: "loc:@model/att_seq2seq/decode/attention_decoder/decoder/extended_multi_rnn_cell/cell_0/gru_cell/gates/kernel"
      }
    }
  }
  attr {
    key: "_output_shapes"
    value {
      list {
        shape {
          dim {
            size: 1280
          }
          dim {
            size: 512
          }
        }
      }
    }
  }
  attr {
    key: "use_locking"
    value {
      b: true
    }
  }
  attr {
    key: "validate_shape"
    value {
      b: true
    }
  }
}
node {
  name: "save/Assign_70"
  op: "Assign"
  input: "model/att_seq2seq/decode/attention_decoder/decoder/extended_multi_rnn_cell/cell_1/gru_cell/candidate/bias"
  input: "save/RestoreV2:70"
  attr {
    key: "T"
    value {
      type: DT_FLOAT
    }
  }
  attr {
    key: "_class"
    value {
      list {
        s: "loc:@model/att_seq2seq/decode/attention_decoder/decoder/extended_multi_rnn_cell/cell_1/gru_cell/candidate/bias"
      }
    }
  }
  attr {
    key: "_output_shapes"
    value {
      list {
        shape {
          dim {
            size: 256
          }
        }
      }
    }
  }
  attr {
    key: "use_locking"
    value {
      b: true
    }
  }
  attr {
    key: "validate_shape"
    value {
      b: true
    }
  }
}
node {
  name: "save/Assign_71"
  op: "Assign"
  input: "model/att_seq2seq/decode/attention_decoder/decoder/extended_multi_rnn_cell/cell_1/gru_cell/candidate/kernel"
  input: "save/RestoreV2:71"
  attr {
    key: "T"
    value {
      type: DT_FLOAT
    }
  }
  attr {
    key: "_class"
    value {
      list {
        s: "loc:@model/att_seq2seq/decode/attention_decoder/decoder/extended_multi_rnn_cell/cell_1/gru_cell/candidate/kernel"
      }
    }
  }
  attr {
    key: "_output_shapes"
    value {
      list {
        shape {
          dim {
            size: 512
          }
          dim {
            size: 256
          }
        }
      }
    }
  }
  attr {
    key: "use_locking"
    value {
      b: true
    }
  }
  attr {
    key: "validate_shape"
    value {
      b: true
    }
  }
}
node {
  name: "save/Assign_72"
  op: "Assign"
  input: "model/att_seq2seq/decode/attention_decoder/decoder/extended_multi_rnn_cell/cell_1/gru_cell/gates/bias"
  input: "save/RestoreV2:72"
  attr {
    key: "T"
    value {
      type: DT_FLOAT
    }
  }
  attr {
    key: "_class"
    value {
      list {
        s: "loc:@model/att_seq2seq/decode/attention_decoder/decoder/extended_multi_rnn_cell/cell_1/gru_cell/gates/bias"
      }
    }
  }
  attr {
    key: "_output_shapes"
    value {
      list {
        shape {
          dim {
            size: 512
          }
        }
      }
    }
  }
  attr {
    key: "use_locking"
    value {
      b: true
    }
  }
  attr {
    key: "validate_shape"
    value {
      b: true
    }
  }
}
node {
  name: "save/Assign_73"
  op: "Assign"
  input: "model/att_seq2seq/decode/attention_decoder/decoder/extended_multi_rnn_cell/cell_1/gru_cell/gates/kernel"
  input: "save/RestoreV2:73"
  attr {
    key: "T"
    value {
      type: DT_FLOAT
    }
  }
  attr {
    key: "_class"
    value {
      list {
        s: "loc:@model/att_seq2seq/decode/attention_decoder/decoder/extended_multi_rnn_cell/cell_1/gru_cell/gates/kernel"
      }
    }
  }
  attr {
    key: "_output_shapes"
    value {
      list {
        shape {
          dim {
            size: 512
          }
          dim {
            size: 512
          }
        }
      }
    }
  }
  attr {
    key: "use_locking"
    value {
      b: true
    }
  }
  attr {
    key: "validate_shape"
    value {
      b: true
    }
  }
}
node {
  name: "save/Assign_74"
  op: "Assign"
  input: "model/att_seq2seq/decode/attention_decoder/decoder/logits/biases"
  input: "save/RestoreV2:74"
  attr {
    key: "T"
    value {
      type: DT_FLOAT
    }
  }
  attr {
    key: "_class"
    value {
      list {
        s: "loc:@model/att_seq2seq/decode/attention_decoder/decoder/logits/biases"
      }
    }
  }
  attr {
    key: "_output_shapes"
    value {
      list {
        shape {
          dim {
            size: 7825
          }
        }
      }
    }
  }
  attr {
    key: "use_locking"
    value {
      b: true
    }
  }
  attr {
    key: "validate_shape"
    value {
      b: true
    }
  }
}
node {
  name: "save/Assign_75"
  op: "Assign"
  input: "model/att_seq2seq/decode/attention_decoder/decoder/logits/weights"
  input: "save/RestoreV2:75"
  attr {
    key: "T"
    value {
      type: DT_FLOAT
    }
  }
  attr {
    key: "_class"
    value {
      list {
        s: "loc:@model/att_seq2seq/decode/attention_decoder/decoder/logits/weights"
      }
    }
  }
  attr {
    key: "_output_shapes"
    value {
      list {
        shape {
          dim {
            size: 256
          }
          dim {
            size: 7825
          }
        }
      }
    }
  }
  attr {
    key: "use_locking"
    value {
      b: true
    }
  }
  attr {
    key: "validate_shape"
    value {
      b: true
    }
  }
}
node {
  name: "save/Assign_76"
  op: "Assign"
  input: "model/att_seq2seq/decode/target_embedding/W"
  input: "save/RestoreV2:76"
  attr {
    key: "T"
    value {
      type: DT_FLOAT
    }
  }
  attr {
    key: "_class"
    value {
      list {
        s: "loc:@model/att_seq2seq/decode/target_embedding/W"
      }
    }
  }
  attr {
    key: "_output_shapes"
    value {
      list {
        shape {
          dim {
            size: 7825
          }
          dim {
            size: 512
          }
        }
      }
    }
  }
  attr {
    key: "use_locking"
    value {
      b: true
    }
  }
  attr {
    key: "validate_shape"
    value {
      b: true
    }
  }
}
node {
  name: "save/Assign_77"
  op: "Assign"
  input: "model/att_seq2seq/encode/bidi_rnn_encoder/bidirectional_rnn/bw/gru_cell/candidate/bias"
  input: "save/RestoreV2:77"
  attr {
    key: "T"
    value {
      type: DT_FLOAT
    }
  }
  attr {
    key: "_class"
    value {
      list {
        s: "loc:@model/att_seq2seq/encode/bidi_rnn_encoder/bidirectional_rnn/bw/gru_cell/candidate/bias"
      }
    }
  }
  attr {
    key: "_output_shapes"
    value {
      list {
        shape {
          dim {
            size: 256
          }
        }
      }
    }
  }
  attr {
    key: "use_locking"
    value {
      b: true
    }
  }
  attr {
    key: "validate_shape"
    value {
      b: true
    }
  }
}
node {
  name: "save/Assign_78"
  op: "Assign"
  input: "model/att_seq2seq/encode/bidi_rnn_encoder/bidirectional_rnn/bw/gru_cell/candidate/kernel"
  input: "save/RestoreV2:78"
  attr {
    key: "T"
    value {
      type: DT_FLOAT
    }
  }
  attr {
    key: "_class"
    value {
      list {
        s: "loc:@model/att_seq2seq/encode/bidi_rnn_encoder/bidirectional_rnn/bw/gru_cell/candidate/kernel"
      }
    }
  }
  attr {
    key: "_output_shapes"
    value {
      list {
        shape {
          dim {
            size: 768
          }
          dim {
            size: 256
          }
        }
      }
    }
  }
  attr {
    key: "use_locking"
    value {
      b: true
    }
  }
  attr {
    key: "validate_shape"
    value {
      b: true
    }
  }
}
node {
  name: "save/Assign_79"
  op: "Assign"
  input: "model/att_seq2seq/encode/bidi_rnn_encoder/bidirectional_rnn/bw/gru_cell/gates/bias"
  input: "save/RestoreV2:79"
  attr {
    key: "T"
    value {
      type: DT_FLOAT
    }
  }
  attr {
    key: "_class"
    value {
      list {
        s: "loc:@model/att_seq2seq/encode/bidi_rnn_encoder/bidirectional_rnn/bw/gru_cell/gates/bias"
      }
    }
  }
  attr {
    key: "_output_shapes"
    value {
      list {
        shape {
          dim {
            size: 512
          }
        }
      }
    }
  }
  attr {
    key: "use_locking"
    value {
      b: true
    }
  }
  attr {
    key: "validate_shape"
    value {
      b: true
    }
  }
}
node {
  name: "save/Assign_80"
  op: "Assign"
  input: "model/att_seq2seq/encode/bidi_rnn_encoder/bidirectional_rnn/bw/gru_cell/gates/kernel"
  input: "save/RestoreV2:80"
  attr {
    key: "T"
    value {
      type: DT_FLOAT
    }
  }
  attr {
    key: "_class"
    value {
      list {
        s: "loc:@model/att_seq2seq/encode/bidi_rnn_encoder/bidirectional_rnn/bw/gru_cell/gates/kernel"
      }
    }
  }
  attr {
    key: "_output_shapes"
    value {
      list {
        shape {
          dim {
            size: 768
          }
          dim {
            size: 512
          }
        }
      }
    }
  }
  attr {
    key: "use_locking"
    value {
      b: true
    }
  }
  attr {
    key: "validate_shape"
    value {
      b: true
    }
  }
}
node {
  name: "save/Assign_81"
  op: "Assign"
  input: "model/att_seq2seq/encode/bidi_rnn_encoder/bidirectional_rnn/fw/gru_cell/candidate/bias"
  input: "save/RestoreV2:81"
  attr {
    key: "T"
    value {
      type: DT_FLOAT
    }
  }
  attr {
    key: "_class"
    value {
      list {
        s: "loc:@model/att_seq2seq/encode/bidi_rnn_encoder/bidirectional_rnn/fw/gru_cell/candidate/bias"
      }
    }
  }
  attr {
    key: "_output_shapes"
    value {
      list {
        shape {
          dim {
            size: 256
          }
        }
      }
    }
  }
  attr {
    key: "use_locking"
    value {
      b: true
    }
  }
  attr {
    key: "validate_shape"
    value {
      b: true
    }
  }
}
node {
  name: "save/Assign_82"
  op: "Assign"
  input: "model/att_seq2seq/encode/bidi_rnn_encoder/bidirectional_rnn/fw/gru_cell/candidate/kernel"
  input: "save/RestoreV2:82"
  attr {
    key: "T"
    value {
      type: DT_FLOAT
    }
  }
  attr {
    key: "_class"
    value {
      list {
        s: "loc:@model/att_seq2seq/encode/bidi_rnn_encoder/bidirectional_rnn/fw/gru_cell/candidate/kernel"
      }
    }
  }
  attr {
    key: "_output_shapes"
    value {
      list {
        shape {
          dim {
            size: 768
          }
          dim {
            size: 256
          }
        }
      }
    }
  }
  attr {
    key: "use_locking"
    value {
      b: true
    }
  }
  attr {
    key: "validate_shape"
    value {
      b: true
    }
  }
}
node {
  name: "save/Assign_83"
  op: "Assign"
  input: "model/att_seq2seq/encode/bidi_rnn_encoder/bidirectional_rnn/fw/gru_cell/gates/bias"
  input: "save/RestoreV2:83"
  attr {
    key: "T"
    value {
      type: DT_FLOAT
    }
  }
  attr {
    key: "_class"
    value {
      list {
        s: "loc:@model/att_seq2seq/encode/bidi_rnn_encoder/bidirectional_rnn/fw/gru_cell/gates/bias"
      }
    }
  }
  attr {
    key: "_output_shapes"
    value {
      list {
        shape {
          dim {
            size: 512
          }
        }
      }
    }
  }
  attr {
    key: "use_locking"
    value {
      b: true
    }
  }
  attr {
    key: "validate_shape"
    value {
      b: true
    }
  }
}
node {
  name: "save/Assign_84"
  op: "Assign"
  input: "model/att_seq2seq/encode/bidi_rnn_encoder/bidirectional_rnn/fw/gru_cell/gates/kernel"
  input: "save/RestoreV2:84"
  attr {
    key: "T"
    value {
      type: DT_FLOAT
    }
  }
  attr {
    key: "_class"
    value {
      list {
        s: "loc:@model/att_seq2seq/encode/bidi_rnn_encoder/bidirectional_rnn/fw/gru_cell/gates/kernel"
      }
    }
  }
  attr {
    key: "_output_shapes"
    value {
      list {
        shape {
          dim {
            size: 768
          }
          dim {
            size: 512
          }
        }
      }
    }
  }
  attr {
    key: "use_locking"
    value {
      b: true
    }
  }
  attr {
    key: "validate_shape"
    value {
      b: true
    }
  }
}
node {
  name: "save/Assign_85"
  op: "Assign"
  input: "model/att_seq2seq/encode/source_embedding/W"
  input: "save/RestoreV2:85"
  attr {
    key: "T"
    value {
      type: DT_FLOAT
    }
  }
  attr {
    key: "_class"
    value {
      list {
        s: "loc:@model/att_seq2seq/encode/source_embedding/W"
      }
    }
  }
  attr {
    key: "_output_shapes"
    value {
      list {
        shape {
          dim {
            size: 7766
          }
          dim {
            size: 512
          }
        }
      }
    }
  }
  attr {
    key: "use_locking"
    value {
      b: true
    }
  }
  attr {
    key: "validate_shape"
    value {
      b: true
    }
  }
}
node {
  name: "save/restore_shard"
  op: "NoOp"
  input: "^save/Assign"
  input: "^save/Assign_1"
  input: "^save/Assign_10"
  input: "^save/Assign_11"
  input: "^save/Assign_12"
  input: "^save/Assign_13"
  input: "^save/Assign_14"
  input: "^save/Assign_15"
  input: "^save/Assign_16"
  input: "^save/Assign_17"
  input: "^save/Assign_18"
  input: "^save/Assign_19"
  input: "^save/Assign_2"
  input: "^save/Assign_20"
  input: "^save/Assign_21"
  input: "^save/Assign_22"
  input: "^save/Assign_23"
  input: "^save/Assign_24"
  input: "^save/Assign_25"
  input: "^save/Assign_26"
  input: "^save/Assign_27"
  input: "^save/Assign_28"
  input: "^save/Assign_29"
  input: "^save/Assign_3"
  input: "^save/Assign_30"
  input: "^save/Assign_31"
  input: "^save/Assign_32"
  input: "^save/Assign_33"
  input: "^save/Assign_34"
  input: "^save/Assign_35"
  input: "^save/Assign_36"
  input: "^save/Assign_37"
  input: "^save/Assign_38"
  input: "^save/Assign_39"
  input: "^save/Assign_4"
  input: "^save/Assign_40"
  input: "^save/Assign_41"
  input: "^save/Assign_42"
  input: "^save/Assign_43"
  input: "^save/Assign_44"
  input: "^save/Assign_45"
  input: "^save/Assign_46"
  input: "^save/Assign_47"
  input: "^save/Assign_48"
  input: "^save/Assign_49"
  input: "^save/Assign_5"
  input: "^save/Assign_50"
  input: "^save/Assign_51"
  input: "^save/Assign_52"
  input: "^save/Assign_53"
  input: "^save/Assign_54"
  input: "^save/Assign_55"
  input: "^save/Assign_56"
  input: "^save/Assign_57"
  input: "^save/Assign_58"
  input: "^save/Assign_59"
  input: "^save/Assign_6"
  input: "^save/Assign_60"
  input: "^save/Assign_61"
  input: "^save/Assign_62"
  input: "^save/Assign_63"
  input: "^save/Assign_64"
  input: "^save/Assign_65"
  input: "^save/Assign_66"
  input: "^save/Assign_67"
  input: "^save/Assign_68"
  input: "^save/Assign_69"
  input: "^save/Assign_7"
  input: "^save/Assign_70"
  input: "^save/Assign_71"
  input: "^save/Assign_72"
  input: "^save/Assign_73"
  input: "^save/Assign_74"
  input: "^save/Assign_75"
  input: "^save/Assign_76"
  input: "^save/Assign_77"
  input: "^save/Assign_78"
  input: "^save/Assign_79"
  input: "^save/Assign_8"
  input: "^save/Assign_80"
  input: "^save/Assign_81"
  input: "^save/Assign_82"
  input: "^save/Assign_83"
  input: "^save/Assign_84"
  input: "^save/Assign_85"
  input: "^save/Assign_9"
}
node {
  name: "save/restore_all"
  op: "NoOp"
  input: "^save/restore_shard"
}
library {
  function {
    signature {
      name: "att_sum_bahdanau"
      input_arg {
        name: "v_att"
        type: DT_FLOAT
      }
      input_arg {
        name: "keys"
        type: DT_FLOAT
      }
      input_arg {
        name: "query"
        type: DT_FLOAT
      }
      output_arg {
        name: "sum"
        type: DT_FLOAT
      }
      description: "Calculates a batch- and timweise dot product with a variable"
    }
    node_def {
      name: "ExpandDims/dim"
      op: "Const"
      attr {
        key: "dtype"
        value {
          type: DT_INT32
        }
      }
      attr {
        key: "value"
        value {
          tensor {
            dtype: DT_INT32
            tensor_shape {
            }
            int_val: 1
          }
        }
      }
    }
    node_def {
      name: "ExpandDims"
      op: "ExpandDims"
      input: "query"
      input: "ExpandDims/dim:output:0"
      attr {
        key: "T"
        value {
          type: DT_FLOAT
        }
      }
      attr {
        key: "Tdim"
        value {
          type: DT_INT32
        }
      }
    }
    node_def {
      name: "add"
      op: "Add"
      input: "keys"
      input: "ExpandDims:output:0"
      attr {
        key: "T"
        value {
          type: DT_FLOAT
        }
      }
    }
    node_def {
      name: "Tanh"
      op: "Tanh"
      input: "add:z:0"
      attr {
        key: "T"
        value {
          type: DT_FLOAT
        }
      }
    }
    node_def {
      name: "mul"
      op: "Mul"
      input: "v_att"
      input: "Tanh:y:0"
      attr {
        key: "T"
        value {
          type: DT_FLOAT
        }
      }
    }
    node_def {
      name: "Sum/reduction_indices"
      op: "Const"
      attr {
        key: "dtype"
        value {
          type: DT_INT32
        }
      }
      attr {
        key: "value"
        value {
          tensor {
            dtype: DT_INT32
            tensor_shape {
              dim {
                size: 1
              }
            }
            int_val: 2
          }
        }
      }
    }
    node_def {
      name: "Sum"
      op: "Sum"
      input: "mul:z:0"
      input: "Sum/reduction_indices:output:0"
      attr {
        key: "T"
        value {
          type: DT_FLOAT
        }
      }
      attr {
        key: "Tidx"
        value {
          type: DT_INT32
        }
      }
      attr {
        key: "keep_dims"
        value {
          b: false
        }
      }
    }
    ret {
      key: "sum"
      value: "Sum:output:0"
    }
    attr {
      key: "_noinline"
      value {
        b: true
      }
    }
  }
}
versions {
  producer: 26
  min_consumer: 12
}
